NeRF_CLIP/saved_one_img_models/one_img_color_mapper_epoch_60000.pth (torch, 397783 bytes, 6 tensors)

network.0.weight f4 [64, 512]
000000 cc 11 27 bd 37 41 d4 3c 2f e9 52 bd 96 72 47 3c
       -0.040788457 0.025910003 -0.051491912 0.0121733155
000010 0f e7 36 bd 4f 49 1c bd 02 d5 3d bc 16 09 18 bd
       -0.04465395 -0.03815585 -0.01158643 -0.03711804
000020 ac aa 81 bd b0 c2 d1 bb 7c 43 56 bd 1d 12 79 bc
       -0.06331381 -0.0064013824 -0.052310452 -0.015202072
000030 71 68 8b bc 6b 87 cd bc a5 71 15 3d ad bc 13 3d
       -0.017017575 -0.025088986 0.036485333 0.036068607
000040 1d 16 32 3d 71 67 a5 ba 99 76 f1 bb 1d 2b 0f 3c
       0.04347812 -0.0012619329 -0.0073688743 0.008738306
000050 2b 09 48 bd c8 ed 23 3b 31 97 c4 3b 6b 86 c4 bc
       -0.04883687 0.0025013555 0.0059994687 -0.023989877
000060 e6 81 0e 3d f3 85 d5 3c 7c 91 27 3d 48 08 67 3c
       0.03479185 0.026064849 0.04091023 0.0141010955
000070 63 f9 da 3a 22 f6 76 3d d9 b5 bc bc 5b a0 00 bc
       0.0016706403 0.060293324 -0.02303593 -0.007850732
000080 47 de 8d bc cf 49 dd bc bc 3c 12 bd 72 23 4e bd
       -0.017317904 -0.027012734 -0.035702452 -0.050326772
000090 32 45 10 bc 93 35 d0 3b 43 b4 6d bc ba 8d de bc
       -0.00880556 0.006354043 -0.01450831 -0.02716719
0000a0 07 3a 14 3d 56 81 50 bc 94 09 e4 bb bb 9c e7 bc
       0.03618815 -0.012726149 -0.0069591496 -0.028272977
0000b0 cd 9d a9 bc 17 05 53 3c 1f dc b3 3c 83 9e bb 3c
       -0.020705128 0.0128796315 0.021955548 0.022902733
0000c0 34 33 f9 3c ea 6d 8e 3c 7f 78 82 3d 39 85 f1 bb
       0.030419923 0.017386395 0.06370639 -0.0073706177
0000d0 42 09 e2 3c ad 52 93 bc 7f b0 18 3c 24 32 ee bb
       0.027592305 -0.017983759 0.009319424 -0.007269161
0000e0 7d 8c 55 3c b6 10 e0 3b f4 02 98 bc 75 eb 1a 3c
       0.013033983 0.0068379296 -0.018556096 0.009455551
0000f0 88 3c 04 3d f7 5a 2b 3c 29 2c 99 3b 36 cb 08 bd
       0.03228429 0.010458699 0.0046744538 -0.033396922
000100 aa b4 a2 3c 29 41 bd 3c fb 0b 8b bc 86 fb 9d ba
       0.019861538 0.02310236 -0.016973486 -0.0012053109
000110 19 87 8e 3c ff 14 9d 3b 29 03 f3 bc c0 99 3e 3c
       0.017398404 0.0047937627 -0.029664593 0.011633337
000120 85 9e a8 bc 79 1b 5d bc 3c 86 d6 3b 8d 13 4f ba
       -0.0205834 -0.0134953195 0.0065467637 -0.00078993366
000130 57 33 35 3c a7 3c f7 3b 7b 5d 19 bd ea d8 ca bb
       0.011059604 0.007545072 -0.037442666 -0.006190409
000140 24 df 00 3a c5 65 81 bd 19 73 96 3c 2d 20 b6 3c
       0.0004916063 -0.06318239 0.01836543 0.02223214
000150 26 2b 38 3d 24 56 1c bd c8 67 de 3b d7 89 b5 bc
       0.044963025 -0.038168088 0.006787274 -0.022160454
000160 22 51 6b bd 94 f1 2c bd cf 42 0e bc 0e 4d 07 bd
       -0.05745042 -0.042222574 -0.008682921 -0.03303247
000170 a5 de d6 3c f4 64 4e bc 2c 9f 30 3d bf 55 96 bc
       0.026229212 -0.012597311 0.043120548 -0.018351434
000180 b6 f6 9c bb 1e 68 56 bc a6 19 b5 3c 4b f9 8c bb
       -0.0047901524 -0.013086347 0.022106957 -0.004302179
000190 4f 32 00 bd f8 58 31 3c a1 42 42 3c 69 44 31 3d
       -0.031297978 0.010824434 0.011856706 0.04327813
0001a0 b1 97 28 3c 4d 8c 0d 3d 78 5d 8e bc 4a 29 55 bc
       0.010290072 0.03455763 -0.017378554 -0.013010332
0001b0 11 fa f2 bc b1 ae 9a bc 90 31 6d bc 39 0b 35 bd
       -0.029660257 -0.018882127 -0.014477149 -0.044200156
0001c0 c7 bc 1c bd 6d aa e3 bb a6 29 8f ba 5f 64 ac 3c
       -0.03826597 -0.0069478066 -0.0010922446 0.021043954
0001d0 6b e3 55 bd e9 f2 70 bd 12 11 ec 3b ba 47 dc 3c
       -0.052218836 -0.058825407 0.0072041834 0.02688967
0001e0 3e c4 76 bc fd c7 72 3c 2e b5 bd bb 75 6f 11 3d
       -0.015061436 0.014818189 -0.0057894206 0.035506684
0001f0 61 5f fd 3c ed 65 b5 bb f9 a5 16 3c e4 f0 cf 3c
       0.03092927 -0.005535832 0.009194844 0.02538342
000200 6a f6 af 3c b1 0e 87 bc b6 54 ca 3a b9 31 27 3d
       0.021479804 -0.016486498 0.0015436623 0.040818904
000210 61 58 ae bb a4 a3 8f 3a ad c2 43 3c 3b 46 18 bb
       -0.005320594 0.0010958803 0.01194827 -0.002323522
000220 08 2e 9d bc 29 96 0d 3d f0 5d 1a bd 36 3e f2 3c
       -0.019186988 0.034567032 -0.037687242 0.02957068
000230 b8 07 10 3d f7 5c 92 3c 93 ac cb 3c 4b 44 6e bc
       0.03516361 0.017866595 0.024862563 -0.0145426495
000240 f4 b0 4a 3d 40 fe 0e 3a b3 e7 7a ba b9 2b 30 bc
       0.049485162 0.00054547563 -0.0009571269 -0.010752612
000250 e3 28 d7 3c 18 64 45 3c 58 38 64 bd f9 7a 26 3c
       0.026264613 0.01204779 -0.055717796 0.010161155
000260 2d df 11 3c 00 e2 06 3d 1f 39 8b 3c 18 f9 34 bd
       0.008903307 0.032930374 0.01699501 -0.044182867
000270 16 80 76 3c 49 c6 63 3d 42 e9 73 bc 74 e6 82 bc
       0.0150451865 0.05560902 -0.014887156 -0.01597903
000280 86 8c 77 bc ef 42 de bc ee 94 74 3c 2f 15 6f bc
       -0.015109187 -0.027131526 0.014928086 -0.014592453
000290 39 61 0a 3d ff 03 04 3a 1a c2 93 bc af 9f b5 bc
       0.033784125 0.0005035996 -0.01803689 -0.02217087
0002a0 a0 13 43 3c 89 2d 20 bd 9b de f1 3c 85 30 8b 3c
       0.011906534 -0.039105926 0.029525092 0.01699091
0002b0 33 a1 61 bd 6a 1c 73 3d c4 2c 40 3d 42 ab 49 3c
       -0.055085372 0.05935327 0.04691769 0.012308897
0002c0 b6 ba b9 3c 0b f1 a6 ba b3 0b d1 bc 67 d3 4c bd
       0.022672039 -0.0012736631 -0.025518274 -0.050006296
0002d0 c9 6d 6f bd 49 2e 29 bb f5 23 a4 3c 2e 80 c8 bc
       -0.05845431 -0.0025814942 0.020036677 -0.024475183
0002e0 21 8f 33 3a f6 55 ee 3c fb 6c 23 3c c2 5c 2e 3d
       0.0006849636 0.029093724 0.009974713 0.04256893
0002f0 bd 88 24 3d d3 ce 22 bd 37 5e 26 bb 6a 5f 84 3c
       0.040169466 -0.039748024 -0.0025385746 0.016158778
000300 e7 bb 71 bc 4a fc 9f 3b 3c 7b 94 bc 6e 3f dd 3c
       -0.014754272 0.00488237 -0.018125169 0.027007785
000310 a2 cd 32 3d 04 f1 b4 bc e5 ba db 3c 1c 9a be bb
       0.043653138 -0.022087581 0.026822517 -0.005816711
000320 e6 0a 5e bd bb ab 0d 3d c5 93 ed bc 36 63 d3 bc
       -0.054209612 0.034587603 -0.029001126 -0.025804143
000330 5e 86 f6 3b 75 6c 5e 3c ea 13 95 39 54 bc 05 3d
       0.007523342 0.013575663 0.00028434332 0.032650307
000340 5c 39 67 bc 24 74 00 bd b2 ae 84 bc b4 63 54 bc
       -0.014112797 -0.03136076 -0.016196582 -0.012963224
000350 1e 31 02 bd fd a5 66 bc 7c d5 1c bd 69 73 eb bc
       -0.031785123 -0.014077661 -0.038289532 -0.028741555
000360 39 d6 7c bd d6 69 64 3c b0 25 61 39 66 7e d1 bc
       -0.061727736 0.013941249 0.00021471712 -0.025572967
000370 d6 dc eb 3c 0a 4d 23 bc 52 78 b5 bc ed f1 57 3d
       0.028791826 -0.009967098 -0.0221521 0.052720953
000380 22 e0 17 3d ca d4 10 bd c5 de 72 bd 36 c3 d0 bc
       0.037078984 -0.03535918 -0.05929448 -0.025483709
000390 c7 28 eb 3c 34 20 2b bc 85 ea ea 3c 37 89 29 3c
       0.028705968 -0.01044469 0.02867628 0.010347656
0003a0 dc 3f 0b 3c b8 5c 4c 3c 57 76 89 3a 5c 8f 8d 3c
       0.008499112 0.012473278 0.0010487539 0.017280273
0003b0 7a 47 e6 3c d6 b3 4b 3c 5c eb 91 3b 39 9c 19 3d
       0.028110255 0.012433013 0.004453106 0.0375025
0003c0 9d f3 2c bc 06 b1 22 3d b0 78 ab 3b a1 c8 be 3c
       -0.010556129 0.039719604 0.005232893 0.023289027
0003d0 a0 ce 9a bc 44 46 80 bc 1b 2e ae 3b 42 87 8e 3c
       -0.018897355 -0.015658505 0.005315555 0.01739848
0003e0 2c ae c1 3c c6 f1 b1 bc 58 0d 28 3c a4 fb 0f bd
       0.023642622 -0.021721732 0.010257088 -0.035152093
0003f0 c5 94 ae bb 96 54 c9 bb 55 f3 d2 3c af 41 25 3d
       -0.0053277933 -0.0061441166 0.025750795 0.040345844

network.0.bias f4 [64]
000000 62 2b 9c ba e2 6a f4 3d 9d 26 8d 3c 2a 4b ca 3c
       -0.0011914785 0.11934449 0.017230326 0.024694044
000010 7a 2c c6 3c e0 bd 15 bd 3f a3 1b bd c9 48 17 bd
       0.02419113 -0.036558032 -0.03799748 -0.036934648
000020 71 80 0f bd 6a 04 ac bc 99 dc 8e 3d 10 e8 86 bc
       -0.0350346 -0.020998199 0.069756694 -0.016468078
000030 b9 4d 03 bc 30 65 16 b9 81 d0 4a bd d1 9e ba bc
       -0.008014136 -0.0001434281 -0.04951525 -0.022780808
000040 69 a3 87 bc 64 ed 09 bd 9d fc 48 bd c6 ca dd bb
       -0.016557412 -0.03367366 -0.049069036 -0.0067685572
000050 3a fd 9f 3c 9a ae 1a bd 24 09 f9 3c a6 5a ae bc
       0.019529928 -0.03776417 0.030399866 -0.021283459
000060 7a 41 d0 3c ca 34 d9 3c c2 19 24 bc ea 3b 01 3d
       0.025421847 0.02651443 -0.010015907 0.03155128
000070 1d 8a 87 bc 73 fe 0b 3e bd 20 a5 bc b2 7d be 3c
       -0.01654535 0.13671283 -0.020157212 0.023253296
000080 b2 15 47 bc 1c 1a 33 3d 4e 18 83 3c 68 fa d8 3c
       -0.012151169 0.04372607 0.0160028 0.02648659
000090 6c 6d 2d ba ce 7c 0e bc d2 9d 82 3b 9a 77 b5 3d
       -0.00066157314 -0.008696748 0.003986099 0.08860703
0000a0 8c ee eb bb 78 f6 da 3c 1e 9a ec 3d 4c 3c 00 3d
       -0.007200068 0.026728854 0.11552833 0.031307504
0000b0 02 d0 0b bd 36 46 d2 bc 29 d2 24 3e 17 be e3 3c
       -0.03413392 -0.025668245 0.16095795 0.027800603
0000c0 71 3d 44 bd 7f d4 16 bc 66 27 53 bd cc c8 96 3c
       -0.047910158 -0.009205936 -0.051551245 0.018406294
0000d0 6f 0a 8f bc 16 00 90 bc 0f f9 98 3d 0f 03 02 bc
       -0.01746103 -0.017578166 0.07469379 -0.0079353
0000e0 41 48 b5 3c f6 a5 11 bd 7c 46 76 bc 80 50 a1 3c
       0.02212918 -0.035558663 -0.015031453 0.019691706
0000f0 15 63 5c bc c0 ba 0a 3d 73 0e 94 3b c7 8a 40 bd
       -0.013451357 0.033869505 0.004518324 -0.04700735

network.2.weight f4 [512, 64]
000000 7a e6 86 3c 8f 94 de 3c ea 89 27 bd c1 9f c3 bd
       0.016467322 0.027170448 -0.04090301 -0.09551955
000010 2e db c2 3c dc 12 1e bc 87 ea 3b 3d 5a a2 dc 3c
       0.023786154 -0.009648051 0.04587796 0.026932884
000020 4b cc 02 3d 5d 54 28 bc 79 af eb bc ca 64 32 bb
       0.03193311 -0.01027402 -0.028770195 -0.002722072
000030 4b 14 6a 3c 76 ce 73 3d 75 2c b4 bd c3 2c 7d 3c
       0.014287065 0.05952307 -0.08797542 0.015452567
000040 cc 34 62 bd 8a 22 bc bb 75 c1 02 bd c8 73 78 bc
       -0.055226132 -0.005741422 -0.031922776 -0.015164323
000050 cd 26 c3 3c 3a eb d5 bb 03 b5 97 3c ba a8 40 bc
       0.023822213 -0.0065282853 0.01851893 -0.011758978
000060 07 6b f8 3c ec 89 ce 3c f7 34 52 bd 6a 63 39 3c
       0.030324472 0.02521225 -0.051320042 0.011315206
000070 42 08 24 bc 5b 6f 04 3c 56 4c e6 bc 80 5a c6 3b
       -0.010011734 0.00808319 -0.028112572 0.006053269
000080 86 b9 b0 3a b5 2e 00 bd a3 47 98 bc a5 14 8e bc
       0.0013483025 -0.031294543 -0.018588847 -0.017343828
000090 2b 16 77 3d b9 f6 e4 3b de c1 b4 3d e8 50 d3 bc
       0.060323875 0.0069874194 0.0882604 -0.025795415
0000a0 d3 8b 8b bd 0b 9c be bd 1e 5e 37 bd f5 5d 11 bc
       -0.06813779 -0.093071066 -0.04476749 -0.008872499
0000b0 61 e5 44 bd 75 c8 71 3b af ff bd bc 39 05 01 3d
       -0.048070315 0.0036893163 -0.023193209 0.03149912
0000c0 6b 21 02 3d 0d 57 8b bb 6a 52 35 3d f5 b5 2b 3c
       0.03177015 -0.0042523206 0.04426805 0.010480394
0000d0 b7 22 24 bd a0 87 23 bc d9 0b 93 3d 7e 89 04 3d
       -0.04007217 -0.009981066 0.07179994 0.032357685
0000e0 7e 94 1e 3c 67 50 10 3e ad a8 2b bd 62 75 1e 3d
       0.009678958 0.14093171 -0.04190891 0.038686164
0000f0 4d 95 19 bd 02 11 96 bd b6 0a f7 3c 0c 84 94 3c
       -0.0374959 -0.07327463 0.030156475 0.018129371
000100 28 31 7b bc 4c ba 8e bd d2 2b c7 bd 88 ea 07 bd
       -0.015331544 -0.06969127 -0.09725155 -0.03318265
000110 b1 cb 17 3d e5 d1 5f bc b2 ec 9b 3c 0d f8 30 be
       0.03705949 -0.013660883 0.019033764 -0.17282124
000120 ff 86 85 3c 97 b0 a3 3d 82 c7 9b bd c8 52 79 bd
       0.016299723 0.07992666 -0.076064125 -0.060869962
000130 0a 47 88 bd 16 bf 99 3c 0e 28 a7 bd f4 64 23 bc
       -0.066541746 0.018767875 -0.08161937 -0.0099728
000140 eb 0f 23 3c 18 94 01 bd 98 26 7b bb dd 3b 7e 3c
       0.009952526 -0.031635374 -0.0038322564 0.015517202
000150 eb 49 90 3d fa b9 b5 bd ab 94 51 3d e9 a5 af bd
       0.07045349 -0.08873363 0.05116717 -0.08576567
000160 78 38 6f bd b1 69 cb bc 10 ec fd 3c 79 9b eb bd
       -0.058403462 -0.024830671 0.030996352 -0.115042634
000170 d3 1d 10 bc e0 62 e5 3d 8a 96 0f be dd f9 34 3c
       -0.008796173 0.112004995 -0.1402227 0.0110459
000180 45 a4 05 3e 43 6f f0 3b 33 06 a4 bd 93 d4 bc bc
       0.13050945 0.007337482 -0.08008995 -0.023050582
000190 98 dd 06 bd 62 5e 12 3d 31 63 e1 bd f5 53 81 bd
       -0.032926172 0.03573454 -0.110052474 -0.06314842
0001a0 41 24 32 3d a3 b9 0b 3c 1d 3c 87 3d f5 50 38 bd
       0.043491606 0.008528146 0.066032626 -0.04499908
0001b0 66 55 84 3d af 15 c1 3d 75 af 79 3d 8e 83 76 bd
       0.06461601 0.09427964 0.060958344 -0.060184054
0001c0 77 00 ba 3c ca e2 e6 bc 1f 6d f1 bd cc 0d 83 bc
       0.0227053 -0.028184313 -0.11788391 -0.01599779
0001d0 d5 4e 53 3d d1 e3 41 bc 50 bd b8 bd 4a 30 e7 3d
       0.051588852 -0.011834101 -0.090204835 0.11288507
0001e0 22 58 7d bc 0a 9b 0b 3d 48 eb f7 3b eb d5 9a 3c
       -0.015462907 0.034083404 0.0075658895 0.018900832
0001f0 91 77 0f 3d 06 a3 4a bb 71 12 a8 3c c7 91 c5 3c
       0.035026137 -0.0030919923 0.020516606 0.024117364
000200 c0 48 1f bd 41 cd 9e bd 33 a8 e1 bb 10 09 9d 3d
       -0.03888774 -0.07753993 -0.006886506 0.07667744
000210 3e f9 60 3d eb 8b a0 3d 66 f2 36 3d ab 4c b6 3b
       0.054925196 0.07839187 0.044664763 0.0055633388
000220 19 aa 8e 3c c9 b2 d6 3c 4f 9d 2e bd 7f e7 10 3d
       0.017415093 0.026208298 -0.04263049 0.035377022
000230 44 a9 3c bd ba be a3 bc e1 ed d1 3c 39 6e a1 3c
       -0.04605986 -0.019988406 0.025626125 0.019705879
000240 a3 7e a9 bd d6 ac ef bd 85 e4 be 3d 14 40 3d 3d
       -0.08276107 -0.11702888 0.093209304 0.046203688
000250 e5 e4 49 3d 36 a8 2c 3d 52 d2 b7 3b 02 95 05 3d
       0.049290556 0.042152606 0.005609789 0.032612808
000260 2f ce eb 3b 52 53 33 be 9c 12 04 3d 4c fa 1d 3d
       0.00719621 -0.17512253 0.03224431 0.03856878
000270 12 e9 c2 ba 54 3c 13 3e cc f7 64 bc da c0 04 bd
       -0.0014870486 0.14378482 -0.013975095 -0.03241048
000280 84 af d6 bd 88 7d 00 bd bf 84 b7 bd e2 01 5f 3d
       -0.10482696 -0.031369716 -0.08960866 0.054445155
000290 c4 05 ce 3d 87 65 5c 3c 44 8b 3b 3d 22 e6 fa 3d
       0.100596935 0.01345194 0.04578711 0.122509256
0002a0 e3 69 fe 3c 64 c5 54 bd 73 15 8a 3c ad 65 74 3d
       0.03105635 -0.05194606 0.01685593 0.059667278
0002b0 80 3e f7 3a d4 ef 75 3d c7 9d 8d bd ee 4a d1 3a
       0.0018863231 0.06004317 -0.06914859 0.0015967765
0002c0 28 4e a1 3d 38 ea 0c bb 17 e5 f8 3d eb be 3b bd
       0.07876235 -0.002150191 0.121530704 -0.04583637
0002d0 56 a6 ba bd ed 1f 8d bb df 95 94 bd 41 0e 3a bd
       -0.09113757 -0.0043067844 -0.07255148 -0.04542375
0002e0 8d dd db 3d c9 54 4e 3d b8 ea 0d 3d 33 04 df 3d
       0.10735617 0.050373826 0.034647673 0.10889473
0002f0 74 89 5b bd c7 05 c7 3a d4 9e 11 bd df 51 29 be
       -0.053597882 0.0015184217 -0.03555186 -0.16535138
000300 58 c4 e2 bd b3 8a 03 bd 6e 8b cd bd f3 28 2e bd
       -0.11072606 -0.032114696 -0.1003636 -0.04251952
000310 8a 39 71 3c 45 f8 84 3d 90 74 e2 bd ae bc ca bd
       0.014723191 0.06492666 -0.11057389 -0.09899269
000320 2d 98 1f bd e9 da 67 3d 12 ac cc bd 4b 28 93 3d
       -0.038963486 0.056605253 -0.09993757 0.0718542
000330 c3 0a 1a bd 13 b1 9e bd ad 52 81 bb 99 5d 2e 3d
       -0.03760792 -0.07748618 -0.0039466233 0.04256973
000340 23 00 8e 3d 88 d9 2f 3d 96 55 66 bd 40 4d 7c 3d
       0.0693362 0.042932063 -0.056233965 0.06159711
000350 a3 0a 3b b9 c7 eb b5 bd f2 85 15 bb d1 4d 0c be
       -0.00017837672 -0.088828616 -0.0022815433 -0.1370156
000360 09 27 52 bb ec 40 ca bd 97 03 00 bd c7 30 fb bc
       -0.0032066724 -0.09875664 -0.031253424 -0.030662907
000370 cd b0 af 36 3a f5 e5 3d 59 a3 95 bc a4 26 dd 3b
       5.2359887e-06 0.11228414 -0.018266367 0.006748991
000380 39 4e 23 bd 29 f3 e8 bd eb d4 87 3d af ec bd bc
       -0.03986952 -0.11374504 0.06632408 -0.023184149
000390 68 ad e4 3b c6 de 6c 3d 44 19 21 3d 92 be ca bd
       0.0069786794 0.05782964 0.039330736 -0.0989963
0003a0 64 3d 49 bc be 11 a6 bd 0e bf d5 bd f7 16 85 bc
       -0.012282703 -0.08108853 -0.104368314 -0.016246302
0003b0 fa f5 54 3d 7a 8b 19 bd a6 f5 bd 3d 65 6c 08 3d
       0.051992394 -0.03748653 0.09275369 0.033306498
0003c0 a0 aa 5f bd db 92 0b bd d8 b1 1a bd 47 4b 9f bd
       -0.05460608 -0.0340756 -0.03776726 -0.0777803
0003d0 8e 8a e5 3c 8d d7 12 bd 5c bf a4 3d 0c fc ee 3c
       0.02802017 -0.035850096 0.080443114 0.02917292
0003e0 d3 40 a0 bd 80 63 f5 3b c8 30 3e bd 07 a6 99 3d
       -0.07824864 0.007488668 -0.04643324 0.0750237
0003f0 f2 a0 90 bd 77 a0 35 3d 4c 87 0c 3d e1 4d a3 3d
       -0.07061948 0.044342484 0.034308717 0.079738386

network.2.bias f4 [512]
000000 80 b3 e4 bb f3 cd 32 3e 17 bc 19 bd 9d 6a a0 3d
       -0.006979406 0.17461376 -0.037532892 0.07832835
000010 ce 9b a8 3d f1 98 29 3e b1 ef dd bd 3f d2 bf bc
       0.082328424 0.16562249 -0.10836733 -0.023415683
000020 25 b9 f3 bd 6f 69 f0 bd 88 76 11 3d b7 95 d2 bd
       -0.11900548 -0.1173886 0.03551343 -0.10282462
000030 aa 39 45 3d e0 f2 44 bd 46 67 1b 3d 73 f1 01 be
       0.048150696 -0.048083186 0.037940286 -0.12689762
000040 d9 24 dd 3c ae 71 a1 be 16 0b f3 3c f7 25 fb bb
       0.02699511 -0.31532043 0.029668372 -0.007664438
000050 c9 b2 b0 3d 1b 66 9f bc bc a2 14 bb bc 0d fb 3d
       0.086278506 -0.019457867 -0.0022680005 0.12258479
000060 83 40 9c be 66 c6 f0 bc 3f d1 44 bd 69 9d a1 3d
       -0.3051797 -0.029391479 -0.048051115 0.07891352
000070 e4 cf 4e bd 3b c5 a1 3d 99 db 4b be f0 9f 81 be
       -0.05049123 0.07898947 -0.19907989 -0.25317335
000080 8e ec 91 be e9 f6 cc bd 8e a1 12 be 03 bc cf 3c
       -0.2850079 -0.10008032 -0.1431944 0.025358206
000090 b1 2e c6 bd b4 ee 05 3c 0c a9 af 3d 69 c8 9e bc
       -0.096768744 0.008174587 0.08577165 -0.019382672
0000a0 81 1a 49 3e 21 5a c4 3d 83 ad 5e 3e 8e ff 4e bc
       0.19639017 0.09587503 0.21745877 -0.012634171
0000b0 7a 30 89 be 7d 02 65 bd 2a 4f 5e 3e c9 0d ac 3d
       -0.26794797 -0.055910576 0.21709886 0.08401067
0000c0 e1 4c 84 3e 9c 72 2c be 3b 73 76 bd 77 d4 e3 bd
       0.25839904 -0.16840595 -0.060168486 -0.11124509
0000d0 49 13 db bc f5 34 f4 bd 33 d7 10 be 0e 8f 0b 3e
       -0.026742594 -0.11924163 -0.14144592 0.1362879
0000e0 90 41 70 3c c2 ee bf 3c ae b6 e5 bc 76 3d 22 3c
       0.014664069 0.023429278 -0.02804121 0.009902349
0000f0 42 e1 a4 3c 98 4e 32 be 51 5a 35 bd 7d 9a 9d be
       0.020126943 -0.17412794 -0.044275586 -0.30781928
000100 98 5b 97 3e 49 fc b1 3c 77 97 ec bd 09 7c bd bb
       0.29562068 0.021726744 -0.11552327 -0.0057826084
000110 20 d9 f3 bc 32 22 91 bc cc 81 e2 bc 0f f6 bc 3e
       -0.02976662 -0.0177165 -0.027649783 0.36906478
000120 64 de 99 be 89 91 f7 3c 0e b1 36 be 21 4c 43 be
       -0.30052483 0.030220764 -0.17840979 -0.1907201
000130 1e 42 0f be 58 b9 7a bd c0 82 4b bd a1 71 20 3d
       -0.13990065 -0.061211914 -0.04968524 0.039170865
000140 d3 e5 d4 3d ff 9b 12 3e d8 0a a0 3e d1 ca 7f 3a
       0.10395398 0.1431732 0.31258273 0.00097577
000150 90 ad 2c be 0e 82 bf bd 51 38 04 be c4 f7 8c be
       -0.16863084 -0.09350978 -0.12912108 -0.2753278
000160 5a b4 b8 3d 5f 6d db bd 0e a4 32 be 22 45 ae 3c
       0.09018774 -0.1071422 -0.17445394 0.0212732
000170 a8 9a be 3d e9 8f 6f be 05 24 d7 3d 17 e0 b3 3c
       0.09306842 -0.23394741 0.10504917 0.02195744
000180 90 38 9e bd 73 2b 44 bd bb 7e bd bc 5d 38 a0 3d
       -0.07725632 -0.047893 -0.023131719 0.078232504
000190 35 05 ef 3d 18 bb 71 bd b6 8a f1 bd b2 8e 83 be
       0.11670915 -0.059016317 -0.11794035 -0.25694805
0001a0 16 9a 62 3c 51 7f 31 bd b0 c4 95 3e e7 24 56 bb
       0.013830682 -0.04333431 0.29251623 -0.0032675804
0001b0 f8 13 56 3d 43 dc 25 3d e2 c7 e3 3d 15 84 7b bd
       0.052265137 0.04049326 0.11122109 -0.06140526
0001c0 ae 7d e1 3c 70 5d 8d 3d e0 31 c7 bc a8 ae 5c 3c
       0.027525749 0.069025874 -0.024315774 0.013469376
0001d0 6b 5a 96 bd 3b 7e 98 3d 47 5e 2b be 4f a9 14 bc
       -0.073414646 0.074459516 -0.16735183 -0.009073569
0001e0 71 69 87 3c b7 5f a3 3d ff 1a b4 bd 91 a1 20 3e
       0.01652977 0.079772405 -0.087942116 0.15686633
0001f0 e8 fe 3a 3d 6c e6 84 be 5a b0 29 be 3a f5 fd bd
       0.045653254 -0.25957048 -0.16571179 -0.12400289
000200 72 9c 06 3d 4f 9c 47 bd cd 1e e9 3d 11 52 43 be
       0.03286404 -0.048733052 0.11382828 -0.19074275
000210 05 91 a8 bd 4e f8 11 be 15 21 9a 3b ba 85 bd bd
       -0.08230785 -0.14254877 0.0047036507 -0.09254022
000220 12 c8 83 bc 90 ee 46 be 43 aa 83 bc 1e 73 24 3e
       -0.016086612 -0.19426942 -0.016072398 0.16059539
000230 dd 52 03 be d2 97 d0 3d a8 c1 c6 bd 3a 36 07 be
       -0.12824579 0.101852074 -0.09704906 -0.1320428
000240 88 26 96 bd 67 0d 8e 3d 70 7e 92 bd 12 c8 9c 3c
       -0.07331568 0.0693615 -0.07153022 0.01913837
000250 ce 97 fe bd f2 f0 4e 3e 7b e4 ad bd 6a be 98 3d
       -0.12431298 0.20209101 -0.08490845 0.074581936
000260 9e 45 ea bd ea 62 94 be ff 4b ce 3d 8e 8a fd 3c
       -0.1143906 -0.28981715 0.10073089 0.030949857
000270 9e 6c 84 be 1b 5b 47 3e ae 58 4e 3e 2d ed 8c 3c
       -0.25864118 0.19468348 0.20151016 0.017202938
000280 72 01 9c bd 63 96 f1 3d b3 7f 4b be c4 d1 94 3d
       -0.07617463 0.11796262 -0.19872932 0.07266572
000290 ed 4a ca bd 6e e1 29 bd 29 bd 06 3d 7c d9 0c 3e
       -0.09877572 -0.041474752 0.03289524 0.13754839
0002a0 c6 4a ad bc b9 5c c4 3d 99 3c 2e bd db e4 23 3e
       -0.021153819 0.09587998 -0.04253826 0.1600527
0002b0 69 04 1d 3d ec 84 66 3d 87 e0 47 be 0f 62 f7 3d
       0.038334284 0.056279108 -0.19519244 0.1207925
0002c0 0c ae 02 be c0 2b fb 3d 2d b1 2d 3e 89 83 be 3d
       -0.12761706 0.12264204 0.16962118 0.09302432
0002d0 69 6d 46 bd 68 14 57 be 32 28 0d be d5 a4 ec bd
       -0.048444185 -0.21003878 -0.13784865 -0.11554877
0002e0 eb 50 96 bd 42 7f 71 3d 76 ea 8e 3e 3b 81 11 3d
       -0.07339653 0.058959253 0.27913254 0.035523634
0002f0 2e 5d d8 bd 4f 3f 83 3d 94 6a 83 bc 77 9e 22 bd
       -0.105646476 0.064085595 -0.016042031 -0.039701905
000300 47 f2 3b 3c d8 94 95 3d 91 1a 32 be 78 1f c1 39
       0.011471338 0.0730378 -0.17392947 0.00036835275
000310 8a d1 4f be 60 df bc bd dd 23 b2 3d d2 cd 8e bd
       -0.20294777 -0.09222293 0.08698247 -0.06972851
000320 90 90 2f 3e 06 0c d0 bd c3 af b5 bd 59 0d 02 be
       0.1714499 -0.10158543 -0.088714145 -0.12700404
000330 60 f4 8a 3e 16 0b da 3c 81 57 8c 3d e5 5c be 3d
       0.27139568 0.026616614 0.068526275 0.09295062
000340 d4 d7 0c be 0b 9f d4 3d 25 9e 56 bc cc c5 c2 bd
       -0.13754207 0.103818975 -0.013099228 -0.09510383
000350 b1 63 1c 3d 80 0a 94 3e db 32 2c bd c8 21 02 3d
       0.03818101 0.2891426 -0.042040687 0.031770498
000360 f0 87 40 3e 5e e6 ab bd 95 42 07 bd fd df 05 3e
       0.18801856 -0.083935484 -0.033022482 0.13073726
000370 1b 06 33 bc 88 29 af 3d ec 9b 4b 3c fe 74 d6 3d
       -0.010926749 0.08552843 0.012427311 0.10471533
000380 4f 34 c0 bc bc f4 9f 3e a8 d4 ca 3d 55 b4 b4 bd
       -0.023462443 0.31241405 0.09903842 -0.08823458
000390 f9 73 84 bc af 7e 34 be 67 8a f5 bc 33 fc d7 3d
       -0.016168581 -0.17626451 -0.029973222 0.1054615
0003a0 f2 eb 23 be 4d 26 85 bd 0d 42 20 3e 2c 49 8a 3d
       -0.16007975 -0.06501446 0.15650196 0.06752238
0003b0 7c 6c 69 3c cd 0a 63 bd 06 64 22 bd 03 ec a7 3d
       0.014247056 -0.055430222 -0.03964617 0.081993125
0003c0 85 a1 45 be 39 92 55 be 1e 4f df 3d 63 c8 a6 3d
       -0.19299896 -0.20856561 0.10903762 0.081436895
0003d0 3b 22 a6 bd 77 66 8f be b6 0c 7a 3e fc 63 90 ba
       -0.08111998 -0.28007862 0.24418911 -0.0011016126
0003e0 82 31 02 3d 86 f3 92 bc 4b 04 04 bd c8 2a 7c 3d
       0.031785496 -0.017938387 -0.032230657 0.061564237
0003f0 15 a6 13 be 29 e3 62 3e dc 37 b1 bd c7 48 0f be
       -0.14418824 0.22156967 -0.086532325 -0.13992606

network.4.weight f4 [64, 512]
000000 93 e3 8f bd 56 34 2f 3d c3 cf 11 3d 62 7d 8d bb
       -0.07025828 0.04277452 0.035598528 -0.0043179253
000010 01 49 ab 3c ee 75 6a bc a5 ea f2 ba 69 78 f9 bc
       0.020908834 -0.014310343 -0.0018533064 -0.030452924
000020 63 ea 30 bd d6 c4 92 bd bd ff 33 3d 94 a3 17 3d
       -0.04319228 -0.0716645 0.043945063 0.037021235
000030 ab c5 83 bc e5 a6 5f bd 21 ea 15 3d 3b 9e a8 bd
       -0.016085466 -0.054602522 0.036600236 -0.08233305
000040 4a f9 b9 bb e7 e4 97 ba 7b 53 04 bd 34 ba 0c bd
       -0.0056754695 -0.0011588604 -0.032306176 -0.034357265
000050 a1 ee 70 bd cd 9e 27 3c ae 08 0f 3b d5 7c ca bc
       -0.058821324 0.010230732 0.0021825242 -0.024717728
000060 31 88 d0 3b 60 7b be 3d c2 68 f4 bc 3a 4c a1 3c
       0.0063638915 0.09300876 -0.029835109 0.019689668
000070 8a 9f 8a 39 e3 78 17 bd 16 a9 98 bc 2c eb 5a bc
       0.00026440277 -0.03698052 -0.018635314 -0.013361733
000080 33 f2 07 3d df 45 d3 3c 81 3b 37 3b 36 69 67 bc
       0.033189964 0.025790153 0.002795905 -0.014124205
000090 8f 9b 82 bd 31 fb a9 bd e4 6a 22 bd 93 a7 10 3c
       -0.06377327 -0.08299864 -0.03965272 0.008829015
0000a0 84 43 62 bc 21 9f f2 3c f9 2c 18 bb 17 9c 50 bd
       -0.013810042 0.029616894 -0.0023220165 -0.05093011
0000b0 e3 e0 2e bd 1f 58 53 bd b1 57 0d bd 40 b1 bb bc
       -0.042694937 -0.05159771 -0.034507457 -0.022911668
0000c0 30 a4 02 3d fe 3c 80 bd 8f 3d d7 3b f7 1b d2 bd
       0.031894863 -0.06261633 0.0065686177 -0.1025924
0000d0 17 98 19 bd 02 99 a4 bd 31 eb e4 bc 39 7d 37 3d
       -0.03749856 -0.080369964 -0.02794418 0.044797156
0000e0 3e 83 0d bd d1 59 90 3c b7 eb 82 3d 80 ae d1 3a
       -0.03454899 0.017620953 0.06392615 0.001599744
0000f0 52 ff 03 3d d1 d2 e8 bc ac 42 1f bd a4 be f8 3c
       0.032225914 -0.028420838 -0.038881943 0.030364342
000100 8f 38 db 3b ab e0 66 bd 77 61 81 bc e4 b0 5e bb
       0.006690092 -0.056366604 -0.015793545 -0.0033979947
000110 12 5c 04 bd 2d c9 7e bc ea cb 95 bd b6 80 77 3c
       -0.032314368 -0.015550894 -0.07314284 0.015106371
000120 00 5b a1 3c 7c a3 f1 bc ec fa 9e 3b 73 d7 5d 3c
       0.019696712 -0.0294969 0.0048516896 0.013540137
000130 fe 92 e1 3c 98 ce 1f bc 98 50 75 3d 0d 93 de 3c
       0.027535912 -0.009753846 0.059891313 0.027169729
000140 18 3f e1 3c 72 b3 8b 3d 34 f0 5f ba 47 9f 97 3d
       0.027495906 0.06821336 -0.0008542568 0.074034266
000150 34 bc 82 bd 47 e7 47 3c 71 72 b4 bc 87 df d4 bc
       -0.06383553 0.012201137 -0.022027226 -0.025985492
000160 2e 6b 0c 3d af 23 71 bc 2d 69 62 3d f6 b2 3e 3c
       0.034281902 -0.01471798 0.055276085 0.011639347
000170 2b 4d 71 bb 4d 7d 49 3d 54 64 62 bb 4c 9b 57 3d
       -0.0036819677 0.04919176 -0.0034544664 0.052638337
000180 04 df 59 3d c1 64 d5 3b 11 2a 80 bd f1 a6 56 3d
       0.0531912 0.006512255 -0.062580235 0.0524053
000190 ef cb ab bc 88 1e 80 bc e0 6c 16 3b 7a c5 b9 3c
       -0.020971267 -0.015639558 0.0022953078 0.022677172
0001a0 99 d9 fb bc 34 13 d2 3b 95 e2 14 bc 1f de ae 3b
       -0.030743407 0.0064109806 -0.0090872245 0.0053365375
0001b0 0f 9f 10 bd f0 33 4a 3c d4 26 22 bd 37 4a cf 3c
       -0.03530794 0.012341484 -0.03958781 0.025303943
0001c0 a8 49 1b 3c f3 ee b9 bc de a7 75 bd 01 cd 2d 3d
       0.00947801 -0.022696948 -0.059974544 0.042431835
0001d0 f6 db 0e be db 78 33 bd 3b 65 9c bd 41 38 dc bc
       -0.13951096 -0.04381643 -0.07636496 -0.026882293
0001e0 4c 1c 62 3d 9c 63 c5 bc 07 66 1a 3d 50 89 64 3a
       0.055202767 -0.024095349 0.037694957 0.0008717971
0001f0 1e a3 8f 3b 8b 8e 03 bd 88 eb 03 bd 68 b6 e2 bc
       0.0043834588 -0.03211836 -0.032207042 -0.027674869
000200 93 29 db bc b4 28 a2 3c fe b4 8d 3c fd eb 03 bc
       -0.026753223 0.0197948 0.017298218 -0.008051869
000210 6b 95 4a 3c 03 a2 be bc dd da f7 bc 40 8d dd 3c
       0.012364726 -0.023270613 -0.03025573 0.027044892
000220 89 53 33 3d 48 1f 34 bd 3b 4a 40 bc c4 43 4d 3d
       0.043780837 -0.043975145 -0.011736448 0.050113454
000230 f4 07 7c bd 1b fa 01 3d 4e 0d 04 bd db 5e 2c bd
       -0.061531022 0.03173266 -0.03223925 -0.04208265
000240 73 fa 00 bd b0 5f be ba 77 e5 1c 3d 39 f6 45 bd
       -0.031488847 -0.0014524367 0.038304772 -0.04833052
000250 23 61 0f 3d 39 53 fc bc 35 0f 6b bd d4 c5 3f bd
       0.035004746 -0.030801402 -0.05738755 -0.046819523
000260 0b d5 38 bd c3 4a 24 bd d8 d0 e1 3b 37 00 c0 bd
       -0.04512505 -0.04011036 0.006891351 -0.09375041
000270 20 f1 d1 3b 69 b5 c5 bc c7 35 1d 3c e5 23 c3 3c
       0.006406918 -0.024134355 0.009595341 0.023820827
000280 eb 39 05 be 73 14 81 bd d1 54 4e bb 8f a1 a2 bb
       -0.13010375 -0.063027285 -0.003148366 -0.004963107
000290 18 cd ed bb bd c5 6b 3c b2 7d 89 bd 52 d8 3d 3d
       -0.007257115 0.014390406 -0.067134276 0.046348877
0002a0 6d 7e bd 3b 52 cd 85 bc f3 bd 82 3c 50 e6 11 bd
       0.0057828934 -0.016333256 0.015959715 -0.035620034
0002b0 49 a9 75 3d a8 9e 3f bc 86 2a eb 3a ad 3a 16 3c
       0.059975896 -0.011695541 0.001794175 0.009169263
0002c0 d7 04 aa 3c d6 84 91 bc cf 1e 32 bd 48 ad 67 3d
       0.020754261 -0.017763536 -0.043486413 0.05656174
0002d0 d2 bc 76 3c 12 75 ee bd 75 f0 58 bd fb 18 a9 3d
       0.015059667 -0.11643423 -0.052963693 0.08256718
0002e0 8f 0a 48 3c f7 bc 6c 3c 2d ab 8a 3c ea 0e bc bb
       0.012209549 0.01444935 0.016927326 -0.0057390826
0002f0 7a 96 37 bc 6e c0 4d bc f2 92 5b 3d 9b ca 89 bd
       -0.01120531 -0.012558086 0.053606935 -0.06728097
000300 3f 0f af bc cb 1f 5d 3c 00 cc 07 3d 04 1e 7c 3d
       -0.021369575 0.01349635 0.033153534 0.061552063
000310 a9 cb 12 3c 65 50 25 bd d9 22 51 bc 95 ff 0b 3b
       0.008959689 -0.040359873 -0.012764656 0.0021362056
000320 ff b3 cd bb 53 86 1e bd da 39 68 3c 89 e4 b3 3c
       -0.0062775607 -0.03870232 0.014173949 0.02195956
000330 70 46 78 bc dc 5e 17 3c e2 7a 7d bd 23 8c 8d 3a
       -0.015153512 0.009238925 -0.06188477 0.001079921
000340 f2 d8 8e bd c8 2c c4 3b 4c 53 21 3d 06 af 1f bd
       -0.06974973 0.0059867837 0.03938608 -0.038985275
000350 a4 42 ce bc b3 b7 4e bc f3 8b fb bb c0 80 82 bc
       -0.025178261 -0.0126170395 -0.0076765954 -0.015930533
000360 a8 a2 c2 3c e8 c2 29 3d 4b 6e d0 bb 5b 67 47 bd
       0.023759201 0.041445643 -0.006360804 -0.04868255
000370 28 83 a1 3d d0 71 65 bd cb bb 6e bd 70 c9 3f 3d
       0.07886344 -0.056016743 -0.058284562 0.046822965
000380 cf ce 87 3c 76 06 21 bc 09 8f 54 3d 77 63 87 3a
       0.016578106 -0.009828201 0.05189422 0.0010329325
000390 66 e9 3e 3c a5 08 84 3c 18 35 97 bd a8 8c d9 3b
       0.011652326 0.016117403 -0.07383174 0.006639082
0003a0 da d9 05 bb 78 71 ea 3c 36 38 49 3c e9 0f c1 3c
       -0.002042404 0.02861856 0.012281468 0.023567157
0003b0 30 fe a0 3c a1 fa 8e 3d 33 51 fd 3c 8c 0c 47 bb
       0.019652456 0.069813974 0.030922508 -0.0030372469
0003c0 3b 4b 07 3d 4d d7 e8 3c 2f ff 14 bd 7b 0f f0 3c
       0.03303073 0.028422976 -0.036376175 0.029304257
0003d0 3e 02 96 3d c0 65 bf bb e7 3c 1f bc 8c a8 0b 3d
       0.073246464 -0.005840987 -0.00971911 0.034096286
0003e0 be 86 22 bc d4 01 18 bd b7 33 c9 bc f2 82 15 bb
       -0.00991982 -0.03711112 -0.024560792 -0.0022813645
0003f0 c3 c9 36 bc 5a 74 83 bc e3 b0 13 bd 8c 7b 66 3c
       -0.011156502 -0.016046692 -0.036057364 0.014067542

network.4.bias f4 [64]
000000 15 79 10 3e 89 85 c9 3d 0b 99 91 bc e6 b2 ba bd
       0.14108689 0.09839923 -0.017773172 -0.091161534
000010 75 ed 59 be 35 90 a8 be 94 19 50 3d 67 7f 9f bc
       -0.21281989 -0.3292252 0.050805643 -0.01946993
000020 9a 41 a8 3b 4f f8 cc 3d 79 d3 3a bd c0 b4 de bc
       0.0051347734 0.100082986 -0.045611832 -0.027185798
000030 a0 45 a1 bb 09 c0 b3 3d c2 f8 58 bd a5 fb 17 3d
       -0.00492163 0.08776862 -0.05297161 0.03710522
000040 bb c2 be bd 5a 32 cc 3e 18 a8 a2 bc 90 f9 a1 3e
       -0.09314486 0.39882165 -0.019855544 0.31635714
000050 12 6a 1e bd eb b5 47 be 38 3f 47 3a 46 e3 a1 be
       -0.038675375 -0.1950299 0.0007600668 -0.31618708
000060 d6 3a a2 be 3b fc a9 bd 27 71 9a be 4e 1f 54 3e
       -0.31685513 -0.08300062 -0.30164453 0.20715067
000070 02 6c 21 bd 8f e4 4e bd 09 24 34 bd 6f 81 5f 3d
       -0.039409645 -0.05051094 -0.04397968 0.054566797
000080 26 ce 40 bd aa 44 ff bd c6 c3 1c bb 0e b9 e2 39
       -0.0470716 -0.124642685 -0.00239204 0.00043243956
000090 38 93 aa 3e c5 0a aa 3e bd 47 37 bd 76 5f b1 be
       0.33315444 0.33211342 -0.04474615 -0.34643143
0000a0 d9 ad 0e 3d 57 61 82 3e bf 45 57 bd 84 ed 3a 3d
       0.034833763 0.2546489 -0.05255675 0.04563667
0000b0 06 05 94 bd 0f b0 82 3c f2 09 82 bc 5b ea e1 3c
       -0.07227521 0.015953092 -0.015873883 0.02757757
0000c0 2f 2c 99 3b 9d 7a b3 be 95 74 38 be ee 27 27 bb
       0.0046744565 -0.35054484 -0.18013223 -0.0025505978
0000d0 ca d9 da bc 6a be 54 3c 75 ff 3b bd 00 4f 98 be
       -0.026715178 0.012984851 -0.04589792 -0.29747772
0000e0 a0 99 b9 be e1 e6 df bc a6 80 ac 3e b7 bf 8a be
       -0.3625002 -0.027331771 0.336919 -0.27099392
0000f0 a7 57 10 bd 22 bb fc bc 46 7c b0 3e 3a a4 33 bd
       -0.03523984 -0.03085095 0.34469813 -0.04385779
