NeRF_CLIP/saved_one_img_models/one_img_color_mapper_epoch_70000.pth (torch, 397783 bytes, 6 tensors)

network.0.weight f4 [64, 512]
-0.04307906 0.028725052 -0.0449724 0.011762205 -0.040216476 -0.037403964 -0.004759212 -0.034736443
-0.05476349 -0.006684967 -0.05914958 -0.008110423 -0.023935962 -0.02077933 0.03403819 0.03214649
0.049483515 -0.005137621 -0.0070875953 0.0011289959 -0.055745155 -0.003848862 0.0056138434 -0.03013112
0.031593505 0.032472566 0.04137311 0.010807443 0.0009844267 0.05564388 -0.024211103 -0.0016796964
-0.023027219 -0.024134932 -0.030239323 -0.051081534 -0.014108801 0.00030445302 -0.008170214 -0.030104786
0.029347435 -0.02140855 -0.0075375913 -0.032498874 -0.02683229 0.005175795 0.01962668 0.025084972
0.037838224 0.023220835 0.058332648 -0.008687097 0.031567637 -0.011554894 0.017391564 -0.008737669
0.019441769 0.008139521 -0.023228763 0.00046634968 0.029618569 0.010810608 0.007132229 -0.039478496
0.015038481 0.020241385 -0.017590297 -0.009491759 0.01810167 0.0047957613 -0.030492444 0.017971251
-0.014208658 -0.014938322 0.012584537 -0.0064172517 0.00536459 0.008250528 -0.03836521 -0.012550639
0.006183136 -0.05793618 0.013502379 0.025319483 0.03885862 -0.032758206 0.006539429 -0.013662996
-0.05827074 -0.047700495 -0.009275696 -0.026515052 0.031480324 -0.013989474 0.048782673 -0.014338961
-0.007852329 -0.00660525 0.023858104 -0.000255147 -0.03547725 0.011562535 0.004045831 0.047141667
0.01098407 0.03181015 -0.01023714 -0.0083196 -0.026893217 -0.020904843 -0.013405686 -0.045788746
-0.041931886 -0.009266019 -0.0032977741 0.01434118 -0.055383384 -0.052912872 0.015186595 0.02749712
-0.012949444 0.016821306 -0.003025318 0.031601667 0.033701412 -0.009850182 0.008801009 0.026143838
0.025248615 -0.016983766 0.0025140871 0.042851083 -0.006339244 -0.00070283876 0.011217833 -0.00085517095
-0.011056208 0.035496324 -0.032530427 0.029789794 0.041825317 0.016755257 0.025912492 -0.017997188
0.05727976 -0.0031788154 -0.00375595 -0.008284763 0.02744993 0.016959636 -0.05417606 0.0047979457
0.010660803 0.02709105 0.012309627 -0.039459176 0.0067170304 0.0581506 -0.007154843 -0.023377506
-0.018724414 -0.024865732 0.010076844 -0.017361376 0.036555562 0.0070492215 -0.020282809 -0.02868095
0.011908839 -0.03305569 0.022566399 0.017990924 -0.05495991 0.06202512 0.049289633 0.0044339043
0.018934874 -0.0075687887 -0.029158346 -0.04203832 -0.061371766 -0.0075725005 0.02010227 -0.025989188
0.0024280585 0.034629155 0.014039558 0.049194895 0.039834127 -0.04633141 -0.0040913033 0.012049222
-0.017905498 0.0010885507 -0.012950463 0.029693706 0.049641587 -0.026014373 0.025547262 -0.007866828
-0.053549424 0.033643983 -0.026743049 -0.027247451 0.0040278025 0.0067193178 -0.0037443775 0.039175186
-0.008706081 -0.034235902 -0.011764478 -0.01867291 -0.027368704 -0.018430792 -0.044378404 -0.033615842
-0.06979864 0.015342897 -0.007335978 -0.021341652 0.031156452 -0.0042883228 -0.020920211 0.061503496
0.04374807 -0.03609785 -0.055707566 -0.019313728 0.031483244 -0.002738644 0.029831624 0.007241297
0.007411504 0.0063781724 -0.004139668 0.014614921 0.021568624 0.010125591 0.0022777594 0.032276537
-0.014209343 0.041369297 0.005784988 0.02043668 -0.012006652 -0.010264032 0.009554593 0.013733426
0.018539324 -0.02182103 0.016912587 -0.02691018 -0.0014885144 -0.009507343 0.03185022 0.03194049
00000000: ab73 30bd cd50 eb3c fb34 38bd 43b6 403c
00000010: 08ba 24bd e634 19bd 2af3 9bbb cd47 0ebd
00000020: ae4f 60bd 910d dbbb d446 72bd 94e1 04bc
00000030: 5a15 c4bc 6a39 aabc a16b 0b3d 0aac 033d
00000040: 3aaf 4a3d 7d59 a8bb 0f3f e8bb d1fa 933a
00000050: 0855 64bd 303d 7cbb 55f4 b73b 8ad5 f6bc
00000060: 3168 013d f401 053d da76 293d b411 313c
00000070: e107 813a d6ea 633d 5d56 c6bc 4229 dcba
00000080: 94a3 bcbc 9fb6 c5bc 75b8 f7bc df3a 51bd
00000090: 9a28 67bc fe9e 9f39 5cdc 05bc 509e f6bc
000000a0: 086a f03c fc60 afbc e6fd f6bb 8a1d 05bd
000000b0: 64cf dbbc b799 a93b 22c8 a03c 007f cd3c
000000c0: 41fc 1a3d 9f39 be3c 37ee 6e3d 5354 0ebc
000000d0: 114d 013d bd50 3dbc c178 8e3c 7128 0fbc
000000e0: 5844 9f3c a05b 053c 3f4a bebc 6580 f439
000000f0: a4a2 f23c fa1e 313c 79b5 e93b 34b4 21bd
00000100: f663 763c 43d1 a53c 8719 90bc 5383 1bbc
00000110: f449 943c c325 9d3b 4acb f9bc 7238 933c
00000120: 6ecb 68bc ddbf 74bc 602f 4e3c cf47 d2bb
00000130: 71c9 af3b 392d 073c d724 1dbd 32a1 4dbc
00000140: e79b ca3b 7d4e 6dbd 1539 5d3c ce6a cf3c
00000150: 372a 1f3d 782d 06bd b548 d63b c2da 5fbc
00000160: 4dad 6ebd 9861 43bd 17f9 17bc 1836 d9bc
00000170: 83f1 003d 1b34 65bc 57d0 473d f6ed 6abc
00000180: 0ea7 00bc da70 d8bb 1272 c33c 40c5 85b9
00000190: 9850 11bd c970 3d3c e492 843b 9f17 413d
000001a0: 87f6 333c 5c4b 023d adb9 27bc ee4e 08bc
000001b0: 2a4f dcbc a240 abbc 86a3 5bbc fb8c 3bbd
000001c0: c5c0 2bbd 80d0 17bc 781f 58bb 45f7 6a3c
000001d0: b0d9 62bd 2bbb 58bd 32d1 783c a441 e13c
000001e0: e829 54bc d6cc 893c 6a44 46bb c070 013d
000001f0: 7e0a 0a3d a862 21bc 1b32 103c 9a2b d63c
00000200: 2fd6 ce3c 8a21 8bbc 62c3 243b 9e84 2f3d
00000210: 6fb9 cfbb b63e 38ba 00cb 373c 8d2d 60ba
00000220: 1925 35bc 9864 113d a03e 05bd ba09 f43c
00000230: 0651 2b3d 5242 893c 6f46 d43c d76e 93bc
00000240: 2e9e 6a3d ac53 50bb 6226 76bb d1bc 07bc
00000250: adde e03c efee 8a3c b7e7 5dbd 1638 9d3b
00000260: a6aa 2e3c 0dee dd3c 51ae 493c f29f 21bd
00000270: 891a dc3b 532f 6e3d 2c73 eabb 2f82 bfbc
00000280: f163 99bc 38b3 cbbc 5919 253c 7239 8ebc
00000290: 49bb 153d 28fd e63b 2228 a6bc 50f4 eabc
000002a0: 4b1d 433c 6765 07bd 2bdd b83c b461 933c
000002b0: a51d 61bd 0d0e 7e3d ede3 493d 494a 913b
000002c0: 4f1d 9b3c 9a03 f8bb 7cdd eebc 6030 2cbd
000002d0: f660 7bbd bd22 f8bb 84ad a43c 47e7 d4bc
000002e0: 1020 1f3b 4dd7 0d3d 2d06 663c 9680 493d
000002f0: 1c29 233d 01c6 3dbd 5710 86bb 1a6a 453c
00000300: 8dae 92bc b3ad 8e3a 2e2e 54bc 3740 f33c
00000310: fa54 4b3d 181c d5bc 7e48 d13c dee3 00bc
00000320: a456 5bbd 46ce 093d 3d14 dbbc 0c36 dfbc
00000330: a8fb 833b b92d dc3b 3b64 75bb 2976 203d
00000340: f3a3 0ebc f23a 0cbd ccbf 40bc eef7 98bc
00000350: 5534 e0bc 2cfc 96bc 21c6 35bd c4b0 09bd
00000360: 97f2 8ebd c660 7b3c a562 f0bb b0d4 aebc
00000370: d13b ff3c 0f85 8cbb dd60 abbc 17eb 7b3d
00000380: 2d31 333d 57db 13bd 9e2d 64bd d337 9ebc
00000390: 93f4 003d d27a 33bb 7361 f43c 6748 ed3b
000003a0: 34dc f23b fdff d03b 0da6 87bb 6c73 6f3c
000003b0: afb0 b03c cfe5 253c 7646 153b 6734 043d
000003c0: 4ece 68bc da72 293d ff8f bd3b d36a a73c
000003d0: 8cb7 44bc 782a 28bc de8a 1c3c 2a02 613c
000003e0: c8df 973c 04c2 b2bc 448c 8a3c bd72 dcbc
000003f0: 411a c3ba b0c4 1bbc 6075 023d 08d4 023d

network.0.bias f4 [64]
-0.008229568 0.12532265 0.016844042 0.022473553 0.022255868 -0.035914365 -0.04307141 -0.03851247
-0.035940174 -0.02399566 0.062189914 -0.013621924 -0.010980116 -0.0074145985 -0.03922426 -0.023561886
-0.022010598 -0.034471784 -0.052376498 -0.008483661 0.01733955 -0.039317485 0.025765145 -0.027997203
0.028421095 0.031121012 -0.014987536 0.033397757 -0.024645384 0.13703905 -0.013712515 0.023578862
-0.0148070175 0.025403209 0.015776452 0.028442215 -0.0028650474 -0.0036662421 0.0047833184 0.087833695
-0.005915587 0.025368934 0.11821119 0.028709188 -0.033685666 -0.02971771 0.16512717 0.028569996
-0.048418894 -0.010963755 -0.053961188 0.018057927 -0.01837211 -0.01831888 0.076016694 -0.011181623
0.021518173 -0.03340148 -0.018337382 0.017927125 -0.02297539 0.0351858 0.0046345238 -0.046567965
00000000: 4fd5 06bc 9554 003e 84fc 893c 751a b83c
00000010: f051 b63c f11a 13bd a66b 30bd 40bf 1dbd
00000020: 0136 13bd 8c92 c4bc daba 7e3d 7e2e 5fbc
00000030: f2e5 33bc 29f6 f2bb 9ea9 20bd db04 c1bc
00000040: 924f b4bc 4932 0dbd bd88 56bd 0eff 0abc
00000050: ac0b 8e3c 5f0b 21bd 6d11 d33c 645a e5bc
00000060: 5bd3 e83c 7ef1 fe3c 488e 75bc 16cc 083d
00000070: 1ee5 c9bc f753 0c3e 75aa 60bc 7528 c13c
00000080: 2299 72bc 641a d03c 9e3d 813c a6ff e83c
00000090: 85c3 3bbb 5645 70bb 62bd 9c3b 27e2 b33d
000000a0: 8ad7 c1bb 83d2 cf3c b518 f23d 882f eb3c
000000b0: fbf9 09bd 8e72 f3bc 1917 293e a00b ea3c
000000c0: e452 46bd 52a1 33bc 6806 5dbd 38ee 933c
000000d0: 1b81 96bc 7a11 96bc a4ae 9b3d 2033 37bc
000000e0: e146 b03c fecf 08bd 4738 96bc e8db 923c
000000f0: e336 bcbc fc1e 103d 34dd 973b 0dbe 3ebd

network.2.weight f4 [512, 64]
0.0008475082 0.02595045 0.0014962441 -0.04642253 0.006607724 0.0150345005 -0.0017199744 0.031377822
0.055556882 0.023680652 -0.029470727 0.0053877016 -0.015155901 0.0034896755 -0.13588549 -0.067915805
-0.030171063 -0.06352232 -0.002501799 -0.01877397 -0.036093526 0.004013568 0.090380706 0.09380039
-0.007599109 0.014259017 -0.018773833 -0.040638424 -0.0022233755 0.007003486 0.022414709 -0.105733626
-0.024137408 -0.07494124 -0.045183767 -0.10508891 0.024899231 -0.00619289 0.032079462 -0.026520478
-0.101290345 -0.106501184 -0.045749243 -0.046237998 -0.071725756 0.0084131155 -0.024261773 0.006708557
0.03651896 -0.057046942 0.011349608 -0.064497925 0.012238181 -0.0017834821 0.07079571 0.020343373
-0.073225304 0.13322906 -0.056562286 -0.013665728 -0.09188279 -0.11323258 -0.03713796 -0.07780476
-0.06151311 -0.07272209 -0.045049615 -0.08450918 0.037641343 0.03486255 -0.018166488 -0.11022615
-0.012312519 0.020727387 -0.08272356 -0.021242544 -0.08741147 -0.008349775 -0.1077472 -0.008381813
-0.037846413 -0.065613724 4.1219782e-06 -0.095548436 0.07065482 -0.12649094 0.036554687 -0.13338575
-0.07233843 -0.0038120872 -0.03166725 -0.09175981 -0.04503699 0.10783771 -0.03555274 0.04842528
0.01631602 -0.056778353 -0.040249374 -0.009344386 -0.048828557 0.055658147 -0.102986895 -0.06808001
0.036146626 -0.025496578 0.061810024 -0.04800732 0.08445647 -0.024990778 0.05705295 -0.036992963
0.015025553 -0.06985984 -0.04952091 -0.024202542 0.009910643 -0.0047515575 -0.09472164 0.096214786
0.0402773 -0.062245633 -0.022569694 0.030139199 0.0068277903 0.079559825 0.023844197 -0.036641873
-0.053617917 -0.07619744 -0.031502876 0.039217446 0.07626297 0.11402758 0.0383519 -0.10805621
0.03436839 0.026320087 -0.04015878 0.032571327 -0.07913655 -0.023582445 0.08356612 0.014282684
-0.016940018 -0.09002727 0.06277811 0.05071356 0.053023394 0.023802765 0.016900554 0.033879437
-0.008608592 -0.06709331 0.028513733 -0.02875052 -0.017549347 0.14549635 0.009583725 -0.07146772
-0.04410004 -0.06280849 -0.08409493 0.068809755 0.04973488 0.06955286 0.09786045 0.124732755
0.06360271 -0.09994999 0.018879622 -0.0026822411 -0.052933726 0.0368639 -0.06740109 -0.03014655
-0.028431345 -0.052465804 0.06574188 -0.009716342 -0.041648425 -0.08802802 -0.07044265 -0.038229205
0.039348207 -0.032088723 0.010137934 0.10486942 0.0064677023 0.016085858 -0.0143305 -0.11812058
-0.041391883 -0.037232015 -0.06565441 0.019701619 0.083486415 -0.022294901 -0.12607002 -0.0028889328
0.02141197 -0.047992613 -0.10492486 0.12714656 -0.030762218 0.016220886 -1.7064307e-06 0.044508364
0.021202598 0.059805736 -0.007112956 0.013906623 -0.017920867 -0.07342836 0.045048755 -0.037596755
0.0032463265 -0.038640518 -0.01286858 -0.024562173 0.051090997 0.10714092 -0.071679346 0.026752397
0.010391327 -0.05385145 0.10532636 -0.014661143 0.013790183 -0.030019835 0.015493293 -0.1037591
-0.0036685928 -0.031587582 -0.109205686 -0.00956145 0.05688838 -0.04260123 0.08754352 0.0013260158
-0.07336161 -0.058223102 0.014182382 -0.08239067 0.008265407 0.03169321 0.07565224 0.06936929
-0.056405187 0.021734057 -0.0054394947 0.03997649 -0.0661431 0.081263855 0.04965561 -0.062100217
00000000: 502b 5e3a 0a96 d43c 9f1d c43a 8d25 3ebd
00000010: 9b85 d83b 4453 763c c470 e1ba 0886 003d
00000020: 9d8f 633d edfd c13c 986c f1bc 518b b03b
00000030: 7550 78bc 0ab3 643b 9125 0bbe 7117 8bbd
00000040: 4e29 f7bc fd17 82bd 39f5 23bb decb 99bc
00000050: ced6 13bd 4084 833b 8519 b93d 6b1a c03d
00000060: f201 f9bb a79e 693c 95cb 99bc 7a74 26bd
00000070: 0db6 11bb 807d e53b 0d9f b73c df8a d8bd
00000080: d0bb c5bc cb7a 99bd 9d12 39bd db38 d7bd
00000090: 79f9 cb3c baed cabb c165 033d 7941 d9bc
000000a0: 5071 cfbd 4b1d dabd 8f63 3bbd 0e64 3dbd
000000b0: f4e4 92bd 2ad7 093c a0c0 c6bc 74d3 db3b
000000c0: e894 153d 0eaa 69bd b5f3 393c 7d17 84bd
000000d0: a782 483c bbc3 e9ba 57fd 903d 25a7 a63c
000000e0: 26f7 95bd 336d 083e dbad 67bd 38e6 5fbc
000000f0: 0b2d bcbd 7ce6 e7bd f91d 18bd 1a58 9fbd
00000100: 2cf5 7bbd 52ef 94bd f285 38bd 2613 adbd
00000110: cf2d 1a3d 09cc 0e3d e3d1 94bc 3fbe e1bd
00000120: 73ba 49bc 7bcc a93c f86a a9bd d804 aebc
00000130: c904 b3bd 7fcd 08bc 90aa dcbd df53 09bc
00000140: d704 1bbd 7d60 86bd 864f 8a36 e6ae c3bd
00000150: 79b3 903d d786 01be 5eba 153d 4696 08be
00000160: 2c26 94bd 36d4 79bb 85b5 01bd 91ec bbbd
00000170: b578 38bd 04da dc3d c09f 11bd 9659 463d
00000180: 2da9 853c 6b90 68bd 87dc 24bd 3219 19bc
00000190: 7400 48bd ccf9 633d cbea d2bd 886d 8bbd
000001a0: 7c0e 143d 33de d0bc 822c 7d3d 53a3 44bd
000001b0: 84f7 ac3d 76b9 ccbc 5bb0 693d ef85 17bd
000001c0: bd2d 763c ad12 8fbd 70d6 4abd 6944 c6bc
000001d0: 4060 223c f4b2 9bbb 6bfd c1bd 420c c53d
000001e0: cff9 243d 47f5 7ebd 14e4 b8bc 7be6 f63c
000001f0: a8bb df3b 43f0 a23d e854 c33c ca15 16bd
00000200: 769e 5bbd 670d 9cbd 2909 01bd 79a2 203d
00000210: c32f 9c3d 4b87 e93d e216 1d3d 934c ddbd
00000220: dec5 0c3d 399d d73c 887d 24bd 8369 053d
00000230: 5812 a2bd f92f c1bc b724 ab3d eb01 6a3c
00000240: cbc5 8abc 3860 b8bd cf91 803d 06b9 4f3d
00000250: 0f2f 593d 04fe c23c 0873 8a3c 2ac5 0a3d
00000260: 0d0b 0dbc 3868 89bd a295 e93c 3686 ebbc
00000270: a6c3 8fbc fffc 143e 0e05 1d3c ab5d 92bd
00000280: 3ea2 34bd bda1 80bd f639 acbd 21ec 8c3d
00000290: cdb6 4b3d bb71 8e3d 0f6b c83d e373 ff3d
000002a0: 2342 823d 95b2 ccbd 70a9 9a3c 8ac8 2fbb
000002b0: 09d1 58bd 9afe 163d 9509 8abd e6f5 f6bc
000002c0: dae8 e8bc 62e6 56bd aea3 863d 4b31 1fbc
000002d0: 8a97 2abd 0948 b4bd 3c44 90bd 3a96 1cbd
000002e0: 962b 213d 776f 03bd 9419 263c c7c5 d63d
000002f0: 05ef d33b 7dc6 833c 79ca 6abc 34e9 f1bd
00000300: 898a 29bd 9980 18bd d275 86bd 4a65 a13c
00000310: edfa aa3d cca3 b6bc 8018 01be 4054 3dbb
00000320: 2868 af3c e793 44bd d8e2 d6bd b532 023e
00000330: 0c01 fcbc aae1 843c 8308 e5b5 674e 363d
00000340: 12b1 ad3c dcf6 743d cd13 e9bb 9bd8 633c
00000350: c8ce 92bc 9c61 96bd 0b85 383d 0eff 19bd
00000360: 52c0 543b 8545 1ebd bdd6 52bc 9c36 c9bc
00000370: cb44 513d b36c db3d 9fcc 92bd d827 db3c
00000380: 6240 2a3c 5793 5cbd 59b5 d73d 4a35 70bc
00000390: 38f0 613c 28ec f5bc 95d7 7d3c a77f d4bd
000003a0: c66c 70bb fb61 01bd 3ba7 dfbd a1a7 1cbc
000003b0: ca03 693d a17e 2ebd 044a b33d b5cd ad3a
000003c0: 9d3e 96bd 597b 6ebd 395d 683c 71bc a8bd
000003d0: a16b 073c bdd0 013d 90ef 9a3d 7c11 8e3d
000003e0: 2009 67bd 9f0b b23c ca3d b2bb 63be 233d
000003f0: 0976 87bd aa6d a63d ae63 4b3d cc5c 7ebd

network.2.bias f4 [512]
-0.01030697 0.17618424 -0.039114863 0.072776094 0.08147824 0.17403392 -0.110300854 -0.026256448
-0.1201299 -0.12011985 0.036390487 -0.114696436 0.047588836 -0.047832534 0.037144046 -0.12199007
0.023475232 -0.33158353 0.020819731 -0.007931147 0.08852818 -0.022985851 -0.0028987778 0.11955045
-0.3201662 -0.02883077 -0.051166147 0.077205755 -0.048248373 0.09181497 -0.2048484 -0.26919985
-0.29671893 -0.099253036 -0.14900976 0.027462814 -0.0983509 0.007381128 0.08115823 -0.009496545
0.1992603 0.089041136 0.22017398 -0.012736529 -0.2822352 -0.059892494 0.22983024 0.080709025
0.27435663 -0.17090356 -0.060133927 -0.113400616 -0.029437875 -0.118385404 -0.13701701 0.13298069
0.012057106 0.021957442 -0.030656537 0.012611662 0.021368263 -0.1762188 -0.04217048 -0.32147503
0.30937976 0.021679262 -0.11830395 -0.004925642 -0.035506304 -0.01658574 -0.026044171 0.38827318
-0.3169871 0.02618123 -0.17779766 -0.19200037 -0.13732105 -0.060457878 -0.049866755 0.039620385
0.10413373 0.14655288 0.33086264 -0.0007230344 -0.17317186 -0.0941392 -0.13254555 -0.28769594
0.088752426 -0.106636815 -0.17747787 0.014016481 0.09165912 -0.24421376 0.09352607 0.020403093
-0.08098107 -0.05299936 -0.028344134 0.07455561 0.11562407 -0.06199944 -0.11713173 -0.25013733
0.015585729 -0.045611758 0.3090819 -0.0039054644 0.05247426 0.042071983 0.11207041 -0.06399276
0.026126502 0.06967993 -0.02283197 0.010285646 -0.07707608 0.06885294 -0.16914777 -0.012464678
0.011847504 0.07366857 -0.089071855 0.15565349 0.040450606 -0.27170944 -0.16907518 -0.123110674
0.033352874 -0.046793897 0.11359534 -0.19319817 -0.08117471 -0.14146072 0.0051087327 -0.09293114
-0.018032188 -0.19939093 -0.01894964 0.15445061 -0.12468738 0.10211369 -0.096389204 -0.13650876
-0.070014745 0.06793314 -0.071099795 0.020736668 -0.123810045 0.19772051 -0.09171283 0.072275415
-0.113502465 -0.30683565 0.096782535 0.036674757 -0.26052245 0.19732544 0.2042956 0.020078233
-0.076657206 0.11732799 -0.1953948 0.07662481 -0.10042747 -0.042514905 0.03525706 0.13791661
-0.026064217 0.09408238 -0.044727422 0.16324683 0.040367052 0.057286937 -0.19191578 0.10843414
-0.12743174 0.12643975 0.18385677 0.09610418 -0.049407214 -0.21214174 -0.13364786 -0.11791708
-0.07530002 0.0539272 0.29577184 0.028546516 -0.10990206 0.060214907 -0.017275766 -0.04390572
0.011130662 0.074322924 -0.17180122 -0.0019649903 -0.21251689 -0.0901356 0.08663907 -0.07129225
0.16691108 -0.10154948 -0.094541304 -0.13174777 0.2869873 0.029557738 0.06687652 0.09379002
-0.13661769 0.104174726 -0.01398816 -0.09736325 0.032889664 0.29101542 -0.044310395 0.027027395
0.17633045 -0.08206797 -0.03449643 0.1344755 -0.014094575 0.084456995 0.00956584 0.1065281
-0.019669173 0.3314814 0.097904205 -0.083749674 -0.017081806 -0.19343121 -0.031366087 0.102874435
-0.16134308 -0.06686233 0.1610513 0.06287404 0.013068839 -0.054490607 -0.04458114 0.090057045
-0.18533176 -0.22348645 0.105034776 0.080063485 -0.06917263 -0.2912809 0.2410597 -0.0015025708
0.031001197 -0.023150744 -0.030823449 0.05429702 -0.14267416 0.23428875 -0.08993126 -0.14379004
00000000: 91de 28bc a469 343e e836 20bd a20b 953d
00000010: 10de a63d f335 323e 6ae5 e1bd c317 d7bc
00000020: aa06 f6bd 6501 f6bd 310e 153d f7e5 eabd
00000030: 83ec 423d 0cec 43bd 5b24 183d eed5 f9bd
00000040: 214f c03c 51c5 a9be 248e aa3c a4f1 01bc
00000050: 434e b53d d34c bcbc 6cf9 3dbb ded6 f43d
00000060: d3ec a3be 822e ecbc 9893 51bd 0d1e 9e3d
00000070: 16a0 45bd 7d09 bc3d c7c3 51be 90d4 89be
00000080: 8beb 97be 2d45 cbbd 0496 18be b2f9 e03c
00000090: 326c c9bd 64dd f13b 4936 a63d 6697 1bbc
000000a0: e40a 4c3e 335b b63d 4a75 613e e0ac 50bc
000000b0: 2281 90be d551 75bd 9e58 6b3e c64a a53d
000000c0: 7978 8c3e 5801 2fbe fe4e 76bd 953e e8bd
000000d0: b327 f1bc 0c74 f2bd 304e 0cbe 172c 083e
000000e0: 2b8b 453c 18e0 b33c 6b23 fbbc 25a1 4e3c
000000f0: 7f0c af3c b372 34be f4ba 2cbd 6098 a4be
00000100: 0667 9e3e b598 b13c 5749 f2bd 4867 a1bb
00000110: 0f6f 11bd d1de 87bc 965a d5bc becb c63e
00000120: 224c a2be 057a d63c 9710 36be bf9b 44be
00000130: e49d 0cbe aea2 77bd 1541 4cbd fc48 223d
00000140: 1144 d53d f511 163e d466 a93e 048a 3dba
00000150: f753 31be 0ecc c0bd 05ba 07be e24c 93be
00000160: d5c3 b53d 6764 dabd c2bc 35be 62a5 653c
00000170: c7b7 bb3d 2c13 7abe 998a bf3d 6324 a73c
00000180: 67d9 a5bd db15 59bd f531 e8bc 9db0 983d
00000190: 50cc ec3d 20f3 7dbd c3e2 efbd 0012 80be
000001a0: 495b 7f3c 65d3 3abd fc3f 9e3e d2f2 7fbb
000001b0: 40ef 563d ac53 2c3d 2c85 e53d a30e 83bd
000001c0: 3f07 d63c 5ab4 8e3d 1d0a bbbc 2085 283c
000001d0: 10da 9dbd c502 8d3d 1335 2dbe a638 4cbc
000001e0: 091c 423c 8cdf 963d 4e6b b6bd a163 1f3e
000001f0: 89af 253d 801d 8bbe 0b22 2dbe 7321 fcbd
00000200: 069d 083d f5aa 3fbd aca4 e83d bed5 45be
00000210: ed3e a6bd 14db 10be 2867 a73b ae52 bebd
00000220: 3db8 93bc 232d 4cbe 473c 9bbc 4d28 1e3e
00000230: 195c ffbd fb20 d13d b467 c5bd f4c8 0bbe
00000240: e463 8fbd 8820 8b3d c59c 91bd f2df a93c
00000250: 1f90 fdbd 3f77 4a3e f0d3 bbbd 2205 943d
00000260: fb73 e8bd 9019 9dbe ec35 c63d 4538 163d
00000270: 3363 85be ae0f 4a3e de32 513e 1b7b a43c
00000280: 74fe 9cbd a849 f03d 9315 48be 78ed 9c3d
00000290: ebac cdbd 1c24 2ebd b569 103d 033a 0d3e
000002a0: a084 d5bc 43ae c03d 1a34 37bd 2d2a 273e
000002b0: ec57 253d b5a5 6a3d 9285 44be b812 de3d
000002c0: 777d 02be 6c79 013e f344 3c3e 45d2 c43d
000002d0: 385f 4abd af3b 59be fcda 08be 837e f1bd
000002e0: e636 9abd c5e2 5c3d 686f 973e 62da e93c
000002f0: 5514 e1bd e8a3 763d e885 8dbc 7cd6 33bd
00000300: 615d 363c 9e36 983d a9ec 2fbe 11c7 00bb
00000310: 079e 59be 0399 b8bd d36f b13d ac01 92bd
00000320: bdea 2a3e 2cf9 cfbd df9e c1bd e3e8 06be
00000330: 00f0 923e 1223 f23c 8ff6 883d fb14 c03d
00000340: 82e5 0bbe 8f59 d53d 982e 65bc 6266 c7bd
00000350: 50b7 063d f9ff 943e d17e 35bd 8e68 dd3c
00000360: f88f 343e 4013 a8bd 214c 0dbd f2b3 093e
00000370: efec 66bc caf7 ac3d 0aba 1c3c 682b da3d
00000380: 3f21 a1bc eeb7 a93e 0082 c83d f384 abbd
00000390: 25ef 8bbc d512 46be ba79 00bd d5af d23d
000003a0: 1f37 25be 1eef 88bd a2ea 243e 1bc4 803d
000003b0: af1e 563c 8b31 5fbd b79a 36bd d46f b83d
000003c0: 9cc7 3dbe a2d9 64be 791c d73d 53f8 a33d
000003d0: 61aa 8dbd c522 95be 5bd8 763e e9f1 c4ba
000003e0: 39f6 fd3c a1a6 bdbc 7581 fcbc 8d66 5e3d
000003f0: 2d19 12be 64e9 6f3e e12d b8bd b23d 13be

network.4.weight f4 [64, 512]
0.025487216 0.027102355 0.08439274 0.054085292 0.032436285 -0.017228622 0.018412476 0.00046780735
-0.060112897 -0.06726031 0.06838612 0.039931946 -0.031154012 -0.111033216 0.053777672 0.025373267
-0.04813668 -0.0015031818 -0.024729982 -0.03747074 -0.020248655 -0.01234869 0.011277841 -0.0077587664
0.0056910203 -0.032536574 0.032582525 0.009968021 -0.011447748 -0.0057211705 -0.017366663 -0.01240636
0.031624153 0.036205467 0.054040253 0.005706671 -0.101471454 -0.08783073 -0.01623585 0.04169866
0.02353549 0.017054481 -0.008382695 -0.011291906 -0.040417254 -0.07537137 -0.035352968 0.037612304
0.028847897 0.013920211 0.023823025 -0.062461894 -0.029330742 -0.078358784 -0.024938082 -0.015922707
0.016353767 -0.0011758674 0.07528167 0.0575317 0.14659862 -0.058700167 0.03558315 0.027829045
0.0056090145 -0.009731343 0.015573241 -0.093022816 -0.07469589 0.021191446 -0.03730851 0.0155467475
0.019351754 -0.021985028 -0.008541538 -0.0070916647 0.06909546 -0.035602335 0.04995995 -0.018022675
0.013213657 0.03917819 -0.00043431978 0.014236126 -0.06450468 0.027069712 -0.031396937 -0.023614777
0.0022622147 -0.0036533463 0.076161474 0.031250495 -0.00338229 0.05050347 0.033585057 0.039355233
0.04237781 -0.0001710032 -0.039309934 0.054381564 -0.0152529925 0.024413852 0.01177957 0.0629952
-0.00088607456 -0.0022028666 -0.00963898 -0.0016527501 -0.03752482 0.035737734 -0.026581766 -0.022495955
0.031096656 0.025910422 -0.034417693 0.070842564 -0.08742628 0.016870728 -0.042927746 0.03158203
0.043578018 -0.06602549 0.019818159 0.006483469 -0.02314205 -0.031237725 -0.08271486 -0.037762567
0.052186202 0.061973218 -0.0011019437 -0.021411778 0.00942421 0.0296717 -0.021359447 -0.023406958
0.00736726 0.0015639078 -0.01945328 0.034153167 0.014588155 0.0100060385 0.044685263 0.036446836
-0.0055464576 -0.013852631 0.03715629 -0.037226208 0.05965531 -0.009470089 0.0066332393 -0.04704825
-0.08778045 -0.038470004 0.13778156 -0.026018823 0.024760308 -0.03951245 -0.027801739 0.016724024
-0.031849924 0.01207903 0.008680553 -0.042862367 0.0265066 0.027490754 0.007386069 0.073877856
-0.020545624 -0.017531512 0.02863433 -0.01936202 -0.022475006 0.014693628 0.005691646 -0.01689594
-0.02929906 -0.03294817 -0.044840854 0.011957472 0.057242792 -0.019018915 0.020538587 0.06810929
0.033542026 0.008934888 0.01755848 -0.06758187 -0.07706116 -0.06043167 -0.006161425 -0.021056173
-0.09190898 -0.02530648 0.07426553 0.032009568 0.0075263493 -0.03009297 -0.02236522 -0.038238894
-0.022836238 -0.051735826 0.0061767423 0.0053657303 -0.017415704 0.01258538 -0.06667992 -0.014759837
-0.10552406 -0.028670326 0.040734 -0.077152334 -0.016922478 -0.017491348 -0.0720224 -0.0016445197
0.04176993 0.09692686 0.056975234 -0.047321994 0.11084514 -0.024400616 -0.01966696 0.036436304
0.072251186 -0.009593984 0.05273287 0.022193408 0.046652947 0.017814301 -0.06384949 0.005068125
-0.040727045 0.04631608 0.015474223 0.034259196 -0.044143733 0.0036930656 -0.027584173 0.00066402846
0.03744214 0.029493812 0.024839884 0.040498134 0.060662173 -0.0053564007 -0.037724234 0.040573444
-0.029101327 0.0012040013 0.055826746 0.003028227 -0.026925843 -0.017075915 0.03151207 0.012156542
00000000: 91ca d03c c205 de3c 1ad6 ac3d 8a88 5d3d
00000010: e9db 043d 0a23 8dbc c3d5 963c 0a44 f539
00000020: f138 76bd c6bf 89bd 060e 8c3d ae8f 233d
00000030: b336 ffbc 6265 e3bd fa45 5c3d 99db cf3c
00000040: f82a 45bd 6906 c5ba 8896 cabc eb7a 19bd
00000050: 82e0 a5bc 2952 4abc b2c6 383c 403d febb
00000060: bd7b ba3b 1245 05bd 4175 053d e950 233c
00000070: 568f 3bbc a878 bbbb 8844 8ebc 0c44 4bbc
00000080: 5488 013d 2f4c 143d 5059 5d3d 07ff ba3b
00000090: 44d0 cfbd 99e0 b3bd 0c01 85bc 37cc 2a3d
000000a0: 80cd c03c d7b5 8b3c 9257 09bc b001 39bc
000000b0: 908c 25bd 4e5c 9abd 46ce 10bd 5c0f 1a3d
000000c0: 6d52 ec3c 9911 643c 8128 c33c 0bd8 7fbd
000000d0: 0647 f0bc 927a a0bd f34a ccbc 5670 82bc
000000e0: 56f8 853c 901f 9aba 472d 9a3d 5ca6 6b3d
000000f0: f31d 163e 966f 70bd a3bf 113d bdf9 e33c
00000100: d3cb b73b 3670 1fbc e826 7f3c bf82 bebd
00000110: 29fa 98bd af99 ad3c cfd0 18bd c9b7 7e3c
00000120: 9287 9e3c f219 b4bc cff1 0bbc 3261 e8bb
00000130: ec81 8d3d c1d3 11bd cea2 4c3d 4aa4 93bc
00000140: 187e 583c 4f79 203d 6ab5 e3b9 a43e 693c
00000150: 081b 84bd 4dc1 dd3c 139a 00bd c773 c1bc
00000160: aa41 143b fb6c 6fbb 8cfa 9b3d 8500 003d
00000170: 69a9 5dbb badc 4e3d 7c90 093d f432 213d
00000180: 5b94 2d3d 524f 33b9 7403 21bd 34bf 5e3d
00000190: b0e7 79bc 8fff c73c 19ff 403c a103 813d
000001a0: 7547 68ba f85d 10bb d0ec 1dbc 17a1 d8ba
000001b0: a0b3 19bd bb61 123d 01c2 d9bc 7049 b8bc
000001c0: 6abe fe3c 1842 d43c 91f9 0cbd e815 913d
000001d0: 8d0c b3bd 7b34 8a3c 01d5 2fbd 295c 013d
000001e0: dd7e 323d 5f38 87bd b159 a23c 4873 d43b
000001f0: 6594 bdbc 42e6 ffbc 6966 a9bd ecac 1abd
00000200: 33c1 553d a1d7 7d3d 186f 90ba c167 afbc
00000210: 0068 1a3c 1112 f33c 02fa aebc f3bf bfbc
00000220: 0e69 f13b 0afc cc3a 7c5c 9fbc 31e4 0b3d
00000230: 2803 6f3c 5ef0 233c e507 373d 4749 153d
00000240: 0fbf b5bb 25f6 62bc 3231 183d 827a 18bd
00000250: 2059 743d 6f28 1bbc a55b d93b aab5 40bd
00000260: 3dc6 b3bd b992 1dbd 9c16 0d3e 6d25 d5bc
00000270: 21d6 ca3c cfd7 21bd 79c0 e3bc d200 893c
00000280: 1175 02bd 20e7 453c e138 0e3c 7390 2fbd
00000290: 5f24 d93c 4a34 e13c d606 f23b 464d 973d
000002a0: 4c4f a8bc 3f9e 8fbc 8b92 ea3c 199d 9ebc
000002b0: 811d b8bc 8bbd 703c fd80 ba3b 5b69 8abc
000002c0: 9504 f0bc a9f4 06bd 0bab 37bd 46e9 433c
000002d0: 6b77 6a3d 8ecd 9bbc 8a40 a83c e27c 8b3d
000002e0: 5d63 093d a363 123c cdd6 8f3c 5d68 8abd
000002f0: 3ed2 9dbd 3387 77bd c7e5 c9bb ff7d acbc
00000300: c63a bcbd 894f cfbc 8718 983d 771c 033d
00000310: 989f f63b 8885 f6bc 4437 b7bc 63a0 1cbd
00000320: 1013 bbbc f2e8 53bd 4566 ca3b 02d3 af3b
00000330: 61ab 8ebc e932 4e3c 7b8f 88bd 3ed3 71bc
00000340: 001d d8bd 08de eabc b2d8 263d 0b02 9ebd
00000350: 02a1 8abc 044a 8fbc 7b80 93bd ed8c d7ba
00000360: f216 2b3d 9781 c63d dd5e 693d b5d4 41bd
00000370: c702 e33d cde3 c7bc 9b1c a1bc 3c3e 153d
00000380: 6ef8 933d 1630 1dbc 6cfe 573d f3ce b53c
00000390: 2917 3f3d 4cef 913c 85c3 82bd 8412 a63b
000003a0: 67d1 26bd eeb5 3d3d 9887 7d3c 5f53 0c3d
000003b0: 0fd0 34bd 5c07 723b 34f8 e1bc 3212 2e3a
000003c0: ee5c 193d 029d f13c 037d cb3c 5fe1 253d
000003d0: e678 783d bf84 afbb ba84 1abd 5730 263d
000003e0: e865 eebc 94cf 9d3a 96aa 643d 3875 463b
000003f0: 9693 dcbc cae2 8bbc cd12 013d 3c2c 473c

network.4.bias f4 [64]
0.14451165 0.10301506 -0.021719292 -0.09816167 -0.22034124 -0.35599622 0.04340992 -0.02216191
0.0044527184 0.0975551 -0.04587366 -0.023782708 -0.003293183 0.09293012 -0.052876666 0.034937587
-0.09960946 0.4295654 -0.020184081 0.33860993 -0.039591793 -0.20032465 0.0039334465 -0.34573492
-0.34356228 -0.08285313 -0.32868627 0.21184523 -0.036711622 -0.049241427 -0.042661913 0.056274846
-0.049799923 -0.12367697 0.0007428488 -0.0016004764 0.36180243 0.36105824 -0.043995667 -0.37490383
0.03493243 0.2557444 -0.049314905 0.046349287 -0.07161463 0.01747721 -0.016369417 0.02700728
-0.00020289829 -0.37888476 -0.18159465 -0.0012731692 -0.022457523 0.013845358 -0.050344154 -0.325768
-0.39063105 -0.026957618 0.36490875 -0.29468942 -0.039761018 -0.03133163 0.37239164 -0.04824458
00000000: ddfa 133e 8ff9 d23d a8ec b1bc fc08 c9bd
00000010: 22a1 61be 2345 b6be 9ace 313d e58c b5bc
00000020: 1ce8 913b f8ca c73d 05e6 3bbd f4d3 c2bc
00000030: 71d2 57bb 2652 be3d 3495 58bd b71a 0f3d
00000040: 0b00 ccbd ffef db3e 1659 a5bc 485e ad3e
00000050: 012b 22bd e821 4dbe 24e4 803b 2b04 b1be
00000060: 65e7 afbe e7ae a9bd 9149 a8be f5ed 583e
00000070: ed5e 16bd 61b1 49bd 42be 2ebd 7480 663d
00000080: 01fb 4bbd 5a4a fdbd bdbb 423a 14c7 d1ba
00000090: 2b3e b93e a0dc b83e cd34 34bd 65f3 bfbe
000000a0: 4f15 0f3d eef0 823e 6dfe 49bd c0d8 3d3d
000000b0: b1aa 92bd 5e2c 8f3c 2819 86bc 5f3e dd3c
000000c0: 18c1 54b9 2ffd c1be f3f3 39be 78e0 a6ba
000000d0: d7f8 b7bc a4d7 623c ac35 4ebd 10cb a6be
000000e0: cb00 c8be 39d6 dcbc 52d5 ba3e 88e1 96be
000000f0: 73dc 22bd 9855 00bd 1eaa be3e 1c9c 45bd
