NeRF_CLIP/saved_one_img_models/try_one_img_color_mapper_epoch_5000.pth (torch, 397783 bytes, 6 tensors)

network.0.weight f4 [64, 512]
-0.022748277 0.014818084 -0.023888057 -0.039798267 -0.034714647 -0.0013451684 -0.02194786 0.0015718256
0.049533706 -0.008776767 0.012969542 0.014710942 -0.030912746 -0.011146377 0.03488745 -0.020951413
0.02047808 0.004324095 0.033683237 -0.00855461 0.011245228 -0.047082346 -0.018649038 -0.0021475141
-0.019596942 -0.03090967 0.009688588 -0.027681982 -0.04919662 -0.041784655 0.037036095 -0.024479272
0.0045406376 -0.033906814 -0.006100686 0.04196913 -0.011451743 0.008489344 0.005054052 -0.03505336
-0.016438495 0.002806095 0.03521248 0.031827077 0.009482881 -0.020619648 0.004925111 -0.045764998
-0.02271981 -0.022733713 -0.0100655565 0.014053921 0.042334314 -0.049600568 -0.008834442 -0.032036267
0.022480862 0.015570137 0.035254247 -0.0340905 0.018261295 0.0037349088 0.036815085 0.010890223
-0.024490727 0.029720042 0.022826923 0.028888855 -0.020627376 0.01506985 -0.041011035 0.0305513
0.014502889 -0.040432945 -0.009138861 -0.017171515 0.029693723 0.039083377 0.003099033 -0.021829447
0.03681604 0.03690636 -0.005730546 -0.044158455 -0.03563852 -0.032258086 0.010722836 -0.03885736
-0.018858654 0.022232639 0.023418935 0.048899263 0.016243763 -0.03726043 -0.018508594 -0.047955584
0.0051373863 0.03838511 0.033831406 0.045933414 0.014192323 -0.0031932625 0.0053789075 0.043431073
-0.045578208 -0.03567983 -0.020406194 -0.012949837 -0.034743644 -0.0009883915 -0.0019051848 0.0029401593
0.038376015 -0.038826685 0.03948814 0.03953978 -0.0071878866 -0.008794086 -0.02807611 0.028390517
-0.009447655 0.030875351 -0.032110684 -0.03354812 0.029387228 -0.043765903 -0.013542482 0.03614068
-0.042007823 0.037495267 0.030588528 0.010423641 0.017435728 0.0047537484 0.03384448 0.027737359
0.031143418 -0.034583688 0.008752178 0.014770004 0.02095542 0.036814135 0.041569557 0.01445227
0.038757138 0.027858935 0.041941915 0.03677083 0.038036954 -0.044429705 -0.030584183 -0.01724798
0.03367567 0.00715955 0.011510443 0.009798582 -0.01762366 -0.007571632 0.03370129 -0.01300581
0.0075796326 -0.04283024 -0.027487766 0.018597577 -0.0031064718 -0.02509623 -0.039063524 0.0007480318
-0.019343812 0.014696402 -0.03181163 -0.026517196 0.026507873 -0.036014162 0.0370102 0.036436096
-0.009907473 -0.022730788 -0.006304376 0.03464275 -0.015199913 -0.03589375 0.020343242 -0.012368272
0.005179014 -0.026234325 0.016718155 -0.012698357 0.001241838 -0.0091030495 0.019533807 0.019598935
-0.022494258 -0.026023805 0.028801352 -0.00014538871 0.015010068 0.0075333742 -0.03786402 -0.033341765
-0.026800497 -0.0318948 -0.03906646 0.020409994 0.008100209 -0.033709113 0.018072404 -0.019902604
-0.024076268 0.013396574 -0.0025759155 -0.0152531285 0.021852802 -0.033264007 0.024886042 0.048871234
-0.016750917 0.0036844914 -0.03707335 0.018793551 0.015109619 -0.0023446763 -0.02203361 0.033542544
0.013448557 -0.029825218 0.019203693 0.02718185 -0.018701036 -0.021695526 0.007588209 0.0047125244
-0.03953148 -0.037961174 0.019815285 0.037278865 0.027446333 0.037163526 -0.010007843 0.01606433
-0.0058007166 0.011024436 0.030786652 0.0028065792 -0.020198125 -0.0041519077 -0.03927187 0.020447118
0.04674564 0.0038779092 -0.03213395 0.03585643 -0.017428659 -0.0035212252 0.03555063 0.0014601727
00000000: 985a babc 8dc7 723c e3b0 c3bc 8203 23bd
00000010: f230 0ebd 5d50 b0ba 00cc b3bc b705 ce3a
00000020: dbe3 4a3d 6ecc 0fbc 347e 543c 2a06 713c
00000030: ba3c fdbc 4b9f 36bc 25e6 0e3d 4ca2 abbc
00000040: a5c1 a73c 23b1 8d3b 6ff7 093d a328 0cbc
00000050: e83d 383c 6bd9 40bd dec5 98bc 4fbd 0cbb
00000060: c489 a0bc 4736 fdbc e2bc 1e3c 53c5 e2bc
00000070: 6582 49bd 6326 2bbd 29b3 173d c188 c8bc
00000080: a1c9 943b dfe1 0abd 43e8 c7bb d3e7 2b3d
00000090: 17a0 3bbc e416 0b3c 769c a53b 1d94 0fbd
000000a0: 06aa 86bc 76e6 373b f63a 103d 1c5d 023d
000000b0: 165e 1b3c 89ea a8bc d362 a13b 1474 3bbd
000000c0: e51e babc 0d3c babc 01ea 24bc 6b42 663c
000000d0: bf66 2d3d f729 4bbd 56be 10bc 7638 03bd
000000e0: c929 b83c e319 7f3c c266 103d 7ba2 0bbd
000000f0: b698 953c 5fc5 743b 6acb 163d e86c 323c
00000100: c7a0 c8bc 7277 f33c 87ff ba3c 52a8 ec3c
00000110: befa a8bc 88e7 763c 30fb 27bd b846 fa3c
00000120: 869d 6d3c 049d 25bd 29bb 15bc 47ab 8cbc
00000130: 4040 f33c e415 203d 2519 4b3b abd3 b2bc
00000140: 6acc 163d 202b 173d 4ec7 bbbb 7fdf 34bd
00000150: b2f9 11bd 0e21 04bd d5ae 2f3c e528 1fbd
00000160: 777d 9abc 3921 b63c 11d9 bf3c 984a 483d
00000170: a411 853c 659e 18bd 569f 97bc 136d 44bd
00000180: 8557 a83b b539 1d3d cd92 0a3d ad24 3c3d
00000190: eb86 683c 0e46 51bb 8c41 b03b c8e4 313d
000001a0: 37b0 3abd 0325 12bd e42a a7bc 8e2b 54bc
000001b0: 5a4f 0ebd ea8c 81ba 65b7 f9ba b0af 403b
000001c0: 2b30 1d3d bb08 1fbd 51be 213d 77f4 213d
000001d0: 5d88 ebbb 1215 10bc dfff e5bc 3b93 e83c
000001e0: 56ca 1abc 4eee fc3c 7e86 03bd c169 09bd
000001f0: 7cbd f03c e043 33bd 49e1 5dbc 4008 143d
00000200: 6510 2cbd a394 193d cb94 fa3c ebc7 2a3c
00000210: 5fd5 8e3c 55c5 9b3b 82a0 0a3d 7539 e33c
00000220: 7b20 ff3c a0a7 0dbd 4c65 0f3c e3fd 713c
00000230: b3aa ab3c 6bca 163d d744 2a3d 37c9 6c3c
00000240: cebf 1e3d 6c38 e43c 49cb 2b3d 039d 163d
00000250: a3cc 1b3d ecfb 35bd ae8b fabc a34b 8dbc
00000260: 80ef 093d a99a ea3b 4c96 3c3c 3b8a 203c
00000270: 7e5f 90bc 741b f8bb 5d0a 0a3d 5216 55bc
00000280: 915e f83b c36e 2fbd 062e e1bc f259 983c
00000290: f395 4bbb 9c96 cdbc 1301 20bd 9017 443a
000002a0: ea76 9ebc 2dc9 703c e94c 02bd 973a d9bc
000002b0: 0a27 d93c 9683 13bd 0298 173d 043e 153d
000002c0: f452 22bc eb35 babc f094 cebb 8ee5 0d3d
000002d0: 0e09 79bc 5305 13bd dfa6 a63c 4ba4 4abc
000002e0: b8b4 a93b 5ee9 d6bc 83f4 883c c50c 50bc
000002f0: 2bc5 a23a f524 15bc 5d05 a03c f28d a03c
00000300: e145 b8bc e02f d5bc d0f0 eb3c 7c73 18b9
00000310: caec 753c 86da f63b 4d17 1bbd 6091 08bd
00000320: b78c dbbc 1fa4 02bd 2704 20bd dc32 a73c
00000330: bdb6 043c 9112 0abd 940c 943c c90a a3bc
00000340: 983b c5bc 4e7d 5b3c b1d0 28bb 42e8 79bc
00000350: a604 b33c d73f 08bd d0dd cb3c 342d 483d
00000360: 3839 89bc 8277 713b 3ada 17bd eff4 993c
00000370: 568e 773c 24a9 19bb d47f b4bc e863 093d
00000380: 5657 5c3c 0454 f4bc 1051 9d3c 79ac de3c
00000390: ea32 99bc d1ba b1bc 83a6 f83b 856b 9a3b
000003a0: c3eb 21bd 2d7d 1bbd aa53 a23c b9b1 183d
000003b0: 22d7 e03c c838 183d f0f7 23bc 5799 833c
000003c0: f013 bebb d69f 343c 4a34 fc3c 96ee 373b
000003d0: 8a76 a5bc ba0c 88bb 8adb 20bd b780 a73c
000003e0: 5b78 3f3d 8524 7e3b e49e 03bd 31de 123d
000003f0: 8cc6 8ebc 5bc4 66bb 8a9d 113d 4463 bf3a

network.0.bias f4 [64]
-0.009276358 -0.0058783796 0.036334474 0.04748383 0.0065528187 -0.040541995 0.012765995 0.0019176273
-0.043002687 0.013238059 0.03918397 0.024568466 0.022686878 0.039753303 -0.0054419558 0.014372021
-0.04854 -0.03918751 0.02795915 -0.00048138463 0.03490606 0.047849845 0.023662437 -0.027460419
0.011656019 0.04598378 0.028920827 0.0055160346 0.0009718505 0.03837702 0.008205614 0.035193592
0.021417093 0.0386882 -0.031732082 0.046720546 -0.0265066 -0.017656976 0.036537286 0.008866951
0.02264667 -0.030634051 -0.005285998 -0.045321703 -0.03898178 0.0099097835 0.0024060882 0.018396163
0.03216723 0.0007510547 -0.023567807 0.020202309 0.008087412 -0.04469486 -0.00968295 0.0057844706
0.0020087224 0.028270157 -0.036515728 0.04417015 0.0039528594 0.028040655 -0.035674393 0.027760291
00000000: defb 17bc 6c9f c0bb 75d3 143d 687e 423d
00000010: 07b9 d63b 5d0f 26bd 7728 513c e558 fb3a
00000020: 9623 30bd 72e4 583c 5f7f 203d cf43 c93c
00000030: d5d9 b93c 5cd4 223d 6f52 b2bb a078 6b3c
00000040: e1d1 46bd 1583 20bd 960a e53c 5a62 fcb9
00000050: a8f9 0e3d 33fe 433d bad7 c13c acf4 e0bc
00000060: e3f8 3e3c 7d59 3c3d 5feb ec3c dabf b43b
00000070: c8c3 7e3a 3931 1d3d d770 063c 2827 103d
00000080: e672 af3c 8577 1e3d 80f9 01bd 0b5e 3f3d
00000090: 5f24 d9bc 5da5 90bc 1fa8 153d b046 113c
000000a0: 8285 b93c 43f4 fabc 2a36 adbb 40a3 39bd
000000b0: 5cab 1fbd a55c 223c 76af 1d3b 8db3 963c
000000c0: c9c1 033d 6de2 443a 4611 c1bc 507f a53c
000000d0: 1181 043c f511 37bd 3ca5 1ebc a88b bd3b
000000e0: c5a4 033b d196 e73c 8491 15bd c2eb 343d
000000f0: fd86 813b 84b5 e53c 501f 12bd 8d69 e33c

network.2.weight f4 [512, 64]
0.06938813 -0.10770377 0.0038219693 0.036653336 -0.08721412 0.018853776 0.07660178 -0.050178614
-0.10548314 -0.121383704 0.04860864 -0.0016302262 -0.11809249 0.058708914 0.06510652 -0.10738993
0.05736171 -0.12253014 0.11151784 0.037872266 0.0002043325 0.00406012 -0.11458389 -0.12022672
0.05458034 -0.10582755 -0.055268586 0.07010396 0.022821989 0.0020550583 -0.11498706 -0.04551707
0.11840813 -0.024766635 -0.08356908 0.0045461357 -0.018792504 -0.030365497 0.06995446 0.08093567
-0.016940748 -0.119596615 -0.109938286 -0.10671835 0.090813674 -0.08355853 -0.112644635 -0.06387254
-0.017493473 0.07446714 0.068379246 0.002629753 -0.02138753 -0.015042598 0.05853824 0.024092767
-0.06098584 -0.12476768 -0.02014172 -0.1233097 0.11732135 -0.021136653 0.046519294 0.01991364
0.12504397 0.08204637 -0.03452415 -0.041032262 -0.07748913 -0.063950434 -0.12677477 -0.05876546
-0.046762515 -0.100628205 0.0056536864 -0.011028567 -0.09231181 -0.01889994 0.11293258 -0.074810825
-0.03604483 0.031381004 0.10641006 -0.03296155 -0.10647806 -0.023269478 0.044824064 -0.029202614
0.07399044 -0.0672913 -0.07024527 -0.0483962 0.056311995 -0.08067216 0.009518916 -0.07824549
0.020105576 0.048959583 0.09569404 -0.04518685 0.0027905297 -0.076715894 -0.0488698 0.10102841
-0.04120306 0.0043125735 -0.11421869 0.07822857 0.026196936 -0.1106493 -0.11780355 -0.050934654
0.050942358 -0.022020936 -0.11691082 -0.060761157 -0.08321593 0.10625458 0.05538694 -0.025235508
-0.07389434 -0.0060640513 -0.03205395 0.096240155 -0.09584765 0.08131296 -0.004598841 -0.05913448
0.105581775 -0.06912399 -0.09244933 -0.074901976 -0.06910582 -0.03366162 0.041299853 -0.015252784
-0.048896123 0.0069545596 -0.071172 0.058314867 0.09863297 0.068618245 0.05210144 0.107048094
0.015955241 -0.058340956 0.040331595 -0.097371005 0.085103825 -0.036239978 0.07330293 -0.080321185
0.039815858 0.031142974 -0.095293045 -0.033696707 0.11058335 0.10067663 0.10618993 -0.019292086
0.06307643 -0.046484705 0.076839864 -0.064634494 0.012233144 0.08920396 0.04643786 0.07983279
0.03104164 0.11485548 -0.015661657 0.0022931877 0.08006022 -0.12032494 0.098521814 -0.08536583
0.0415231 0.08057665 -0.03433385 -0.0059946342 -0.07433218 0.004854501 -0.0954205 -0.03468944
0.022070667 0.0080947075 -0.016164333 -0.1290978 -0.018813346 -0.1044528 -0.099497385 -0.051348437
0.11574007 -0.06823675 -0.037866984 0.09258143 -0.065515235 -0.056037568 -0.04624996 0.0588005
0.0538864 -0.12634572 0.09364692 0.05986017 -0.012122895 -0.048177313 -0.06437416 -0.01607581
0.08963996 -0.106637836 -0.10706374 0.08518774 -0.06983183 0.038486034 0.039571367 0.049856592
-0.10150581 0.017529095 0.016092004 0.053945173 -0.073804334 0.020972466 0.08265216 0.056139212
0.11165171 -0.087590866 -0.007099021 -0.067947246 -0.035638668 -0.051374853 0.110194564 0.058746275
0.031538233 0.04317552 0.025802564 -0.086771585 -0.0029573217 0.1253893 0.040332388 -0.044076428
0.1057702 -0.10480767 -0.04049062 0.026744809 -0.0979904 0.06755732 -0.005849089 0.0665446
0.1049916 0.0022798402 -0.038345348 0.062505625 0.07112702 -0.079791516 0.11647606 0.008685863
00000000: 5d1b 8e3d cb93 dcbd 017a 7a3b cf21 163d
00000010: 519d b2bd 3c73 9a3c 65e1 9c3d 1788 4dbd
00000020: 8b07 d8bd 0598 f8bd da19 473d 50ad d5ba
00000030: 7ada f1bd c278 703d 9156 853d 40ef dbbd
00000040: 1df4 6a3d 15f1 fabd 7763 e43d f31f 1b3d
00000050: 1642 5639 c10a 853b f5aa eabd 6d39 f6bd
00000060: a28f 5f3d 1dbc d8bd 5061 62bd aa92 8f3d
00000070: 2ef5 ba3c 28ae 063b 567e ebbd 1b70 3abd
00000080: f67f f23d 66e3 cabc 4426 abbd c0f7 943b
00000090: bdf2 99bc 10c1 f8bc 4944 8f3d 9ac1 a53d
000000a0: 53c7 8abc 12ef f4bd 5327 e1bd 268f dabd
000000b0: 85fc b93d bc20 abbd 3bb2 e6bd 9bcf 82bd
000000c0: 794e 8fbc 3a82 983d 6b0a 8c3d ef57 2c3b
000000d0: e734 afbc 3b75 76bc cbc5 6f3d 325e c53c
000000e0: 4acc 79bd 3386 ffbd 4000 a5bc cc89 fcbd
000000f0: 2d46 f03d c626 adbc 048b 3e3d ee21 a33c
00000100: 870b 003e ed07 a83d 3269 0dbd 7211 28bd
00000110: 9fb2 9ebd 72f8 82bd 3fd1 01be 0db4 70bd
00000120: 0d8a 3fbd 2916 cebd 8f42 b93b 2ab1 34bc
00000130: f90d bdbd 0cd4 9abc 3249 e73d 6b36 99bd
00000140: bea3 13bd 5e89 003d 84ed d93d b102 07bd
00000150: 2b11 dabd a29f bebc 7099 373d 523a efbc
00000160: 4d88 973d 05d0 89bd c1dc 8fbd 183b 46bd
00000170: 68a7 663d 7237 a5bd 3af5 1b3c 2c3f a0bd
00000180: 73b4 a43c d889 483d 3dfb c33d d915 39bd
00000190: 52e1 363b 391d 9dbd b32b 48bd fce7 ce3d
000001a0: 8ac4 28bd 7d50 8d3b 7deb e9bd 4d36 a03d
000001b0: f59a d63c 1a9c e2bd fd42 f1bd dba0 50bd
000001c0: efa8 503d 4065 b4bc f16e efbd b1e0 78bd
000001d0: 1d6d aabd 009c d93d 6add 623d b2ba cebc
000001e0: ea55 97bd f3b4 c6bb 014b 03bd 8f19 c53d
000001f0: c64b c4bd 6987 a63d e0b1 96bb ff36 72bd
00000200: 423b d83d e190 8dbd 1356 bdbd 3566 99bd
00000210: 5a87 8dbd c4e0 09bd 092a 293d d0e6 79bc
00000220: 4d47 48bd 13e3 e33b a0c2 91bd 92db 6e3d
00000230: 1500 ca3d b987 8c3d 5268 553d 083c db3d
00000240: 91b4 823c edf6 6ebd be32 253d 736a c7bd
00000250: ea4a ae3d 5f70 14bd d91f 963d 6f7f a4bd
00000260: f415 233d 8d1f ff3c 0029 c3bd 8f05 0abd
00000270: 8679 e23d 8d2f ce3d 1b7a d93d 700a 9ebc
00000280: 372e 813d bf66 3ebd 385e 9d3d 175f 84bd
00000290: 866d 483c 91b0 b63d a035 3e3d 607f a33d
000002a0: 0a4b fe3c 5a39 eb3d e04c 80bc 4e49 163b
000002b0: 9df6 a33d ec6c f6bd cec5 c93d 48d4 aebd
000002c0: 2014 2a3d 5f05 a53d a7a1 0cbd a36e c4bb
000002d0: 783b 98bd 8212 9f3b d36b c3bd 8416 0ebd
000002e0: 8bcd b43c aa9f 043c 106b 84bc 3732 04be
000002f0: 721e 9abc 59eb d5bd 49c5 cbbd bd52 52bd
00000300: 2109 ed3d b6bf 8bbd 691a 1bbd 559b bd3d
00000310: da2c 86bd a687 65bd 9970 3dbd cbd8 703d
00000320: fcb7 5c3d c660 01be f5c9 bf3d f02f 753d
00000330: 1b9f 46bc 9355 45bd 99d6 83bd 6bb1 83bc
00000340: 2895 b73d f064 dabd 3c44 dbbd e976 ae3d
00000350: fe03 8fbd 88a3 1d3d 9615 223d 6d36 4c3d
00000360: 47e2 cfbd 2d99 8f3c 61d3 833c 9df5 5c3d
00000370: ba26 97bd 73ce ab3c 8945 a93d 3bf2 653d
00000380: a7a9 e43d d762 b3bd e89e e8bb ed27 8bbd
00000390: daf9 11bd 706e 52bd b0ad e13d ef9f 703d
000003a0: 3c2e 013d d0d8 303d e65f d33c 4db5 b1bd
000003b0: a0cf 41bb 0d66 003e 9333 253d 7c89 34bd
000003c0: 0c9e d83d 67a5 d6bd 7ed9 25bd ee17 db3c
000003d0: 31af c8bd 7e5b 8a3d b7a9 bfbb 8948 883d
000003e0: d605 d73d 5f69 153b 0310 1dbd f302 803d
000003f0: 0bab 913d bc69 a3bd 008b ee3d 264f 0e3c

network.2.bias f4 [512]
0.07754928 -0.038478978 0.064222306 -0.049268667 0.024601156 -0.0053808214 0.11756566 0.06281703
0.10337242 -0.0062060645 -0.0782266 -0.07512619 -0.055964112 -0.12029017 -0.10417706 -0.0018667231
-0.019317899 0.042410232 0.11508739 0.025240418 -0.078410186 -0.11126444 -0.0041774777 -0.013594515
-0.06927216 0.06237081 -0.09111179 0.08369347 -0.07765784 -0.04027431 0.013493915 -0.011683217
-0.040518522 -0.053348362 0.00015184582 -0.03480684 -6.490116e-06 -0.05030468 0.035962738 -0.019489784
0.0072344076 -0.120652705 -0.06644973 -0.038541432 0.03799873 0.022616994 0.08954533 0.10587477
0.103898935 0.01661255 -0.04501675 0.12335733 -0.019970495 -7.204657e-05 0.08735246 -0.055394553
-0.025196414 -0.0826348 0.04018868 0.0064322357 -0.08533379 -0.10667682 0.06399684 -0.12712283
-0.043205626 0.07818109 -0.02099682 -0.11104124 -0.06496107 0.08260996 0.04789816 -0.12650484
0.078213364 -0.061164275 0.11208073 -0.097322464 0.029456124 -0.053783238 0.04708811 -0.06151021
0.060597014 -0.07256558 -0.08844478 0.109947965 0.09929744 -0.0036457067 -0.022661323 0.052308854
0.09724514 0.11801706 -0.09077643 -0.069123 0.061192457 -0.11799508 -0.085587315 -0.007410916
0.057819545 0.038433738 -0.07728674 -0.05514375 0.043806754 -0.062247556 -0.10778677 -0.06621118
-0.00047416572 -0.060210977 -0.01374824 0.08954505 -0.048319742 0.09765716 0.023341367 0.12596798
0.1267246 0.072938986 -0.0570005 0.014679593 0.09443016 0.08002806 0.122072555 -0.09472415
-0.040937744 -0.049931753 -0.013887069 -0.026206171 0.1085226 0.111354716 -0.059679028 -0.038195997
0.04359875 -0.07698774 -0.02985732 -0.07270413 0.08069797 0.03379408 0.042019837 -0.103182316
-0.031697422 0.049601328 -0.10851189 0.08912363 -0.08295232 -0.0123393135 0.12591438 -0.016759079
-0.031771906 0.014509505 0.06211586 0.046473015 0.08687432 -0.07690209 0.06746408 0.043261908
-0.06933441 0.07839352 -0.07512434 -0.004075158 -0.056463767 -0.027403025 0.056125995 0.023403767
0.002040783 -0.058659427 -0.123610824 -0.11563671 0.092469566 -0.11799752 0.054489702 0.08600251
0.109334685 0.0635169 0.13025053 -0.03816688 -0.110624276 -0.07835368 0.0041396813 -0.0034632632
-0.10823919 -0.08874146 0.07998924 0.025476005 0.05840787 0.040705416 0.0965414 -0.116807334
0.07442822 -0.073958494 -0.017454311 0.012319291 0.0614 0.048706908 -0.08038304 0.003433181
0.11590028 -0.03319139 0.110018745 -0.1003385 0.04489911 0.09424321 -0.03874658 -0.054362413
0.076291874 0.03925921 0.018132335 0.083734095 0.068553716 -0.09884892 -0.10399173 0.1301964
-0.01846512 -0.11615212 -0.014252169 -0.09642048 0.07001593 0.014037457 -0.0808194 -0.018687103
-0.12422099 0.0336895 0.0732808 -0.029852606 0.064316906 0.13290666 0.11082375 0.10158962
-0.0055546705 0.0328147 0.06400441 -0.032946523 0.08770389 0.0948663 0.11507807 0.11731363
0.053943567 0.015971363 -0.078128494 -0.0414651 0.022445532 0.022782246 -0.007649496 -0.027797919
-0.03350997 -0.011002514 0.032822147 -0.0061571235 -0.045997377 0.12791103 0.060027506 0.065086626
-0.13016935 -0.010455762 -0.025467766 -0.056496136 0.042142432 -0.00042820183 -0.09789099 -0.0069708806
00000000: 28d2 9e3d 229c 1dbd fc86 833d f1cd 49bd
00000010: 5d88 c93c 9a51 b0bb 44c6 f03d 37a6 803d
00000020: ebb4 d33d 3e5c cbbb 4535 a0bd c3db 99bd
00000030: a03a 65bd b15a f6bd c85a d5bd d5ac f4ba
00000040: 9240 9ebc 5ab6 2d3d f0b2 eb3d fec4 ce3c
00000050: 8595 a0bd 9cde e3bd 39e3 88bb 87bb 5ebc
00000060: 90de 8dbd 8978 7f3d d198 babd 7b67 ab3d
00000070: 130b 9fbd adf6 24bd 9515 5d3c f76a 3fbc
00000080: c0f6 25bd d083 5abd cd38 1f39 9e91 0ebd
00000090: acc5 d9b6 480c 4ebd aa4d 133d 0aa9 9fbc
000000a0: 9c0e ed3b c418 f7bd cc16 88bd 9fdd 1dbd
000000b0: 8ea4 1b3d 4647 b93c 8b63 b73d dfd4 d83d
000000c0: f7c8 d43d 0b17 883c 7c63 38bd c5a2 fc3d
000000d0: 2a99 a3bc b517 97b8 d9e5 b23d 66e5 62bd
000000e0: b668 cebc 6f3c a9bd e39c 243d 81c5 d23b
000000f0: 7bc3 aebd 6079 dabd c610 833d 7d2c 02be
00000100: 62f8 30bd 681d a03d 8601 acbc 9769 e3bd
00000110: 4f0a 85bd 692f a93d dc30 443d 7c8a 01be
00000120: 542e a03d 6487 7abd 958a e53d 0051 c7bd
00000130: f84d f13c d04b 5cbd 76df 403d 21f2 7bbd
00000140: 9334 783d 439d 94bd 8922 b5bd 662c e13d
00000150: 755c cb3d cfec 6ebb 3da4 b9bc cf41 563d
00000160: 7628 c73d eeb2 f13d fee8 b9bd 5c90 8dbd
00000170: f1a4 7a3d 68a7 f1bd 6748 afbd 45d7 f2bb
00000180: 30d4 6c3d b26c 1d3d 8348 9ebd 6ade 61bd
00000190: b66e 333d 4bf7 7ebd 4fbf dcbd ba99 87bd
000001a0: 7299 f8b9 c99f 76bd 4c40 61bc 6563 b73d
000001b0: ecea 45bd 7a00 c83d 6536 bf3c c0fd 003e
000001c0: 18c4 013e 0961 953d 5b79 69bd ad82 703c
000001d0: 9a64 c13d c0e5 a33d 2d01 fa3d bcfe c1bd
000001e0: 56ae 27bd 3d85 4cbd 9786 63bc 53ae d6bc
000001f0: 1941 de3d f10d e43d ff71 74bd 6873 1cbd
00000200: 9a94 323d c0ab 9dbd 5797 f4bc e7e5 94bd
00000210: fa44 a53d a96b 0a3d fe1c 2c3d 4051 d3bd
00000220: 28d5 01bd c32a 4b3d 7b3b debd 7386 b63d
00000230: e8e2 a9bd d52a 4abc b3ef 003e 564a 89bc
00000240: 4223 02bd 46b9 6d3c 336d 7e3d 7d5a 3e3d
00000250: 2aeb b13d d87e 9dbd 9c2a 8a3d 6633 313d
00000260: 33ff 8dbd c88c a03d cada 99bd e788 85bb
00000270: 8d46 67bd 4f7c e0bc 5fe4 653d 42b9 bf3c
00000280: a8be 053b de44 70bd ac27 fdbd f0d2 ecbd
00000290: af60 bd3d afa8 f1bd 9830 5f3d 1522 b03d
000002a0: ddea df3d 2615 823d 6560 053e e054 1cbd
000002b0: fb8e e2bd e577 a0bd 2aa6 873b eaf7 62bb
000002c0: 82ac ddbd 15be b5bd 66d1 a33d 0eb3 d03c
000002d0: 173d 6f3d b9ba 263d 7fb7 c53d af38 efbd
000002e0: d36d 983d 8d77 97bd 58fc 8ebc dad6 493c
000002f0: 917e 7b3d e580 473d dd9f a4bd 38ff 603b
00000300: 205d ed3d b2f3 07bd 8251 e13d 467e cdbd
00000310: 21e8 373d 9602 c13d bcb4 1ebd 1fab 5ebd
00000320: ea3e 9c3d 44ce 203d 438a 943c c87c ab3d
00000330: e465 8c3d 4d71 cabd 9ef9 d4bd 3552 053e
00000340: 2a44 97bc 2ae1 edbd ee81 69bc 1a78 c5bd
00000350: 8364 8f3d 5dfd 653c a484 a5bd b215 99bc
00000360: 9367 febd 00fe 093d 3e14 963d 748d f4bc
00000370: 95b8 833d af18 083e 90f7 e23d 380e d03d
00000380: f403 b6bb b568 063d be14 833d eff2 06bd
00000390: 199e b33d 4349 c23d 0dae eb3d 2142 f03d
000003a0: eef3 5c3d 60d6 823c d501 a0bd 4fd7 29bd
000003b0: b1df b73c d5a1 ba3c a0a8 fabb 76b8 e3bc
000003c0: c041 09bd e343 34bc 8470 063d b2c1 c9bb
000003d0: bf67 3cbd 1cfb 023e 67df 753d 234c 853d
000003e0: 1d4b 05be a54e 2bbc c7a1 d0bc 7e68 67bd
000003f0: 8b9d 2c3d 4780 e0b9 127b c8bd fc6b e4bb

network.4.weight f4 [64, 512]
0.023333322 -0.04162434 0.02791843 -0.01879863 -0.04515196 -0.016040586 -0.027228797 0.017230732
0.0072835176 0.016201444 0.042897355 0.0057656085 -0.03223807 -0.007331522 -0.01605207 -0.014779464
-0.0033354782 -0.03291429 0.045178995 -0.03343656 0.00900978 0.015844857 -0.0072408277 0.034494057
0.021582868 -0.026393875 0.005179752 -0.029129595 -0.025789866 0.022442289 0.014656128 -0.010725652
0.0114283245 -0.0012263102 -0.0048610233 -0.031305376 -0.01657722 0.024967562 -0.01443848 -0.00081144564
0.0188405 0.0016667625 0.0074297325 0.029867457 -0.009890373 0.021579873 0.027011953 -0.033907015
0.015289851 -0.021968551 0.028496958 0.04492396 -0.017717263 -0.03460487 -0.042081956 -0.020283993
0.0015296458 -0.04084731 -0.0030849895 -0.01752761 -0.011901949 0.04976635 -0.017507825 -0.0351529
0.008652148 -0.017377438 -0.027902244 -0.030867241 -0.040260576 0.037871554 0.01570085 -0.021965895
0.01767884 -0.025949728 -0.027830059 0.011513104 -0.015351735 0.010802238 0.0040422655 -0.013921424
-0.017845336 -0.042180154 0.0006018481 0.045161873 0.01113048 0.033995256 0.041560534 0.02362298
-0.0056352755 -0.0037894016 -0.041273072 0.034424324 0.0059473384 -0.00899414 -0.019796224 0.035842445
0.004689054 0.013604702 -0.02492616 0.0283293 0.008238222 -0.021419492 0.03423735 0.03074518
-0.01617783 -0.042442262 -0.037505284 0.007209333 -0.028966798 0.022851031 -0.005447187 -0.005977045
0.04667284 0.032186843 -0.014005596 -0.0149439685 0.006683617 0.010081914 -0.034010462 -0.018806912
0.014737235 -0.02017459 0.028413277 0.008488063 -0.044600237 -0.008912286 -0.028708225 -0.037675958
0.023790652 0.0035700486 -0.0044487496 0.011834468 -0.029349413 -0.032693703 -0.029833138 0.028704366
0.016767513 0.0045435876 -0.02207604 -0.00819216 0.006282766 -0.0283248 -0.036077186 -0.029596414
-0.00030038855 0.0092066545 -0.021497443 0.0085245175 -0.0068366006 0.043750744 -0.00038092813 0.040811084
-0.02547282 -0.010529224 -0.048038792 -0.018428834 0.024310198 -0.017083544 -0.004114166 0.045234818
-0.0025984526 0.045390513 -0.02078353 0.023532104 0.035469003 -0.0032950847 0.039577555 0.03572262
0.026260495 0.014917909 0.019952448 0.025723072 -0.022784289 0.016090352 -0.045001507 0.010982977
0.024455536 -0.0058581103 -0.007922679 0.03581843 0.022046229 -0.0064480696 0.006699287 0.032994222
-0.013510903 0.032593943 -0.03757979 0.027506396 0.031178433 -0.04187453 0.025226 0.006380729
0.040839355 0.028555192 -0.014193004 -0.0334683 0.012310278 0.01433748 -0.037868477 0.025530566
0.027853401 -0.04058953 -0.01569101 0.025196727 0.024409618 0.0026690257 -0.03711551 0.009195996
0.0059529906 -0.038572893 0.023266934 0.009854287 -0.0008197988 -0.020200482 -0.007637525 -0.037520017
0.0061491816 -0.01844952 -0.0302273 -0.030613247 -0.012723767 0.0488525 -0.015035933 0.03506143
0.03671344 0.026525214 -0.007453902 -0.013718714 -0.01473416 -0.030456 -0.0063167126 0.004600689
0.0061170636 0.015249088 -0.0029432182 -0.031067764 0.040674258 -0.035158936 -0.012204072 -0.009363346
-0.006172033 0.013700313 0.008287906 0.03517323 -0.037988637 -0.012093042 -0.010028025 0.02156986
-0.017792411 -0.02832929 -0.029718842 -0.0021545077 0.037918832 -0.010760725 -0.03103612 0.0139178205
00000000: 8625 bf3c 497e 2abd 31b5 e43c 96ff 99bc
00000010: 43f1 38bd 8c67 83bc ed0e dfbc 7727 8d3c
00000020: 93aa ee3b e4b8 843c 23b5 2f3d 6eed bc3b
00000030: 110c 04bd 443d f0bb a17f 83bc 9125 72bc
00000040: 0a98 5abb 22d1 06bd 9c0d 393d c6f4 08bd
00000050: c29d 133c 13cd 813c 7744 edbb a449 0d3d
00000060: 8ece b03c f837 d8bc e9ba a93b 30a1 eebc
00000070: 4545 d3bc e4d8 b73c 4220 703c a5ba 2fbc
00000080: de3d 3b3c 24bc a0ba 3849 9fbb 113a 00bd
00000090: f3cc 87bc c688 cc3c 608f 6cbc 32b7 54ba
000000a0: 6457 9a3c 4577 da3a 1d75 f33b 99ac f43c
000000b0: 3b0b 22bc 46c8 b03c 2c48 dd3c 15e2 0abd
000000c0: 4982 7a3c 64f7 b3bc 7472 e93c 3002 383d
000000d0: cb23 91bc d6bd 0dbd 215e 2cbd 9e2a a6bc
000000e0: 657e c83a 824f 27bd 892d 4abb 1096 8fbc
000000f0: 6400 43bc cdd7 4b3d 926c 8fbc 7dfc 0fbd
00000100: bdc1 0d3c 215b 8ebc 3f93 e4bc 4cdd fcbc
00000110: 46e8 24bd 341f 1b3d 129f 803c d2f1 b3bc
00000120: 37d3 903c 8694 d4bc ddfb e3bc 75a1 3c3c
00000130: d885 7bbc dffb 303c fb74 843b af16 64bc
00000140: 6230 92bc 19c5 2cbd 58c5 1d3a a8fb 383d
00000150: 9e5c 363c 9c3e 0b3d 613b 2a3d fb84 c13c
00000160: 1ea8 b8bb 9c57 78bb f40d 29bd 8500 0d3d
00000170: e4e1 c23b 285c 13bc b12b a2bc 87cf 123d
00000180: a3a6 993b 42e6 5e3c f231 ccbc d912 e83c
00000190: 9cf9 063c ee77 afbc 773c 0c3d 51dd fb3c
000001a0: 5e87 84bc f0d7 2dbd 249f 19bd 453c ec3b
000001b0: c74b edbc 1632 bb3c 517e b2bb 16db c3bb
000001c0: 052c 3f3d 5ad6 033d ba77 65bc 8cd7 74bc
000001d0: 3e02 db3b 9d2e 253c 8e4e 0bbd f410 9abc
000001e0: 7274 713c 2f45 a5bc f6c2 e83c 8411 0b3c
000001f0: bdae 36bd d604 12bc 832d ebbc 1b52 1abd
00000200: 9de4 c23c 7af7 693b d1c6 91bb 5be5 413c
00000210: 2e6e f0bc d5e9 05bd a064 f4bc 6b25 eb3c
00000220: 065c 893c 60e2 943b d0d8 b4bc 6938 06bc
00000230: a9df cd3b 6909 e8bc acc5 13bd 2e74 f2bc
00000240: 787d 9db9 82d7 163c 681b b0bc 6baa 0b3c
00000250: 9005 e0bb fb33 333d 4fb7 c7b9 8629 273d
00000260: 60ac d0bc c482 2cbc 53c4 44bd 11f8 96bc
00000270: 2e26 c73c caf2 8bbc 20d0 86bb 2548 393d
00000280: cd4a 2abb 67eb 393d 3942 aabc 66c6 c03c
00000290: f247 113d 59f2 57bb 131c 223d e251 123d
000002a0: 4020 d73c 3f6a 743c 5173 a33c 31b9 d23c
000002b0: 1ea6 babc eacf 833c 8053 38bd f2f1 333c
000002c0: fa56 c83c 64f5 bfbb 20ce 01bc 59b6 123d
000002d0: 4b9a b43c 544a d3bb b185 db3b f324 073d
000002e0: d65c 5dbc 3a81 053d 44ed 19bd 1855 e13c
000002f0: ea69 ff3c a184 2bbd c2a6 ce3c 6f15 d13b
00000300: 2b47 273d 94ec e93c c689 68bc 0e16 09bd
00000310: 0cb1 493c c0e7 6a3c fa1b 1bbd 7a25 d13c
00000320: d12c e43c 3541 26bd 6f8a 80bc 5e69 ce3c
00000330: aef6 c73c d2ea 2e3b 6f06 18bd ceaa 163c
00000340: 4e11 c33b 9cfe 1dbd 4c9a be3c e073 213c
00000350: c4e7 56ba 7b7b a5bc 3444 fabb 97ae 19bd
00000360: 137f c93b 7323 97bc 3e9f f7bc a2c8 fabc
00000370: 5977 50bc 8f19 483d 4659 76bc 939c 0f3d
00000380: d560 163d 684b d93c dd3f f4bb 75c4 60bc
00000390: 8c67 71bc dc7e f9bc 6dfc cebb 60c1 963b
000003a0: a671 c83b 50d7 793c 02e3 40bb d381 febc
000003b0: 0d9a 263d d102 10bd 97f3 47bc b868 19bc
000003c0: c43e cabb 4777 603c ffc9 073c ce11 103d
000003d0: f999 1bbd e521 46bc 964c 24bc 46b3 b03c
000003e0: 64c1 91bc d412 e8bc ee74 f3bc a432 0dbb
000003f0: c750 1b3d c04d 30bc 763f febc 9207 643c

network.4.bias f4 [64]
-0.00035111708 -0.0015345245 -0.02457868 -0.010844114 -0.004762271 0.0010460279 -0.029050192 -0.000812046
-0.023975842 0.0012159834 0.034258794 -0.036711678 -0.0027802458 -0.0023508589 -0.003010454 -0.042183798
0.024283359 -0.029362073 -0.0040518944 -0.021482542 0.011480089 -0.015888711 -0.024617927 0.037096046
-0.0025144566 -0.023095012 -0.025692653 0.019846281 -0.014168645 -0.014664062 -0.011629701 -0.009279177
0.019854102 0.027692666 0.007902796 -0.01410581 -0.0048050587 -0.0048270845 -0.049160756 0.015455653
-0.02541725 0.015005106 -0.011956754 -0.0022030263 0.028490182 0.04318998 -0.02548764 -0.04843268
-0.0012277202 0.04783451 0.011066446 0.010587744 -0.027728988 0.03272667 0.040027086 0.046447586
-0.027695902 -0.039260384 0.0060976925 -0.026753955 -0.0025257322 -0.029574977 7.821483e-05 0.03206484
00000000: 2316 b8b9 1922 c9ba 3a59 c9bc 83ab 31bc
00000010: d30c 9cbb df1a 893a abfa edbc 7cdf 54ba
00000020: fc68 c4bc a261 9f3a f352 0c3d fc5e 16bd
00000030: c934 36bb de10 1abb 094b 45bb ebc8 2cbd
00000040: e5ed c63c bb88 f0bc c1c5 84bb 28fc afbc
00000050: fc16 3c3c 0b29 82bc 89ab c9bc 06f2 173d
00000060: 95c9 24bb c031 bdbc 6679 d2bc ab94 a23c
00000070: 9b23 68bc 8941 70bc 808a 3ebc b007 18bc
00000080: 12a5 a23c bbdb e23c bb7a 013c 0e1c 67bc
00000090: c173 9dbb 852c 9ebb ca5c 49bd b539 7d3c
000000a0: d637 d0bc fad7 753c 43e6 43bc a660 10bb
000000b0: 3e64 e93c fae7 303d 75cb d0bc 5961 46bd
000000c0: 74eb a0ba 1fee 433d 0a50 353c 3878 2d3c
000000d0: e727 e3bc 670c 063d 71f3 233d d33f 3e3d
000000e0: 84e2 e2bc 7fcf 20bd 27cf c73b 1c2b dbbc
000000f0: c186 25bb 3947 f2bc 4407 a438 6c56 033d
