NeRF_CLIP/saved_one_img_models/try_one_img_color_mapper_epoch_15000.pth (torch, 397783 bytes, 6 tensors)

network.0.weight f4 [64, 512]
0	0xbcbcbe42	-0.02303994
1	0x3c6dfceb	0.014525632
2	0xbcc14b18	-0.023595378
3	0xbd24368a	-0.040091075
4	0xbd0cfef0	-0.034422815
5	0xbad56d6e	-0.0016283223
6	0xbcb62ecd	-0.022239113
7	0x3af47399	0.0018650173
8	0x3d4c16cb	0.049826425
9	0xbc0b02e8	-0.00848458
10	0x3c5948d8	0.013261996
11	0x3c6c4442	0.014420571
12	0xbcfad74b	-0.030620238
13	0xbc3b67b3	-0.011438298
14	0x3d0db52b	0.034596603
15	0xbca93e92	-0.020659719
16	0x3ca55d86	0.020186197
17	0x3b84b67f	0.0040500755
18	0x3d08cf68	0.033400923
19	0xbc0767f3	-0.0082645295
20	0x3c3d092a	0.011537829
21	0xbd4208f0	-0.047371805
22	0xbc96608f	-0.01835659
23	0xbb1fcba3	-0.0024382852
24	0xbca2f03b	-0.019889941
25	0xbcfad098	-0.030617043
26	0x3c1a136c	0.009404045
27	0xbce51571	-0.027964326
28	0xbd4ab4ab	-0.049488705
29	0xbd2c595d	-0.04207741
30	0x3d18e400	0.037326813
31	0xbcc623f2	-0.024187062
32	0x3b8b4aa5	0.0042508417
33	0xbd0c1428	-0.03419891
34	0xbbbe4d80	-0.0058075786
35	0x3d2d1a6c	0.042261526
36	0xbc4039f2	-0.011732565
37	0x3c0652d4	0.008198459
38	0x3baf32b7	0.005346622
39	0xbd10c6c7	-0.03534582
40	0xbc8906cb	-0.016726872
41	0x3b24b408	0.002513172
42	0x3d116d4a	0.035504617
43	0x3d012b01	0.031535152
44	0x3c169252	0.009190159
45	0xbcab4e35	-0.020911315
46	0x3b97c8c9	0.0046320898
47	0xbd3ca5fa	-0.046056725
48	0xbcbc7eb4	-0.023009636
49	0xbcb7e7ad	-0.022449339
50	0xbc201d36	-0.009772589
51	0x3c6b087e	0.014345286
52	0x3d2e9844	0.04262568
53	0xbd4c5d56	-0.0498937
54	0xbc0bf840	-0.008543074
55	0xbd046b03	-0.032328617
56	0x3cb5c422	0.02218825
57	0x3c81ec64	0.01585979
58	0x3d0fdd5b	0.03512321
59	0xbd0cd559	-0.03438315
60	0x3c97fa4e	0.018551972
61	0x3b61c339	0.0034448637
62	0x3d17fdbf	0.037107226
63	0x3c373696	0.011182448
64	0xbccb0564	-0.024782844
65	0x3cf113cb	0.029428383
66	0x3cbd595e	0.023113903
67	0x3cea4176	0.028595667
68	0xbca694a0	-0.020334542
69	0x3c721f3a	0.014777953
70	0xbd292e2b	-0.041303795
71	0x3cf7e5db	0.03026097
72	0x3c68d989	0.014212021
73	0xbd26d044	-0.04072596
74	0xbc1a83e7	-0.009430862
75	0xbc8f11bb	-0.01746451
76	0x3cf0e2ec	0.02940508
77	0x3d2147ed	0.039375234
78	0x3b3811b0	0.0028086714
79	0xbcb51e68	-0.022109225
80	0x3d159a03	0.03652383
81	0x3d15fe68	0.036619574
82	0xbbb24da3	-0.005441384
83	0xbd361128	-0.044449955
84	0xbd115200	-0.035478592
85	0xbd055297	-0.032549467
86	0x3c34703b	0.011013086
87	0xbd205159	-0.03914008
88	0xbc9ce439	-0.019151794
89	0x3cb875a6	0.022517037
90	0x3cc23ac5	0.023709664
91	0x3d497dc5	0.04919221
92	0x3c8778e2	0.016537134
93	0xbd19d1d1	-0.037553612
94	0xbc953acb	-0.018216511
95	0xbd459fed	-0.04824822
96	0x3bb1ef46	0.005430135
97	0x3d1e6834	0.038673595
98	0x3d095fae	0.033538513
99	0x3d3d4cfe	0.046216004
100	0x3c6cce84	0.014453534
101	0xbb605bd8	-0.003423443
102	0x3bb9a522	0.0056654373
103	0x3d3314f4	0.043721154
104	0xbd3be051	-0.04586822
105	0xbd1357cb	-0.035972398
106	0xbca91ef7	-0.020644648
107	0xbc58f0b4	-0.013240982
108	0xbd0f81f8	-0.035036057
109	0xbaa78e12	-0.0012783429
110	0xbad3553a	-0.0016123422
111	0x3b2d7fbf	0.0026473848
112	0x3d1bfdb8	0.038083762
113	0xbd1dd7f8	-0.038536042
114	0x3d20a1db	0.039216857
115	0x3d232786	0.039832614
116	0xbbf520a2	-0.007480697
117	0xbc14de6b	-0.009086232
118	0xbce39a15	-0.027783433
119	0x3ceaf602	0.028681759
120	0xbc1603e7	-0.009156204
121	0x3cff5521	0.031168522
122	0xbd04b547	-0.032399442
123	0xbd0a9ced	-0.033841062
124	0x3cee579f	0.029094515
125	0xbd3476d5	-0.04405864
126	0xbc62ac91	-0.013835088
127	0x3d1539e5	0.036432166
128	0xbd2d4280	-0.042299747
129	0x3d1ac709	0.03778747
130	0x3cf82f5d	0.030296022
131	0x3c260308	0.010132559
132	0x3c8c7087	0.017143501
133	0x3b9226d7	0.0044601965
134	0x3d0bd387	0.034137275
135	0x3ce59f46	0.028030049
136	0x3d00c3f5	0.03143688
137	0xbd0c752c	-0.03429143
138	0x3c142ccd	0.009043884
139	0x3c76c54a	0.015061686
140	0x3cae0d9e	0.021246728
141	0x3d159772	0.036521383
142	0x3d2b77b0	0.04186219
143	0x3c67fd57	0.014159522
144	0x3d1ff2de	0.039049976
145	0x3ce69e37	0.028151615
146	0x3d2cfdcc	0.042234227
147	0x3d17ce3f	0.037061926
148	0x3d1b3a64	0.037897483
149	0xbd372eb5	-0.044722278
150	0xbcf82537	-0.030291183
151	0xbc8fab96	-0.017537873
152	0x3d08bcfb	0.03338335
153	0x3be14c8b	0.0068755797
154	0x3c415d07	0.011801965
155	0x3c1bca49	0.009508678
156	0xbc8dfcce	-0.01733246
157	0xbbee933b	-0.007280735
158	0x3d0b3d9c	0.033994302
159	0xbc59e311	-0.013298766
160	0x3beec400	0.0072865486
161	0xbd30a07e	-0.043121807
162	0xbce390de	-0.027779039
163	0x3c9ab977	0.018887265
164	0xbb5ebecf	-0.0033988243
165	0xbccb356c	-0.024805747
166	0xbd2130fb	-0.039353352
167	0x3a886212	0.0010405204
168	0xbca0dcb0	-0.019636482
169	0x3c6bffec	0.014404278
170	0xbd037fe7	-0.0321044
171	0xbcd6d6f3	-0.026225543
172	0x3cd6c0ec	0.02621504
173	0xbd14b523	-0.036305558
174	0x3d18c7e9	0.037300024
175	0x3d140a9d	0.036142934
176	0xbc1d8cc3	-0.00961608
177	0xbcba90bd	-0.022774095
178	0xbbd82eaa	-0.0065973597
179	0x3d0cb59a	0.034352876
180	0xbc743c4a	-0.014906952
181	0xbd11d28e	-0.03560119
182	0x3ca9073a	0.020633329
183	0xbc45d8cb	-0.012075613
184	0x3bb34f8d	0.0054721297
185	0xbcd94ec3	-0.026526814
186	0x3c8b0832	0.016971681
187	0xbc54d842	-0.012991013
188	0x3a791d0f	0.0009502926
189	0xbc19ee70	-0.009395227
190	0x3c9d9ea7	0.01924069
191	0x3c9e5b17	0.019330544
192	0xbcbaaab4	-0.022786476
193	0xbcd2ca0d	-0.025731111
194	0x3cee52d1	0.029092224
195	0x3917e51c	0.00014485832
196	0x3c712b0b	0.014719735
197	0x3bed4dac	0.007241925
198	0xbd19e42d	-0.03757112
199	0xbd075e9c	-0.03304921
200	0xbcddedb3	-0.027090883
201	0xbd01718c	-0.031602427
202	0xbd21348c	-0.039356753
203	0x3ca997b8	0.020702228
204	0x3c0968cf	0.008386805
205	0xbd08e14b	-0.03341798
206	0x3c91a627	0.017779423
207	0xbca0a7f7	-0.019611342
208	0xbcc79531	-0.024363132
209	0x3c56bfd5	0.01310726
210	0xbb15a50b	-0.002283397
211	0xbc7eb27e	-0.015545486
212	0x3cb0a554	0.02156321
213	0xbd070c81	-0.03297091
214	0x3cc97d2f	0.024595825
215	0x3d496007	0.049163844
216	0xbc86d4d5	-0.016458908
217	0x3b5e45cd	0.0033916116
218	0xbd190cfc	-0.0373659
219	0x3c9795e1	0.018504085
220	0x3c72c972	0.014818536
221	0xbb2cd7b0	-0.0026373677
222	0xbcb21c87	-0.021742119
223	0x3d08363b	0.033254843
224	0x3c610062	0.013733001
225	0xbcf1ed56	-0.029532116
226	0x3c9aec3e	0.018911477
227	0x3cdc5514	0.026896037
228	0xbc96d31e	-0.018411215
229	0xbcaf5470	-0.021402568
230	0x3bef2e32	0.007299208
231	0x3b912250	0.004429139
232	0xbd231ed1	-0.03982431
233	0xbd1cafed	-0.038253713
234	0x3c9feded	0.019522632
235	0x3d194c0f	0.03742605
236	0x3cde73ea	0.027154882
237	0x3d17093b	0.036874037
238	0xbc28b16d	-0.010296208
239	0x3c860000	0.016357422
240	0xbbc7a7da	-0.0060930075
241	0x3c2fd1f2	0.010731207
242	0x3cf9da24	0.030499525
243	0x3b2502b6	0.0025178618
244	0xbca63895	-0.020290652
245	0xbb7cea8d	-0.0038591952
246	0xbd220d0c	-0.039563224
247	0x3ca51a43	0.020154124
248	0x3d40aabd	0.04703783
249	0x3b8873a5	0.0041641765
250	0xbd026d1a	-0.03184233
251	0x3d141138	0.036149234
252	0xbc91209d	-0.017715747
253	0xbb539a0d	-0.0032287866
254	0x3d12cd8f	0.035840567
255	0x3ae5ca42	0.0017531591

network.0.bias f4 [64]
0	0xbc1cc9e7	-0.009569622
1	0xbbc7bca3	-0.0060954853
2	0x3d15f4b9	0.03661034
3	0x3d4331b0	0.047654808
4	0x3be01515	0.0068384507
5	0xbd26b0a0	-0.040695786
6	0x3c560535	0.013062765
7	0x3b118e46	0.0022210046
8	0xbd3129dc	-0.04325281
9	0x3c58e199	0.01323738
10	0x3d2132ad	0.03935497
11	0x3cc5a3b8	0.024125919
12	0x3cbc5404	0.02298928
13	0x3d23cc97	0.039990034
14	0xbba887bd	-0.0051431344
15	0x3c686323	0.014183792
16	0xbd4765aa	-0.04868094
17	0xbd2009b9	-0.039071772
18	0x3ce3fda8	0.027830914
19	0xb98ce443	-0.0002687295
20	0x3d0fc106	0.03509619
21	0x3d450c23	0.048107278
22	0x3cbffa4f	0.023434786
23	0xbcdf2b33	-0.027242279
24	0x3c43afda	0.011943782
25	0x3d3d78b8	0.046257704
26	0x3cef4291	0.029206546
27	0x3bbfa427	0.005848426
28	0x3aa2c095	0.0012417013
29	0x3d1e8945	0.03870513
30	0x3c0ad0f1	0.008472667
31	0x3d104bd6	0.035228573
32	0x3cabd6f3	0.02097652
33	0x3d1cdc5f	0.0382961
34	0xbd015201	-0.031572346
35	0x3d406dce	0.046979718
36	0xbcd98639	-0.02655326
37	0xbc8fb657	-0.017543001
38	0x3d16ec6c	0.036846563
39	0x3c0e3047	0.008678502
40	0x3cb8aaf3	0.022542452
41	0xbcf5fbb3	-0.030027246
42	0xbbb24429	-0.005440254
43	0xbd3ac2fe	-0.045596115
44	0xbd2311ca	-0.039811887
45	0x3c27b759	0.010236585
46	0x3b262b71	0.0025355483
47	0x3c980050	0.018554837
48	0x3d04df37	0.032439437
49	0x3a88fe1b	0.0010451706
50	0xbcbf20ce	-0.023331072
51	0x3ca2cd28	0.019873217
52	0x3c098dff	0.008395671
53	0xbd3708d3	-0.04468615
54	0xbc1ab7ee	-0.009443266
55	0x3bb40751	0.0054940362
56	0x3b29c205	0.0025902998
57	0x3ce5f838	0.028072461
58	0xbd157223	-0.036485802
59	0x3d36279a	0.04447136
60	0x3b86aad3	0.0041097193
61	0x3ce85630	0.02836141
62	0xbd13a2ec	-0.036044046
63	0x3ce55fbd	0.027999753

network.2.weight f4 [512, 64]
0	0x3d8f040c	0.06983194
1	0xbddba718	-0.1072523
2	0x3b59e17b	0.003324597
3	0x3d14056e	0.03613799
4	0xbdb3a23d	-0.08771179
5	0x3c9dee0a	0.019278545
6	0x3d9bdbf0	0.07610309
7	0xbd4f969d	-0.050680745
8	0xbdd718b1	-0.105027564
9	0xbdf7ae3c	-0.120937794
10	0x3d45116d	0.04811232
11	0xba9c8d6e	-0.0011944005
12	0xbdf2e003	-0.11859133
13	0x3d6e6e13	0.058210444
14	0x3d8450bf	0.064607136
15	0xbddb0350	-0.10693991
16	0x3d6cca2c	0.057809994
17	0xbdfa2c4c	-0.1221548
18	0x3de54eb7	0.11196654
19	0x3d190b25	0.037364144
20	0xb9997db6	-0.00029276096
21	0x3b6986dc	0.003563336
22	0xbde9caa9	-0.114156075
23	0xbdf73f67	-0.1207264
24	0x3d5d85b5	0.05408259
25	0xbdd9c2b2	-0.10632838
26	0xbd646be1	-0.055766944
27	0x3d8e8980	0.0695982
28	0x3cb6e59d	0.022326285
29	0x3acbf37b	0.0015560234
30	0xbdec836d	-0.11548505
31	0xbd3c544c	-0.04597883
32	0x3df34dab	0.11880048
33	0xbcc7b007	-0.024375929
34	0xbdac2e46	-0.084072635
35	0x3b848d25	0.004045146
36	0xbc964914	-0.018345393
37	0xbcfd443c	-0.030916326
38	0x3d8e4057	0.069458656
39	0x3da6b4a6	0.08139925
40	0xbc876ef0	-0.016532391
41	0xbdf418ed	-0.11918817
42	0xbde04016	-0.109497234
43	0xbdd9a172	-0.106264964
44	0x3dbadf80	0.091246605
45	0xbdac25e5	-0.08405665
46	0xbde7b6b5	-0.113141455
47	0xbd83d906	-0.06437878
48	0xbc936159	-0.017990755
49	0x3d977d18	0.073969066
50	0x3d8b0702	0.06788446
51	0x3b48634e	0.0030576768
52	0xbcb34537	-0.02188359
53	0xbc6f5b0a	-0.014609108
54	0x3d6dbc11	0.058040682
55	0x3cc91505	0.024546156
56	0xbd7bccc8	-0.06147459
57	0xbdfe9beb	-0.12432083
58	0xbca21a7b	-0.019788017
59	0xbdfd8de1	-0.12380577
60	0x3def41d4	0.116824776
61	0xbcb13c39	-0.021635162
62	0x3d406c59	0.04697833
63	0x3c9f0f91	0.019416602
64	0x3e00294e	0.12515756
65	0x3da84214	0.082157284
66	0xbd0deec5	-0.034651536
67	0xbd286b5a	-0.041118003
68	0xbd9ef909	-0.077623434
69	0xbd82c135	-0.063845076
70	0xbe01ed7f	-0.12688254
71	0xbd71323b	-0.058885794
72	0xbd3f058b	-0.046636146
73	0xbdcdd9c8	-0.10051304
74	0x3bb4cd9b	0.005517674
75	0xbc331913	-0.010931271
76	0xbdbd54c8	-0.09244686
77	0xbc9be281	-0.019028904
78	0x3de70638	0.11280483
79	0xbd98f827	-0.07469206
80	0xbd132512	-0.035924025
81	0x3d00cb27	0.03144374
82	0x3dda2a98	0.10652655
83	0xbd077415	-0.03306969
84	0xbdda5379	-0.106604524
85	0xbcbfc5b3	-0.0234097
86	0x3d38082b	0.044929665
87	0xbcf04e51	-0.02933422
88	0x3d9748a5	0.07386903
89	0xbd8a104a	-0.06741388
90	0xbd901dc4	-0.07036927
91	0xbd46a952	-0.04850132
92	0x3d6620c1	0.05618358
93	0xbda57d0d	-0.08080492
94	0x3c19f579	0.009396904
95	0xbda0171d	-0.078169085
96	0x3ca5690e	0.020191696
97	0x3d48ed06	0.04905417
98	0x3dc3c2d1	0.09558643
99	0xbd399638	-0.045309275
100	0x3b3e7933	0.002906394
101	0xbd9d429b	-0.076787196
102	0xbd48b3da	-0.048999645
103	0x3dcf2d10	0.10116017
104	0xbd286d58	-0.041119903
105	0x3b908652	0.0044105435
106	0xbde9b3a7	-0.11411219
107	0x3da076b3	0.0783514
108	0x3cd75d81	0.026289703
109	0xbde2def5	-0.11077682
110	0xbdf18322	-0.1179259
111	0xbd511af2	-0.051051088
112	0x3d50181e	0.05080425
113	0xbcb57d4a	-0.022154469
114	0xbdefb167	-0.11703759
115	0xbd7878d0	-0.06066209
116	0xbdaab0b8	-0.08334488
117	0x3dd9d22b	0.106357895
118	0x3d625662	0.055258162
119	0xbccdbb87	-0.025113834
120	0xbd978ec0	-0.07400274
121	0xbbc349f5	-0.005959744
122	0xbd031149	-0.031998906
123	0x3dc4d5f0	0.09611118
124	0xbdc488be	-0.09596394
125	0x3da64667	0.08118897
126	0xbb92a2ea	-0.0044749873
127	0xbd72c5a8	-0.05927053
128	0x3dd840c2	0.105592266
129	0xbd8d8b67	-0.069113545
130	0xbdbd6228	-0.092472374
131	0xbd995875	-0.07487575
132	0xbd8d971d	-0.06913588
133	0xbd09d52a	-0.033650555
134	0x3d2928db	0.04129873
135	0xbc7a1b7c	-0.015265342
136	0xbd482c7d	-0.048870552
137	0x3be459ad	0.006968698
138	0xbd91d378	-0.071204126
139	0x3d6ed502	0.05830861
140	0x3dc9effa	0.09860225
141	0x3d8c7b5c	0.068594664
142	0x3d555218	0.052080244
143	0x3ddb44c6	0.10706477
144	0x3c82db70	0.015973777
145	0xbd6f1d80	-0.058377743
146	0x3d2540e7	0.0403451
147	0xbdc76c22	-0.097374216
148	0x3dae3fec	0.08508286
149	0xbd149695	-0.03627642
150	0x3d962362	0.073309675
151	0xbda48d6e	-0.08034788
152	0x3d23046a	0.03979913
153	0x3cfef94b	0.031124732
154	0xbdc332cb	-0.09531172
155	0xbd0a06ac	-0.03369777
156	0x3de26cca	0.11055906
157	0x3dce2108	0.10064894
158	0x3dd97147	0.10617309
159	0xbc9c7032	-0.019096468
160	0x3d8125ef	0.063060634
161	0xbd3e75ca	-0.04649905
162	0x3d9d5e2a	0.07683976
163	0xbd8468a5	-0.06465272
164	0x3c48ac8d	0.012248171
165	0x3db6d10f	0.089265935
166	0x3d3e1c44	0.046413675
167	0x3da38ecb	0.0798622
168	0x3cfe1cd5	0.031019608
169	0x3deb409f	0.11486935
170	0xbc80369f	-0.015651045
171	0x3b177d88	0.0023115594
172	0x3da3e508	0.080026686
173	0xbdf6797a	-0.120348886
174	0x3dc9bdc0	0.09850645
175	0xbdaed9cf	-0.085376374
176	0x3d29f0d5	0.04148944
177	0x3da4f625	0.08054761
178	0xbd0cb6c5	-0.03435399
179	0xbbc46c79	-0.0059943763
180	0xbd9847be	-0.07435559
181	0x3b9f09d9	0.004853469
182	0xbdc37766	-0.09544258
183	0xbd0e0165	-0.0346693
184	0x3cb4b923	0.022060936
185	0x3c049ffb	0.008094783
186	0xbc84df10	-0.016219646
187	0xbe0438b3	-0.12912254
188	0xbc9a38dc	-0.01882594
189	0xbdd5f58c	-0.10447225
190	0xbdcbb894	-0.09947315
191	0xbd527432	-0.051380344
192	0x3decd7c5	0.11564592
193	0xbd8bf0f4	-0.068330675
194	0xbd1aaab3	-0.037760448
195	0x3dbdb9c7	0.0926395
196	0xbd85f181	-0.06540204
197	0xbd65ed67	-0.056134608
198	0xbd3d15a8	-0.04616323
199	0x3d713cff	0.05889606
200	0x3d5c4526	0.053776883
201	0xbe017a56	-0.12644324
202	0x3dc0065a	0.093762115
203	0x3d74df17	0.059783068
204	0xbc44c3b0	-0.012009546
205	0xbd44e55c	-0.048070297
206	0xbd839fe6	-0.064269826
207	0xbc8482b0	-0.016175598
208	0x3db75f4e	0.08953725
209	0xbdda8057	-0.1066901
210	0xbddb7651	-0.107159264
211	0x3daea501	0.08527566
212	0xbd8eccfe	-0.06972693
213	0x3d1e204a	0.038605012
214	0x3d21b496	0.03947886
215	0x3d4ca963	0.049966227
216	0xbdcfad4f	-0.10140478
217	0x3c906fec	0.017631494
218	0x3c84a8ea	0.016193826
219	0x3d5d509e	0.05403196
220	0xbd96ee24	-0.073696405
221	0x3cacb755	0.021083513
222	0x3da97a53	0.082752846
223	0x3d658eff	0.056044575
224	0x3de48640	0.11158419
225	0xbdb385b1	-0.08765734
226	0xbbe5e90e	-0.0070163077
227	0xbd8af21c	-0.0678446
228	0xbd1260de	-0.03573691
229	0xbd525afe	-0.05135631
230	0x3de1e618	0.11030215
231	0x3d702a6e	0.058634214
232	0x3d00edc8	0.031476766
233	0x3d306b6f	0.043071207
234	0x3cd2954b	0.025705954
235	0xbdb1ea3a	-0.08687253
236	0xbb449b30	-0.0029999726
237	0x3e00823d	0.12549682
238	0x3d259b4e	0.040431313
239	0xbd342581	-0.04398108
240	0x3dd8db0d	0.105886556
241	0xbdd66a7d	-0.1046953
242	0xbd256cb7	-0.04038688
243	0x3cda653e	0.026659604
244	0xbdc87760	-0.09788394
245	0x3d8a3086	0.06747536
246	0xbbbc3669	-0.005743791
247	0x3d88128f	0.06644165
248	0x3dd738b6	0.10508864
249	0x3b0ff1bc	0.0021964153
250	0xbd1d2a71	-0.038370553
251	0x3d803ba8	0.062613785
252	0x3d91de46	0.071224734
253	0xbda333df	-0.07968878
254	0x3dee5236	0.11636774
255	0x3c1030f5	0.008800735

network.2.bias f4 [512]
0	0x3d9dd55a	0.07706709
1	0xbd1e3ea7	-0.03863397
2	0x3d836b46	0.06416945
3	0xbd49414f	-0.04913455
4	0x3cc72547	0.024309767
5	0xbbbf48da	-0.005837542
6	0x3df187db	0.117934905
7	0x3d801617	0.06254213
8	0x3dd330fa	0.10312076
9	0xbbc3d005	-0.0059757256
10	0xbda05004	-0.07827762
11	0xbd98c3c6	-0.07459216
12	0xbd62d0d9	-0.055374954
13	0xbdf81bfe	-0.12114714
14	0xbdd4dd20	-0.10393739
15	0xba893586	-0.0010468222
16	0xbc9e6f6a	-0.019340236
17	0x3d2d8811	0.04236609
18	0x3dec39b3	0.11534443
19	0x3ccfff52	0.0253903
20	0xbda1a8d3	-0.07893529
21	0xbde2ea5a	-0.11079855
22	0xbb94db1c	-0.0045427214
23	0xbc5c8f73	-0.013461935
24	0xbd8dd045	-0.0692449
25	0x3d7d5079	0.061844323
26	0xbdba9ffd	-0.091125466
27	0x3da9f28b	0.082982145
28	0xbda088d4	-0.07838598
29	0xbd259574	-0.040425733
30	0x3c5d79fb	0.013517852
31	0xbc424efe	-0.0118596535
32	0xbd21b404	-0.039478317
33	0xbd587f41	-0.052855734
34	0x39ed6f01	0.00045286867
35	0xbd105e82	-0.03524638
36	0xba13d0ee	-0.0005638738
37	0xbd4dd0ac	-0.050247833
38	0x3d14a135	0.03628655
39	0xbca29c71	-0.019849988
40	0x3be0c1d7	0.006859045
41	0xbdf58e43	-0.11990025
42	0xbd883b09	-0.06651885
43	0xbd1a551b	-0.03767882
44	0x3d1d1573	0.038350534
45	0x3cb932af	0.022607176
46	0x3db5dd6a	0.08880122
47	0x3dd8f36f	0.10593306
48	0x3dd4d134	0.10391465
49	0x3c90cc92	0.017675672
50	0xbd38c9b8	-0.04511425
51	0x3dfd709c	0.12374994
52	0xbca0ed0c	-0.019644283
53	0xba16c575	-0.0005751469
54	0x3db2f62f	0.08738362
55	0xbd63defe	-0.055632584
56	0xbcd5a4e4	-0.026079603
57	0xbda9068b	-0.08253201
58	0x3d22fad2	0.039789982
59	0x3bdffec4	0.0068357904
60	0xbdae2587	-0.085032515
61	0xbdda0afc	-0.10646626
62	0x3d83cfff	0.064361565
63	0xbe03d750	-0.12875104
64	0xbd2f9385	-0.042865295
65	0x3da0e001	0.07855225
66	0xbcab9015	-0.020942727
67	0xbde36889	-0.11103923
68	0xbd86658c	-0.06562337
69	0x3da999b0	0.08281267
70	0x3d437777	0.047721352
71	0xbe01ddfb	-0.12682335
72	0x3da09d7d	0.078425385
73	0xbd7b4f25	-0.061354775
74	0x3de64cf5	0.11245147
75	0xbdc5aa4c	-0.09651622
76	0x3cee31ba	0.029076446
77	0xbd5a7a2c	-0.05333917
78	0x3d3fa0ea	0.04678432
79	0xbd7a4cb5	-0.06110831
80	0x3d7649f7	0.060129132
81	0xbd94f146	-0.07272582
82	0xbdb41225	-0.08792523
83	0x3ddfea24	0.10933331
84	0x3dcb85e1	0.09937645
85	0xbb41036e	-0.0029451507
86	0xbcb7b255	-0.022423903
87	0x3d56a9ad	0.05240791
88	0x3dc85f2c	0.097837776
89	0x3df33943	0.11876156
90	0xbdbaf078	-0.09127897
91	0xbd8e5b4e	-0.06951009
92	0x3d7b416d	0.06134169
93	0xbdf26543	-0.118357204
94	0xbdaf9890	-0.08574021
95	0xbbf34f8b	-0.0074252537
96	0x3d6dd868	0.05806771
97	0x3d1e2254	0.038606957
98	0xbd9e696e	-0.07734953
99	0xbd612e98	-0.054976076
100	0x3d33c198	0.043885797
101	0xbd80e6f2	-0.06294049
102	0xbddcc096	-0.1077892
103	0xbd86227c	-0.06549546
104	0xba6bd508	-0.00089962827
105	0xbd7822e1	-0.060580138
106	0xbc5d72f7	-0.013516179
107	0x3db7c35a	0.08972807
108	0xbd488ac8	-0.048960477
109	0x3dc80fc2	0.097686306
110	0x3cbcfb05	0.023068914
111	0x3e00e37f	0.12586783
112	0x3e026a17	0.12735783
113	0x3d966a7f	0.07344531
114	0xbd6a5b5b	-0.05721603
115	0x3c6f1586	0.014592534
116	0x3dc1aa16	0.094562694
117	0x3da3c4da	0.07996531
118	0x3dfb0364	0.12256506
119	0xbdc41fa0	-0.095763445
120	0xbd2a0fee	-0.041519098
121	0xbd4d6875	-0.050148446
122	0xbc3b02d3	-0.011414248
123	0xbcd3f64e	-0.025874283
124	0x3dde1503	0.108438514
125	0x3de5a8ed	0.11213861
126	0xbd74618b	-0.059663337
127	0xbd1e849d	-0.03870069
128	0x3d335161	0.04377878
129	0xbd9dd672	-0.07706918
130	0xbcf3eba9	-0.029775457
131	0xbd93ddd1	-0.072200425
132	0x3da48573	0.08033266
133	0x3d095a07	0.033533122
134	0x3d2beab9	0.041971896
135	0xbdd4102b	-0.10354646
136	0xbcfecd31	-0.031103702
137	0x3d4af23f	0.04954743
138	0xbddc5d9d	-0.10760043
139	0x3db684c3	0.08912041
140	0xbdaa1dd7	-0.08306473
141	0xbc540642	-0.012940945
142	0x3e0128fb	0.12613289
143	0xbc868b5c	-0.016423874
144	0xbd03cdd2	-0.032178707
145	0x3c681b3d	0.01416665
146	0x3d7f815c	0.062379226
147	0x3d3ee489	0.046604667
148	0x3db152b7	0.08658355
149	0xbd9cfbb9	-0.076652
150	0x3d8af55f	0.06785082
151	0x3d2f94f5	0.042866666
152	0xbd8db6fc	-0.06919667
153	0x3da1c8ab	0.078996025
154	0xbd9a31a6	-0.07529001
155	0xbb819e08	-0.0039556064
156	0xbd68b3f8	-0.056812257
157	0xbce00c6a	-0.02734967
158	0x3d668f02	0.056288727
159	0x3ccef1ea	0.025261838
160	0x3b130960	0.0022436008
161	0xbd6ee14c	-0.05832033
162	0xbdfd8017	-0.12377947
163	0xbdeda07f	-0.11602878
164	0x3dbe2355	0.09284083
165	0xbdf1948b	-0.117959104
166	0x3d60b24b	0.054857533
167	0x3db06648	0.086132586
168	0x3de0f4ea	0.10984214
169	0x3d81ff80	0.06347561
170	0x3e05d534	0.13069612
171	0xbd1ee07e	-0.03878831
172	0xbde22294	-0.110417515
173	0xbd9fecb6	-0.07808821
174	0x3b8b0125	0.00424208
175	0xbb7699a4	-0.0037628198
176	0xbddd7e67	-0.10815125
177	0xbdb593a7	-0.08866053
178	0x3da48052	0.08032288
179	0x3cd3bbe3	0.025846427
180	0x3d7198e2	0.05898369
181	0x3d27f9bb	0.041009646
182	0x3dc63a63	0.09679105
183	0xbdef9b84	-0.11699584
184	0x3d9781b0	0.07397783
185	0xbd978ecd	-0.07400284
186	0xbc8e076a	-0.01733752
187	0x3c50421c	0.012711074
188	0x3d7d8947	0.061898496
189	0x3d46e31d	0.048556436
190	0xbda3a602	-0.07990648
191	0x3b5e025e	0.0033875923
192	0x3decdc84	0.115654975
193	0xbd06b274	-0.03288503
194	0x3de1af84	0.11019805
195	0xbdce4ebf	-0.100736134
196	0x3d37ad98	0.044843286
197	0x3dc1ed61	0.094691046
198	0xbd1cc039	-0.038269255
199	0xbd5e8dee	-0.054334573
200	0x3d9e6e13	0.07735839
201	0x3d20c3db	0.039249282
202	0x3c8b195a	0.016979862
203	0x3dac214e	0.0840479
204	0x3d8d06d1	0.06886066
205	0xbdcaee7f	-0.09908771
206	0xbdd5e09f	-0.10443234
207	0x3e058180	0.13037682
208	0xbc969eec	-0.018386327
209	0xbded3056	-0.11581485
210	0xbc6e1de6	-0.0145334955
211	0xbdc6a892	-0.09700121
212	0x3d8eb5ef	0.06968295
213	0x3c695d36	0.014243415
214	0xbda602dd	-0.08106015
215	0xbca01539	-0.01954137
216	0xbdff7956	-0.12474315
217	0x3d0b06b9	0.033941958
218	0x3d96ac8e	0.07357131
219	0xbcf90878	-0.030399546
220	0x3d83f4dd	0.06443188
221	0x3e0830dd	0.1329989
222	0x3de3c983	0.1112242
223	0x3dd099e7	0.101856045
224	0xbbc26574	-0.0059325043
225	0x3d06cca3	0.03291
226	0x3d84b58d	0.064799406
227	0xbd08061f	-0.033208963
228	0x3db2e2f4	0.08734694
229	0x3dc26c5f	0.094933264
230	0x3debde20	0.11516976
231	0x3defbada	0.11705561
232	0x3d5e0eb2	0.054213233
233	0x3c80aaea	0.015706498
234	0xbda18615	-0.07886902
235	0xbd2ad370	-0.04170555
236	0x3cbbbd99	0.022917556
237	0x3cbd600b	0.023117086
238	0xbbec4eeb	-0.007211556
239	0xbce0849c	-0.027406983
240	0xbd08e917	-0.033425417
241	0xbc3a2da4	-0.011363421
242	0x3d070bd5	0.03297027
243	0xbbc02138	-0.005863335
244	0xbd3bc534	-0.045842364
245	0x3e034e10	0.12822747
246	0x3d7859e8	0.060632616
247	0x3d8663fc	0.06562039
248	0xbe0572c0	-0.13032055
249	0xbc29d353	-0.010365325
250	0xbcd05741	-0.02543223
251	0xbd6542a1	-0.055971745
252	0x3d2cfc0e	0.042232566
253	0xba113248	-0.00055388035
254	0xbdc8a92b	-0.09797891
255	0xbbda5e90	-0.0066641048

network.4.weight f4 [64, 512]
0	0x3cbbed13	0.022940194
1	0xbd2bd993	-0.04195554
2	0x3ce2372f	0.027614204
3	0xbc97ae44	-0.018515714
4	0xbd3a56e5	-0.045493025
5	0xbc8633a3	-0.016382044
6	0xbcdc4b86	-0.026891481
7	0x3c8a7009	0.016899126
8	0x3bf9b9cc	0.0076210257
9	0x3c877238	0.016533956
10	0x3d311764	0.043235198
11	0x3bc7b2a4	0.0060942937
12	0xbd02b5d7	-0.031911697
13	0xbbfb99c6	-0.0076782433
14	0xbc80b86f	-0.015712945
15	0xbc6c9211	-0.014439122
16	0xbb6fd7d7	-0.0036597156
17	0xbd056a6d	-0.0325722
18	0x3d3a4699	0.045477483
19	0xbd0a54fe	-0.03377246
20	0x3c0e2ac2	0.008677186
21	0x3c7de78f	0.015497102
22	0xbbf80160	-0.0075685233
23	0x3d0bdb77	0.034144845
24	0x3cadee21	0.021231713
25	0xbcdb0ca1	-0.02673942
26	0x3b9ebc85	0.0048442506
27	0xbcf14be8	-0.02945514
28	0xbcd60ed3	-0.026130116
29	0x3cb5129a	0.022103596
30	0x3c6c3938	0.014417939
31	0xbc35470f	-0.011064305
32	0x3c3b7858	0.011442266
33	0xba6915e6	-0.0008891508
34	0xbb93d316	-0.0045112474
35	0xbd019c76	-0.031643353
36	0xbc8a7e12	-0.016905818
37	0x3ccf3004	0.02529145
38	0xbc6705f5	-0.014100541
39	0xba931efa	-0.0011224442
40	0x3c978f71	0.018501015
41	0x3ab60e32	0.0013889729
42	0x3bfde30d	0.007748014
43	0x3cf327e9	0.029682117
44	0xbc1c8232	-0.009552525
45	0x3cadf5ec	0.021235429
46	0x3cda6745	0.02666057
47	0xbd097f18	-0.03356847
48	0x3c800bad	0.015630567
49	0xbcafb76a	-0.021449763
50	0x3ce6a1c7	0.028153313
51	0x3d396c09	0.045269046
52	0xbc8e2f88	-0.017356649
53	0xbd0c2701	-0.034216885
54	0xbd2d824d	-0.042360593
55	0xbca8e401	-0.020616533
56	0x3a9b41fc	0.0011845226
57	0xbd28ab44	-0.041178957
58	0xbb5ef8aa	-0.0034022727
59	0xbc8cd522	-0.017191473
60	0xbc3d46ad	-0.011552495
61	0x3d4d3a00	0.05010414
62	0xbc8cbb66	-0.017179202
63	0xbd11e6de	-0.035620563
64	0x3c08b84c	0.008344721
65	0xbc8b7b67	-0.017026616
66	0xbce1d01c	-0.027565055
67	0xbcfa543d	-0.030557746
68	0xbd24b1f8	-0.040208787
69	0x3d19c2ec	0.037539408
70	0x3c7c18f5	0.01538681
71	0xbcb6aa34	-0.022297956
72	0x3c9371b2	0.01799855
73	0xbcd70c0d	-0.026250863
74	0xbce12e9b	-0.027488044
75	0x3c41ccc9	0.01182861
76	0xbc80785c	-0.015682392
77	0x3c3699dd	0.011145082
78	0x3b8e8bb1	0.0043501486
79	0xbc57e653	-0.013177472
80	0xbc94f849	-0.018184798
81	0xbd2e22c4	-0.042513624
82	0x3a645ff1	0.0008711806
83	0x3d399417	0.045307245
84	0x3c3bf735	0.011472513
85	0x3d0c9150	0.03431827
86	0x3d2ba398	0.041904062
87	0x3cc457a6	0.023967575
88	0xbbad4ea3	-0.0052889152
89	0xbb619222	-0.0034419377
90	0xbd2a7429	-0.041614685
91	0x3d0b9ebf	0.03408694
92	0x3bb73afb	0.005591748
93	0xbc0eb4ee	-0.008710129
94	0xbca502ae	-0.02014288
95	0x3d117af8	0.035517663
96	0x3ba4ae72	0.0050256783
97	0x3c643cdf	0.013930528
98	0xbccedd7b	-0.025252094
99	0x3cead102	0.028664116
100	0x3c0c8628	0.008576907
101	0xbcb24f87	-0.021766437
102	0x3d0adbbd	0.033900965
103	0x3cfe945e	0.031076606
104	0xbc8743b5	-0.016511777
105	0xbd2f36d9	-0.042776916
106	0xbd1adefc	-0.03781031
107	0x3be16d50	0.006879486
108	0xbcef41b3	-0.029206133
109	0x3cbdf116	0.023186248
110	0xbbbd4922	-0.0057765404
111	0xbbb8aff5	-0.00563621
112	0x3d40918f	0.047013815
113	0x3d0522fd	0.03250407
114	0xbc6017ad	-0.01367752
115	0xbc7a1b25	-0.015265261
116	0x3be612e0	0.007021293
117	0x3c206216	0.0097890105
118	0xbd09e9b6	-0.03367015
119	0xbc970628	-0.018435553
120	0x3c6bb3ad	0.0143861
121	0xbca80368	-0.020509437
122	0x3ce55842	0.027996186
123	0x3c109b2b	0.008826057
124	0xbd380f9f	-0.044936772
125	0xbc0c68d5	-0.008569916
126	0xbce8928c	-0.028390191
127	0xbd1bb204	-0.038011566
128	0x3cc5a401	0.024126055
129	0x3b801703	0.003908993
130	0xbb869df9	-0.0041081873
131	0x3c3d6449	0.011559554
132	0xbcf32137	-0.029678924
133	0xbd074a05	-0.033029575
134	0xbcf1a884	-0.0294993
135	0x3ce85ed6	0.028365534
136	0x3c864aa2	0.01639301
137	0x3b8bfce7	0.0042720917
138	0xbcb2261d	-0.02174669
139	0xbc0af6aa	-0.008481661
140	0x3bc32fac	0.0059566107
141	0xbceab732	-0.028651807
142	0xbd1261eb	-0.035737913
143	0xbcefacc6	-0.02925719
144	0xba3d247b	-0.0007215214
145	0x3c1168dc	0.008875098
146	0xbcad4dd6	-0.02115528
147	0x3c0610c4	0.008182708
148	0xbbea9884	-0.0071592946
149	0x3d3482fa	0.04407022
150	0xb823fceb	-3.9097777e-05
151	0x3d25cc1d	0.04047786
152	0xbccd843b	-0.025087466
153	0xbc26cb3d	-0.010180292
154	0xbd462cc0	-0.04838252
155	0xbc942ddd	-0.018088276
156	0x3cc46fa2	0.023979012
157	0xbc89300c	-0.016746543
158	0xbb788610	-0.0037921704
159	0x3d3aa691	0.045569006
160	0xbb13fd41	-0.002258137
161	0x3d3b5b8a	0.045741595
162	0xbcacf421	-0.021112503
163	0x3cbdf243	0.023186808
164	0x3d12a401	0.035800938
165	0xbb6a3558	-0.0035737362
166	0x3d2113b2	0.039325424
167	0x3d13a70f	0.03604799
168	0x3cd9b2bb	0.026574483
169	0x3c6f8490	0.014619008
170	0x3ca6343b	0.020288577
171	0x3cd61845	0.02613462
172	0xbcb76e51	-0.02239147
173	0x3c816362	0.01579446
174	0xbd39a7e6	-0.045326136
175	0x3c2e6616	0.010644456
176	0x3cc59190	0.024117261
177	0xbbcb1abf	-0.0061982567
178	0xbbf8692b	-0.0075808964
179	0x3d141758	0.036155075
180	0x3cb75048	0.022377148
181	0xbbc82b12	-0.00610865
182	0x3be5878a	0.007004683
183	0x3d05cc48	0.03266552
184	0xbc630080	-0.0138551
185	0x3d041d62	0.032254584
186	0xbd18874f	-0.037238415
187	0x3ce41ae2	0.02784485
188	0x3d0119d2	0.031518765
189	0xbd2cdb0b	-0.042201083
190	0x3cd1733b	0.025567641
191	0x3bc6368b	0.0060489825
192	0x3d25ee3d	0.040510405
193	0x3ce7612c	0.028244577
194	0xbc62efc5	-0.013851111
195	0xbd0a7e56	-0.03381189
196	0x3c4f32ee	0.01264642
197	0x3c6fc59c	0.014634516
198	0xbd19b8b5	-0.037529666
199	0x3cce5893	0.02518872
200	0x3ce10a59	0.027470754
201	0xbd27912e	-0.04090994
202	0xbc837396	-0.016046327
203	0x3cd1385b	0.025539568
204	0x3cca9ff8	0.024734482
205	0x3b188277	0.0023271122
206	0xbd19633f	-0.037448164
207	0x3c1c2880	0.00953114
208	0x3bce0d10	0.0062881783
209	0xbd1f5abd	-0.038904894
210	0x3cbc1a1a	0.022961665
211	0x3c1beb00	0.009516478
212	0xba59d766	-0.000830999
213	0xbca2bed6	-0.019866388
214	0xbc00c45e	-0.007859318
215	0xbd17cb77	-0.037059274
216	0x3bbe1d9d	0.00580187
217	0xbc94566f	-0.018107621
218	0xbcf4d6d0	-0.029887587
219	0xbcfd747d	-0.030939335
220	0xbc4b63b6	-0.01241391
221	0x3d49765b	0.04918514
222	0xbc70e137	-0.014702133
223	0x3d10fb58	0.03539595
224	0x3d15002d	0.03637712
225	0x3cdbe995	0.026844779
226	0xbbff2843	-0.007786782
227	0xbc665b9b	-0.014059926
228	0xbc76d347	-0.015065021
229	0xbcf6b7e2	-0.030116979
230	0xbbc3cc88	-0.0059753098
231	0x3b8bd4fe	0.004267334
232	0x3bbda37a	0.00578731
233	0x3c75fac4	0.0150134
234	0xbb56fbac	-0.0032803817
235	0xbd0081bc	-0.031373724
236	0x3d274bcf	0.04084378
237	0xbd0eaece	-0.034834675
238	0xbc427e91	-0.011870996
239	0xbc13d097	-0.0090219
240	0xbbd55e6b	-0.0065114996
241	0x3c6541ae	0.01399271
242	0x3c0c20ac	0.008552711
243	0x3d117696	0.035513483
244	0xbd1a37ad	-0.037650753
245	0xbc409f56	-0.011756739
246	0xbc1ee553	-0.00969823
247	0x3cb369d3	0.021901047
248	0xbc942cef	-0.018087832
249	0xbceae2c3	-0.028672582
250	0xbcf0c219	-0.029389428
251	0xbb236629	-0.0024932718
252	0x3d1cb2ac	0.038256332
253	0xbc340b55	-0.01098903
254	0xbcfb80ed	-0.030701125
255	0x3c6988f5	0.0142538445

network.4.bias f4 [64]
0	0x377ce10f	1.5072771e-05
1	0xbaec77e8	-0.0018041106
2	0xbcc575d4	-0.024104036
3	0xbc21f15e	-0.009884207
4	0xbb8f78a2	-0.004378394
5	0xb86ce3d6	-5.6478973e-05
6	0xbcfb3e95	-0.03066949
7	0xba35dae0	-0.0006937217
8	0xbcc7ffb5	-0.024413923
9	0x3951d2db	0.00020010343
10	0x3d088965	0.033334155
11	0xbd129f9c	-0.035796747
12	0xbb430347	-0.0029756592
13	0xbb059ea8	-0.0020388756
14	0xbb875f94	-0.004131267
15	0xbd2d3187	-0.04228356
16	0x3cc360e3	0.02384991
17	0xbcf38311	-0.029725583
18	0xbb8ad461	-0.0042367433
19	0xbcb8d564	-0.02256269
20	0x3c51ded5	0.012809475
21	0xbc83e08b	-0.016098281
22	0xbccb8e11	-0.024848016
23	0x3d148fad	0.036269832
24	0xbb158366	-0.0022813915
25	0xbcc0137c	-0.02344679
26	0xbcd82d14	-0.026388682
27	0x3ca1675f	0.019702611
28	0xbc72cb16	-0.014818927
29	0xbc61391b	-0.013746525
30	0xbc3950d4	-0.011310775
31	0xbc169338	-0.009190373
32	0x3ca84e0a	0.020545024
33	0x3ce8b255	0.028405348
34	0x3be74124	0.007057326
35	0xbc582554	-0.0131924935
36	0xbbad3344	-0.0052856524
37	0xbba6b693	-0.0050876825
38	0xbd4a9bb8	-0.04946491
39	0x3c7e8bea	0.015536288
40	0xbcd50eae	-0.026007976
41	0x3c7d2e3b	0.015452917
42	0xbc4478f6	-0.01199173
43	0xbb6986f6	-0.0035633422
44	0x3ce702bb	0.028199544
45	0x3d31e663	0.043432605
46	0xbcce120e	-0.025155094
47	0xbd470dbe	-0.04859709
48	0xba633c32	-0.00086683326
49	0x3d443cab	0.04790942
50	0x3c32733f	0.010891735
51	0x3c2f6666	0.010705566
52	0xbceb5748	-0.028728142
53	0x3d049eab	0.03237788
54	0x3d24babe	0.040217154
55	0x3d3f9531	0.04677314
56	0xbce1db9d	-0.02757054
57	0xbd1ea81a	-0.038734533
58	0x3bd8bed7	0.0066145468
59	0xbcdeaae2	-0.027181093
60	0xbb0546ff	-0.0020336506
61	0xbcf5031b	-0.029908707
62	0x3934f237	0.0001725637
63	0x3d03a56b	0.032140177
