NeRF_CLIP/saved_one_img_models/try_one_img_color_mapper_epoch_11600.pth (torch, 397783 bytes, 6 tensors)

network.0.weight f4 [64, 512]
000000 07 e8 19 3d 27 57 81 3d 0a c6 07 bd 62 be a4 bd
       0.037574794 0.06315451 -0.03314785 -0.08044125
000010 15 6a 15 bc 6b 0f 83 bc 5e a1 1a bd 03 87 b2 3c
       -0.00911953 -0.015998563 -0.037751548 0.021792894
000020 5a 40 d5 3d 01 20 97 3c 8b eb dc 3c 21 1b b2 bd
       0.10412665 0.018447878 0.026967784 -0.08696581
000030 af 46 ff 3c 47 3b 9b bc 49 73 8b 3c 22 e8 4c bb
       0.031161634 -0.018949164 0.017022746 -0.0031266292
000040 c0 09 f7 3c 27 d3 5b 3a 01 9d d9 bc 08 94 2f bc
       0.030156016 0.0008385651 -0.026564123 -0.010716446
000050 9d 2f c3 bc 57 c4 0f bd ff 6d 11 bc da bd 1f bd
       -0.023826415 -0.035099354 -0.008876323 -0.038999416
000060 ad d5 03 bd cc 69 86 3d 39 7f b5 bc 91 bc 88 bc
       -0.0321862 0.06563148 -0.022155391 -0.016691478
000070 8c a1 db 3c 13 ef ae 3c 83 e6 0a 3c 58 e8 19 bd
       0.02681043 0.021354234 0.00847781 -0.037575096
000080 b1 9f d0 3a a5 9a 27 3b 4b 46 23 bd 61 16 fc 3c
       0.0015916732 0.0025574353 -0.03986196 0.03077239
000090 5b ec b9 bc 8d 93 2c 3b 93 e8 07 bd 8b e5 e1 bc
       -0.02269571 0.0026333064 -0.033180784 -0.027575275
0000a0 99 dd 38 3c 0a 92 83 3b 51 3f 92 3b dd 75 8a bc
       0.011283302 0.004015212 0.0044631143 -0.016901905
0000b0 01 6c 70 bc 77 70 aa 3d 61 4a 56 bd 0b 24 1d 3d
       -0.014674188 0.08322232 -0.052317027 0.03836445
0000c0 48 04 55 3d a5 19 1f 3d f1 ae 44 3d 0b f6 d1 3d
       0.052006036 0.038842816 0.0480184 0.10252007
0000d0 0a c2 01 bd dc de a6 bd 7f e2 5a bc e0 19 3a 3d
       -0.03167919 -0.08147976 -0.013359665 0.045434833
0000e0 29 27 4e bd a6 a0 6e bc b7 13 29 3d dc 23 0a 3d
       -0.050330315 -0.014564669 0.041278567 0.033725604
0000f0 9c b3 5e bd 08 98 b6 bc 6e 6b b8 bc 36 62 81 bc
       -0.054370508 -0.022289291 -0.022512164 -0.015793901
000100 38 d7 9f 3b ca cf 52 bd 4e 3b 6a ba fc 43 e0 bb
       0.004877951 -0.051467694 -0.00089352287 -0.006844042
000110 97 eb 2d 3d 05 e5 1d 3d ff 4c 0e 3c 14 62 bc bb
       0.042461004 0.03854849 0.0086853495 -0.0057489965
000120 66 75 b5 bc 98 d3 3d bd d9 a3 11 3d be 0a 41 bc
       -0.022150706 -0.04634437 0.035556648 -0.011782346
000130 c1 7e af bc cb 8c af 3b 82 d3 08 3d 5f c1 f2 3c
       -0.021422746 0.00535736 0.033404835 0.029633222
000140 8a bb 5d bd 7c cd 14 3d a3 b1 42 3d de c1 23 bd
       -0.05413393 0.036328778 0.04753269 -0.039979808
000150 19 87 45 bd 1e 63 84 bb 38 0d 95 3c 31 4f 90 bb
       -0.048224542 -0.004040136 0.01819478 -0.0044039716
000160 06 94 0b bd 4d 1d 03 3d 5d 90 d0 3b b9 1b 0b 3d
       -0.034076713 0.032010365 0.0063648657 0.033961985
000170 51 5d 6c 3d d7 b6 83 3c 9a 21 82 3d 28 c0 19 3d
       0.05770618 0.016078396 0.06354065 0.03753677
000180 9d c0 9e 3c ae ec 61 bc 37 67 e5 3c 86 12 4a b7
       0.019378955 -0.013789339 0.028003318 -1.2044451e-05
000190 fc ab 11 bd 30 dc 8a 3b c5 cc b5 bc 60 d1 0c 3d
       -0.035564408 0.004237674 -0.022192368 0.034379363
0001a0 87 26 8c 3c bd 5c e7 bc aa 0d 6d 3c aa 5f 10 bc
       0.017108215 -0.028242463 0.01446859 -0.008811871
0001b0 5c 49 9f 3c 38 e2 b0 bc 76 57 d3 bc 13 a2 80 bd
       0.01944416 -0.021592245 -0.02579854 -0.06280913
0001c0 c9 14 70 bc 9c a1 40 3d e8 05 fa 3c 2b 75 17 bb
       -0.014653393 0.047029123 0.030520394 -0.002311061
0001d0 a3 72 20 3d ac 46 81 3d fe 90 01 bd 5e f4 37 3d
       0.039171826 0.06312308 -0.031632416 0.04491078
0001e0 5b 7a 91 3c e5 36 65 3a 17 02 51 3d 04 57 80 3d
       0.017758539 0.00087438367 0.051027384 0.06266597
0001f0 36 fd e0 3c 68 1c 22 3b 67 04 54 3d 6b a5 8b bc
       0.02746449 0.002473617 0.05176201 -0.01704665
000200 82 44 89 bc f9 3f 32 bb 8f 94 5c bd 1b 9d c8 3b
       -0.0167563 -0.0027198775 -0.053852614 0.006122244
000210 f8 02 fb 3c 7c 09 f1 bc e5 a1 5e 3d 20 58 be bc
       0.030641064 -0.029423468 0.054353613 -0.02323538
000220 0a a6 5c 3d d3 19 07 3c 2f d3 37 bd 77 8b d0 3c
       0.053869285 0.008245903 -0.044879135 0.025457127
000230 a8 33 c0 3b 32 b7 ca bc 43 c6 ae 3c f8 70 04 3d
       0.005865533 -0.024745557 0.021334773 0.032334298
000240 75 54 eb 3d 2c 47 b2 3b 63 82 f2 3c 4b 33 a1 b9
       0.11490718 0.0054406133 0.029603189 -0.0003074653
000250 ee 95 50 3c ce 64 95 bc 7c 5f f1 bc ba 67 4d 3d
       0.0127310585 -0.018236544 -0.029464476 0.05014775
000260 61 e6 c3 bc 2e 59 03 bd 46 61 65 3d 45 e5 12 bd
       -0.023913564 -0.03206747 0.05600097 -0.03586318
000270 1d 45 81 bd 46 26 f6 bc 1c e7 df 3d b4 eb d3 bc
       -0.063120104 -0.030047547 0.109327525 -0.025869228
000280 1f 65 12 3d 98 4c f0 bc c9 7f 8e bb 5f 90 a3 bb
       0.035740968 -0.029333398 -0.0043487293 -0.0049915756
000290 c4 36 10 bd 9f 60 0b bd 39 c1 32 3c 68 21 8f 3c
       -0.03520848 -0.034027692 0.010910326 0.017471984
0002a0 87 e0 1e 3d fb d7 be bd 4c 54 9e bc 08 e0 95 3c
       0.038788345 -0.09318539 -0.019327305 0.018295303
0002b0 37 ff 95 3d 1d 98 3c bb 19 1a 85 3c 6d 75 14 bd
       0.07324069 -0.002877719 0.016247796 -0.0362448
0002c0 35 fa ba bc 4b ff 0d bd cd 5a 9d bc de d9 f0 3a
       -0.022824386 -0.034667294 -0.019208336 0.0018375476
0002d0 f8 8a f4 3b fa da a2 bc 9e c4 82 3d cf d0 88 3c
       0.0074628554 -0.019879807 0.06385158 0.01670113
0002e0 0f 21 2a bd 56 db 1e 3d 1f b5 59 3c a9 65 d8 bd
       -0.041535433 0.038783394 0.013287812 -0.10566265
0002f0 09 d3 3b 3c e6 48 b0 3b b5 8f 0a bd 7b c6 7a 3d
       0.011463889 0.005379784 -0.033828456 0.061224442
000300 03 d3 09 bd d3 ca 1d bd d6 5f 60 3c 42 db 96 bd
       -0.033648502 -0.038523506 0.013694724 -0.07366039
000310 8d f0 2e bd fe ab 2a 3d 66 1c ac 3c 72 21 44 3d
       -0.042709876 0.04166793 0.021009635 0.04788346
000320 ef 96 f8 3c c9 5c f4 3c aa dd 0f 3c be 4a 32 bc
       0.030345408 0.0298294 0.008780876 -0.010882078
000330 6e 4b b4 bc b0 5c 1d 3c ca 5e 78 3b fe ca e2 3c
       -0.022008624 0.009604618 0.0037898296 0.027684685
000340 a2 83 28 3c 94 96 cb bb 26 66 21 bc e9 0f 45 bd
       0.01028529 -0.0062130187 -0.009851014 -0.048110876
000350 ad b0 65 3d 40 9e e2 bc 99 22 7d 3c e7 78 ef 3b
       0.056076694 -0.02766335 0.015450143 0.007308114
000360 37 e2 86 bd 19 ff 64 3b 47 24 ee 3c e0 d9 32 3c
       -0.06586116 0.003494209 0.029070033 0.010916203
000370 1d 2b ab bb 0e 39 54 3d 9c b7 ac bc 97 02 f0 3c
       -0.0052236454 0.051812224 -0.021083646 0.02929811
000380 e9 66 2d bc 78 81 5c bc 26 b9 82 bd 24 12 dc 3c
       -0.010583618 -0.013458602 -0.063829705 0.026864119
000390 fe 78 0d 3d 09 c2 23 3d 16 4f 11 bd 1a ca 0b bc
       0.034539215 0.03997997 -0.035475813 -0.0085320715
0003a0 5c 4a d9 bc 3a 6c 52 bc 8a 78 81 bd 10 f2 5b 3d
       -0.026524715 -0.012843186 -0.06321819 0.053697646
0003b0 1e 29 67 bd 9b ba 4e bc b0 c7 a8 3a ab 58 42 3c
       -0.056435697 -0.012617732 0.0012876894 0.01186196
0003c0 91 5e e6 3a c2 1b e4 bb b5 f7 59 3d ea ae a6 bc
       0.001757579 -0.006961317 0.053214747 -0.020347077
0003d0 96 b7 50 b9 8d 5a b0 3c 39 7d 37 3d d1 9e 05 bc
       -0.00019904817 0.021527553 0.044797156 -0.008155541
0003e0 1d fa 32 3b 3c 4d 69 bd 54 42 4a bd 17 f5 e7 bc
       0.0027309724 -0.056958422 -0.04937966 -0.02831511
0003f0 8f 7c fa bc 8b c9 09 3d f5 9a dc bb 3c 48 b3 bc
       -0.030576972 0.033639472 -0.0067323395 -0.02188503

network.0.bias f4 [64]
000000 aa 24 b4 b9 e2 24 ec bc 82 a7 0e bd 23 d8 e4 bb
       -0.00034359592 -0.02882618 -0.034827717 -0.0069837733
000010 b7 22 3f 3b 94 33 ed b5 05 80 56 bd 3b f0 19 bd
       0.0029164979 -1.7672887e-06 -0.052368183 -0.037582617
000020 28 3b 4a bd bf ab 97 bc db 8d bd 3c 77 45 64 bc
       -0.049372822 -0.018514512 0.023138931 -0.013932577
000030 a6 77 53 bd 26 fa 21 3d 3c 36 3d bc be 3c 04 bd
       -0.051627778 0.0395452 -0.011548575 -0.03228449
000040 4e fe 97 bc a9 9a cb bb 7e 8f 3f 3b 5e 52 de bc
       -0.01855388 -0.0062135053 0.0029229815 -0.027138885
000050 48 a8 97 bd a9 65 54 bd fb 30 44 bd 14 3b 35 bd
       -0.07405144 -0.051854763 -0.047898274 -0.044245794
000060 5d 08 e3 3c 45 7e f0 ba 69 3e de bc 8f 0e 5e bd
       0.027713949 -0.0018348178 -0.027129369 -0.054213103
000070 08 8f ec 3b 98 d4 81 bd 2a 1f 8c bc 30 9d c8 bd
       0.007219199 -0.06339377 -0.017104704 -0.09795606
000080 21 b6 0d bd da 9d b6 bc bc 03 59 3c 14 ff 9d ba
       -0.03459752 -0.022292066 0.013245519 -0.0012054169
000090 42 6e 3a bc 4d f1 2c bd d3 f1 88 bd 39 45 75 bc
       -0.011378827 -0.04222231 -0.06686749 -0.014970117
0000a0 a2 83 88 bb 79 15 04 3d be 9d 02 bd dd 87 04 bd
       -0.0041660825 0.03224704 -0.031888716 -0.03235613
0000b0 1b 44 58 bd 86 44 11 bd 7e 97 ac bb 2a f8 14 3d
       -0.052799325 -0.03546574 -0.0052670827 0.03636948
0000c0 9f 4f 3e bd d4 27 1a bd 19 28 87 3c 76 c2 1c bd
       -0.04646265 -0.03763564 0.016498612 -0.03827139
0000d0 15 60 07 bd 34 d3 b6 bc 9b 4e ce 3c 3c 33 9b bd
       -0.033050615 -0.022317506 0.025183966 -0.075781316
0000e0 36 77 d8 3c 50 c5 f6 bc 8e d5 80 bc fe 63 86 bd
       0.026424032 -0.030123383 -0.01572683 -0.06562041
0000f0 28 08 cd bb 89 4d 05 bd 05 f2 7b bc 24 4c 83 3c
       -0.006257076 -0.032544646 -0.015377526 0.016027518

network.2.weight f4 [512, 64]
000000 d9 fc 1f 3d a8 ad fb bd 78 b5 06 bd ca a6 d9 3d
       0.039059494 -0.12288982 -0.032887906 0.106275156
000010 07 40 1d 3d 71 14 24 be 34 65 ad 3b 0c 9c e2 bd
       0.03839114 -0.16023423 0.0052916054 -0.1106492
000020 ee 4b 94 3d 29 e7 32 3e bc 2f 2a bd 80 26 54 3d
       0.07241045 0.17470993 -0.04154943 0.05179453
000030 0e e1 00 3d c8 c8 b9 3d 5a 71 ea bc 57 d6 b0 bd
       0.03146463 0.09071499 -0.028618503 -0.08634632
000040 4a e1 f4 bc 03 b3 86 bd ce a7 98 bc 0b e9 ef 3d
       -0.029892582 -0.065771125 -0.018634703 0.11714371
000050 c0 e7 9d bd bb d0 54 bd 92 ab 1e 3e 71 29 ac 3d
       -0.077102184 -0.051956873 0.15495136 0.08406342
000060 12 bb 45 bd f2 cd de 3d b4 27 d4 bd e8 0e 14 3e
       -0.048274107 0.10879125 -0.10359135 0.14458811
000070 b9 c1 fd 3d 43 c7 89 3d cf b0 99 3d c6 f5 98 3d
       0.12390465 0.06727459 0.07504427 0.074687526
000080 bd 47 28 3c 19 b6 45 bd c4 21 b6 bc d0 4a 70 bc
       0.01027101 -0.048269365 -0.022232898 -0.014666274
000090 5f f4 aa bd ba 58 4c bc 5a 57 90 bd 16 a5 24 3d
       -0.08347391 -0.012472326 -0.07047911 0.0401965
0000a0 22 1b 8f 3c 13 13 8e bd d2 91 82 3d 20 e6 38 3e
       0.017468993 -0.06937232 0.06375469 0.18056536
0000b0 8d 35 8a 3d 8a 45 c5 bd cf dd 8f 3d ac 25 0e 3c
       0.06748495 -0.09632404 0.070247285 0.008675974
0000c0 d9 c5 cf bd 28 fd 23 3d 21 44 e5 3d d3 e8 f2 bc
       -0.10145158 0.04003635 0.11194635 -0.029652035
0000d0 27 94 29 bd 59 89 fc bc 20 0b 9c 3d 53 ba 42 3d
       -0.041401055 -0.030827211 0.076193094 0.047540974
0000e0 2c e8 39 3d 40 11 5d 3d 77 8c fd bd 94 37 ed bd
       0.045387432 0.05397153 -0.12380307 -0.11582866
0000f0 b4 3a 54 3c ee c7 da 39 1c 0b f1 bc 02 f2 ba bd
       0.012953449 0.0004172916 -0.029424243 -0.091281906
000100 fb 5d 85 bd bd 24 c2 3d 6a 9d e2 3d e3 37 62 3d
       -0.06512066 0.094796635 0.110651806 0.05522908
000110 e9 19 d3 bd c9 f4 51 3b 7c 58 52 3d 95 a1 65 3d
       -0.10307676 0.0032036772 0.051353917 0.0560623
000120 8d 70 b1 bd 24 d4 fb 3d 9c 17 d0 bd 75 c7 81 3d
       -0.086640455 0.12296322 -0.10160753 0.063368715
000130 4f 0c 30 bd 27 19 19 3c cd bc de bd 08 3e 9a 3d
       -0.04298049 0.009344376 -0.10875855 0.07531363
000140 32 7c 03 bd 92 08 48 3d 03 06 35 3d 88 9f 99 bd
       -0.032100864 0.0488363 0.044195186 -0.07501131
000150 37 3b e2 3c 3c 35 d5 bd 6c d6 39 bd 6b 20 75 bc
       0.027616126 -0.10410544 -0.045370504 -0.014961342
000160 62 ff e3 bd ac 88 89 3d 7c e8 17 3d 34 2f b0 3d
       -0.11132695 0.06715521 0.03708695 0.08602753
000170 de 93 82 3d aa 37 8f bc b6 ec f9 bd 58 76 d5 3c
       0.0637586 -0.017482597 -0.12203352 0.026057407
000180 aa af 78 3b 5c 45 ff 3d 42 d1 ac bd 9e 48 ab bd
       0.00379465 0.12464401 -0.0843835 -0.0836346
000190 0d 47 7c bc e6 be db bd 39 69 a1 bd 1f 47 89 3c
       -0.015397799 -0.1072977 -0.07881398 0.016757546
0001a0 11 5b 83 3c c0 6b 5f bc 08 c4 b0 bc f1 92 5b bd
       0.016034635 -0.013636529 -0.02157785 -0.05360693
0001b0 4a ba 32 3d 9a af 95 bc 39 95 ab bd 63 cd e0 3d
       0.04363469 -0.01827221 -0.08378071 0.109766744
0001c0 cc d9 7b bd a0 41 5c 3d 6e 5d b6 3d 54 57 de bd
       -0.061487004 0.053773522 0.08904539 -0.108565
0001d0 ea 31 0e bd 0c ec 8d 3d 98 ac 38 bd d2 18 89 bc
       -0.03471557 0.06929788 -0.045086473 -0.016735468
0001e0 2c 67 70 bd b1 d7 a0 3d ca 13 c5 bd 89 25 bf 3d
       -0.058692142 0.0785364 -0.09622915 0.09333331
0001f0 5c d6 b3 3c 23 c5 9e bd 0a e0 c5 bb 95 f0 9a bd
       0.0219528 -0.077524446 -0.0060386704 -0.07565419
000200 d1 df 28 3d b1 58 ec bd ad 2e 72 3d d3 9b cc bd
       0.041229073 -0.11540354 0.059126545 -0.099906586
000210 44 4d 1e be d7 8c 24 3d 3f b5 71 3d 3a 56 23 bd
       -0.15459162 0.040173378 0.05901074 -0.039877154
000220 77 8c 29 3e 6e 30 7c bc f2 9f 9a bd 75 93 1b bc
       0.1655749 -0.015392406 -0.075500384 -0.009495606
000230 8d 55 ea bd 30 ff b0 3b 98 d8 58 3d a2 90 e6 39
       -0.11442099 0.0054015145 0.052940935 0.00043976778
000240 4f 8f 3a be e7 d6 8d bd d2 30 95 bd 4c 0b 0c bb
       -0.1821873 -0.06925755 -0.07284702 -0.0021369038
000250 61 26 bb 3d 12 8c 44 bd 15 5f 55 3d 9d 66 37 be
       0.091381796 -0.047985144 0.05209263 -0.17910238
000260 57 61 83 bd 54 8c a3 bd 5a b1 92 bc 65 4a 23 bc
       -0.064150505 -0.0798575 -0.017906833 -0.0099664675
000270 a3 9d e1 bd 88 58 85 bd 5b 55 87 3c 9e 4f 03 3d
       -0.11016395 -0.065110266 0.016520193 0.03205835
000280 0d 83 fb bd d7 af 36 3c fb 65 93 3d 9d 05 3b bd
       -0.12280855 0.011150322 0.071971856 -0.04565965
000290 5c 9c b6 bc f4 59 61 3d 0e d2 8b bd d2 e0 e0 3d
       -0.022291355 0.055017427 -0.06827174 0.10980381
0002a0 67 df 6d bd a2 35 fe bd b8 b9 8a bd 86 4e 38 be
       -0.05807438 -0.124125734 -0.06773704 -0.17998704
0002b0 58 41 28 bd e3 6c 2d bd aa 10 e0 3c 17 ad 0d be
       -0.04107794 -0.04234017 0.027351696 -0.1383556
0002c0 9e 46 2d bd 32 25 26 3d 01 18 47 bc 89 51 81 3d
       -0.042303674 0.040562816 -0.012151719 0.0631438
0002d0 92 0f 1e be 6f d7 15 be bd 07 c3 bd e3 46 32 bd
       -0.15435627 -0.14632963 -0.0952296 -0.043524634
0002e0 c0 05 a6 bc 2d 31 e4 bb 10 08 66 bc 6c 44 16 be
       -0.020266414 -0.00696387 -0.014040008 -0.14674538
0002f0 d2 7c 2b be ed 0f c2 3d 7a 58 73 bd 95 5a 77 bd
       -0.16746834 0.09475694 -0.05941055 -0.06038912
000300 e9 d5 22 bd 5c 6d 8a 3d 0c 4f 8a bd 45 d2 05 3d
       -0.039754782 0.0675914 -0.06753358 0.03267123
000310 a8 5d 78 3d 77 ab 00 bd 85 06 c6 bd f9 60 54 3d
       0.060636193 -0.03141352 -0.09669212 0.051850293
000320 8d 93 4e 3d 72 fb 27 3d 20 86 83 bd ce 4f e3 bc
       0.050433684 0.04101128 -0.06422067 -0.027748015
000330 8d 28 27 3c 77 1a ca bd e8 30 ab 3d 07 c1 83 3c
       0.010202539 -0.09868329 0.083589375 0.016083254
000340 fc 04 4f 3b 28 de dd 3d 6b fa 97 bd 37 ce 61 3d
       0.0031588664 0.108333886 -0.0742081 0.055128302
000350 57 27 57 3d 12 7c 89 bd 45 72 04 3d 73 0d b3 bd
       0.05252775 -0.06713118 0.03233554 -0.087427996
000360 3d fa ec bb 79 df cc bd 1e 99 fe 3b b8 eb d9 bd
       -0.007231979 -0.100035615 0.007769718 -0.10640663
000370 a1 75 d0 3d 54 3f 88 bd c3 37 13 3c 61 c1 ef 3d
       0.10178686 -0.06652704 0.008985463 0.11706806
000380 0d b8 e2 3c 93 7c b5 bd 8a bc 0b bd e5 72 1c 3c
       0.027675653 -0.08861651 -0.03411535 0.009548877
000390 22 66 55 3d 8b 11 db 3b 5f e2 9c 3d db 00 a6 bd
       0.052099355 0.006685441 0.07660364 -0.08105632
0003a0 21 07 7c 3d 0a 69 93 bd 05 d1 56 3d c8 b8 69 3d
       0.061530236 -0.07197769 0.05244543 0.057060987
0003b0 6f eb f5 bd 0c 77 d2 bc 9b eb 81 39 6d 90 ae bd
       -0.12007796 -0.025691532 0.00024780337 -0.08523641
0003c0 15 40 05 3e 3a f9 51 3d 69 0f 20 3e 32 0a b9 3d
       0.13012727 0.05126307 0.15630879 0.09035148
0003d0 07 5a 82 bd 8c 0f a4 3c 36 31 d1 bc 60 4c 32 3d
       -0.063648276 0.020026945 -0.02553616 0.043529868
0003e0 24 b7 a4 bd 66 90 90 bb 9d d2 af 3c 93 5a bd bd
       -0.08042744 -0.004411745 0.021462733 -0.09245791
0003f0 fc 11 21 3d 4f d9 9b bc 30 b7 37 3d 34 65 e6 3d
       0.03932379 -0.01902452 0.044852436 0.11249772

network.2.bias f4 [512]
000000 c8 e8 a2 bd cb 0d 6e 3e bb e6 65 3e 66 80 87 bd
       -0.07954556 0.23247449 0.22451298 -0.06616287
000010 eb c5 0a be 00 f8 0e be 46 68 45 3e 08 7e 7c be
       -0.13552062 -0.13961792 0.19278058 -0.24657452
000020 db cd 63 bd 9e f3 af bd 3d 87 21 3e fb 68 83 bd
       -0.05561624 -0.08591388 0.15774246 -0.06416508
000030 01 0e f1 bd bd d0 f3 3c d2 bd e2 3c 35 69 b9 3d
       -0.11770249 0.02976262 0.027678404 0.0905327
000040 5c 60 07 3e a4 4e d7 3d f0 35 a6 3d d9 b6 2e 3c
       0.13220352 0.105130464 0.081157565 0.0106637115
000050 fb b5 7a 3d f2 2f 3e 3d 26 5a 97 3c 67 ea 9f 3d
       0.061208706 0.046432443 0.018475603 0.078083806
000060 5d 6b ef bd 71 e9 af bd 80 6a c2 bd 0d 05 a7 bc
       -0.116904 -0.08589447 -0.094929695 -0.02038815
000070 0a 15 0f be f3 fe a6 bb 6d 2f f3 3d 24 d4 05 3d
       -0.1397287 -0.0050963103 0.1187428 0.032673016
000080 80 80 4a bd ad 13 9c 3c 60 5a 05 3e 18 2d c0 3c
       -0.049438953 0.01905235 0.13022757 0.023459002
000090 76 3e 32 bd db 6b 98 bd 16 a3 cc bd 8e d1 01 be
       -0.0435166 -0.07442447 -0.09992044 -0.12677595
0000a0 6b fc de 3d 8f bc 4a bd 4f 20 f1 bb e3 aa 1c be
       0.10887989 -0.04949623 -0.007358588 -0.15299563
0000b0 ca 7b 6f 3e 9d c1 d3 bc 68 51 89 bc f0 c3 51 bd
       0.23387066 -0.025849158 -0.01676245 -0.05121225
0000c0 87 cd 26 3d 2e a8 b3 bd f4 96 27 3e f3 a5 30 be
       0.04072335 -0.08772312 0.16366178 -0.17250805
0000d0 10 55 15 be 65 2f 38 bd 9e 54 2e 3e 08 d8 a6 bd
       -0.1458323 -0.044967074 0.17024466 -0.081466734
0000e0 23 a6 81 3e 7e 2e 13 be 92 b7 01 be e9 fb 76 be
       0.25322065 -0.14373204 -0.12667683 -0.24119534
0000f0 13 1b 23 be e4 5b 16 be 26 a5 89 3c e9 fc ff bd
       -0.15928297 -0.14683491 0.016802382 -0.12499411
000100 cb b4 27 3e 08 26 a7 bd c2 75 af 3d 13 b5 a2 bd
       0.16377561 -0.08161551 0.085673824 -0.079446934
000110 78 8d 9a bc c9 97 c0 3b 8f 3b 58 be 73 f6 ca bd
       -0.018866286 0.005877469 -0.2111647 -0.09910288
000120 ec c8 c2 bc 50 84 84 bd 11 8c fc 3c 9f 6e 99 bc
       -0.023777448 -0.06470549 0.030828508 -0.018729506
000130 a5 3d 09 be ac 8e 13 3d 15 cd 1c 3e 87 37 6f 3d
       -0.13402422 0.036024734 0.15312608 0.058402564
000140 2b 4c 8b 3d 97 6b 13 3e 21 c8 17 3e 7a 30 7a 3d
       0.06801637 0.14396511 0.14822437 0.061081387
000150 55 24 db bc bc fe 5a be 1a c0 fa 3d b5 83 b1 bd
       -0.026750723 -0.21386236 0.12243672 -0.08667699
000160 ee 6d 9f 3d 71 23 c1 b6 bd 43 95 bd 32 99 ac 3d
       0.07784639 -5.755974e-06 -0.07288311 0.08427657
000170 5e ec de bd 12 df d9 bd 94 33 42 be f8 4f 04 be
       -0.10884927 -0.106382504 -0.18964988 -0.1292113
000180 49 9e a7 bd 60 3a 1f be 11 c8 77 bd c4 59 a6 bd
       -0.081844874 -0.15549612 -0.060493533 -0.0812259
000190 9f 8d 51 3c 59 a1 9b 3d 8b d5 7f be df 35 06 be
       0.012790113 0.07599134 -0.24983804 -0.13106488
0001a0 18 15 54 3d ef 2c 1c be a6 cd b3 3c df 65 92 bd
       0.05177793 -0.15251516 0.021948647 -0.071483366
0001b0 8e 3e 46 3e f0 db b9 bd 92 d6 23 bd 43 c6 66 bd
       0.193598 -0.09075153 -0.039999552 -0.05634142
0001c0 e5 38 a0 bd 34 91 a8 bd 35 a7 67 3e cf 78 c9 3c
       -0.07823352 -0.0823082 0.22622378 0.024593739
0001d0 92 e2 76 be 12 73 0a be cc 68 58 3d 1d 0c cf 3c
       -0.24109867 -0.13520458 0.052834317 0.02527433
0001e0 2a 93 76 bd 3e 87 f5 bb 63 66 89 3d e4 10 78 be
       -0.06019894 -0.0074929288 0.06708982 -0.24225193
0001f0 1e 62 80 3d 37 bd dd 3d 00 c2 56 3d d3 af 4d 3d
       0.06268714 0.108271055 0.052431107 0.050216507
000200 86 84 c8 3d 8f 86 e2 3c b8 d2 34 be 3c 20 a7 bd
       0.09790902 0.027652053 -0.17658508 -0.08160445
000210 13 4b b7 bd 76 c0 2c bc fb c2 93 bd 37 7c 3c 3d
       -0.08949866 -0.010543933 -0.07214924 0.046016898
000220 12 ef ae bd d2 d2 11 3d fb 25 19 bd 8d c1 43 bc
       -0.08541693 0.035601445 -0.037389737 -0.011948002
000230 38 4a 30 bd af af a6 bc e0 f1 a2 bd 30 b0 a8 bd
       -0.04303953 -0.020347444 -0.0795629 -0.0823673
000240 da cc 2e 3c 36 bc 7f 3e 53 46 25 be a7 56 49 3e
       0.010668958 0.2497414 -0.16140108 0.19661961
000250 59 29 57 be d5 7b 3b be 42 b8 26 be a9 73 ad bd
       -0.21011867 -0.18308957 -0.16281226 -0.08469326
000260 17 9c e0 bd 04 ae 99 bd 75 2c 78 bc 66 33 cf 3d
       -0.10967272 -0.07503894 -0.015147318 0.10117225
000270 b5 ab e1 3b 01 cc 4d be 82 4a 08 3e 4a c1 31 3e
       0.006886924 -0.20097353 0.13309672 0.1735889
000280 f2 df e6 3c c8 9c 3c bc f5 70 92 bd 72 38 00 3d
       0.028182957 -0.011511989 -0.07150451 0.03130383
000290 92 23 51 be 35 8d 19 be fa 4a d4 bd fc e2 0a be
       -0.20423725 -0.14995272 -0.10365863 -0.1356315
0002a0 de 22 5c 3e 42 a7 0c be d8 bd ac bd 15 98 1f be
       0.21497676 -0.13735679 -0.08434647 -0.15585358
0002b0 49 45 49 be f7 d3 ef 3c e8 7c 1b 3d fe b8 35 3e
       -0.19655336 0.029275877 0.037960917 0.1774635
0002c0 86 c1 86 3c 90 ae b4 bc c8 41 2b be ed f6 7d bc
       0.016449701 -0.022055894 -0.16724312 -0.015500766
0002d0 5a 00 bd 3c 42 2c 43 3e da d3 f8 bd b0 93 86 bd
       0.023071457 0.19059852 -0.121497825 -0.06571138
0002e0 db 82 fe bd 03 bf 2f 3d 2a 9b c0 3d c7 e5 1b 3d
       -0.124273024 0.042906772 0.09404595 0.03806093
0002f0 c6 3d 5c be b5 4b 24 3e 19 1c 1c 3d f3 17 a4 bd
       -0.2150794 0.16044505 0.038112734 -0.080123805
000300 00 d2 f3 3c 74 84 b4 3c 73 1a 0b be 69 77 ca bd
       0.029763222 0.022035815 -0.13584308 -0.09886057
000310 ce 16 99 bb 1f 12 4b 3c f7 70 05 3e 36 4d e7 3c
       -0.004671908 0.012394457 0.13031374 0.02823506
000320 c3 2e da bd b1 b3 e9 bd 99 82 c7 bd 2b db ce 3d
       -0.1065345 -0.114112265 -0.097417064 0.10100397
000330 6c a4 d4 3c 04 61 f1 bd 04 c2 04 3d d6 2d 93 bd
       0.025957309 -0.117860824 0.03241159 -0.07186477
000340 05 c0 06 3e 5f 41 56 be 66 b3 d5 bd b6 b2 f2 bc
       0.13159187 -0.20923375 -0.10434608 -0.029626232
000350 21 e0 52 be 98 14 03 be b8 fa 2b 3d f6 00 f1 bd
       -0.20593311 -0.12800825 0.04198715 -0.117677614
000360 af 65 44 be 6d 64 70 3d b0 7e 8c bd 26 89 83 be
       -0.19179414 0.058689523 -0.06860101 -0.25690573
000370 96 d5 f7 bd f6 0d 3a be 8d e1 17 be 00 63 06 3e
       -0.12101285 -0.18169388 -0.14832135 0.13123703
000380 20 d1 a3 bd 6f c5 7a 3e 38 3e 43 be 4c ed 44 be
       -0.07998872 0.24489377 -0.19066703 -0.19231147
000390 43 a0 fd bd ad 3c b5 bd 59 b9 08 3e 68 bb 0e be
       -0.12384083 -0.088494636 0.13351955 -0.13938677
0003a0 c6 4c 0f be 8b 41 a6 3d 5c 7f 10 be 96 13 9b 3c
       -0.1399413 0.0811797 -0.14111084 0.018930238
0003b0 cf ac 24 be 31 15 97 bc c4 5c 29 3e 95 4c 74 be
       -0.16081546 -0.018442722 0.16539294 -0.23857339
0003c0 4a b4 13 3e 2a b3 df 3d 9f f0 70 be bb a8 33 be
       0.14424244 0.10922845 -0.2352929 -0.17544834
0003d0 0a 61 f6 bd 23 aa 45 3d d1 0b b2 3d a2 53 3c 3e
       -0.120302275 0.04825796 0.0869366 0.18391278
0003e0 3b d7 7f bc 54 b5 b0 bc 51 b9 c1 3d 62 8d 34 3e
       -0.01561528 -0.021570839 0.094591744 0.17632058
0003f0 90 ae 57 be 7b b6 48 3e 14 97 75 3d c1 c5 28 bd
       -0.21062684 0.19600861 0.059958532 -0.041204218

network.4.weight f4 [64, 512]
000000 4a 39 ae 3d d4 e7 8a bc ba 9f 6a 3c e6 88 fb 3b
       0.08507021 -0.016956247 0.014320308 0.0076762317
000010 51 ed a0 3c eb e9 43 3d 23 bb e5 3b 81 43 14 bd
       0.019644411 0.047830503 0.007010834 -0.03619719
000020 15 76 91 3d d4 27 09 3d 4f 51 4b bd a7 c9 41 3d
       0.071026005 0.03348525 -0.04963809 0.04731145
000030 8d c3 51 3c 23 40 11 3d 49 94 c8 bc 98 3b 5a 3c
       0.012802971 0.035461556 -0.02448477 0.013319872
000040 92 26 17 3c 81 9e ad bc bd a5 26 3c 37 62 b3 3c
       0.0092255045 -0.021193745 0.010171351 0.021897418
000050 fc be 42 3d a8 1f 2d 3d ff a8 0a 3d 7a 56 3a bc
       0.04754542 0.042266518 0.033852573 -0.011373157
000060 9c f2 7e 3d df 3c c4 3b 69 d5 59 bc 04 3e 3c bc
       0.06224309 0.0059887017 -0.01329551 -0.011489395
000070 c0 e0 a0 3d 12 19 ba 3d 10 1e c1 3c e1 f9 39 3d
       0.07855368 0.09086813 0.023573905 0.04540432
000080 0a 4f 8d 3c fd 2d 4b bd bc 2e dc 3c f7 cb bf 3d
       0.017249603 -0.049604405 0.026877753 0.09365075
000090 60 cf 06 3d 69 68 5b bd 8e 36 3f bd 11 17 25 bd
       0.032912612 -0.05356637 -0.046682887 -0.0403052
0000a0 23 63 b4 3d 99 20 3c bd 80 91 49 3c c9 7e 0a 3c
       0.08807971 -0.045929525 0.012302756 0.0084530795
0000b0 ad cf 92 3c 9f bf 2e bd 28 10 6b 3d fa 02 22 ba
       0.017921293 -0.042663213 0.057388455 -0.0006180253
0000c0 0e 48 9d bc 17 bc 35 bc aa 97 78 3c a3 b1 46 bc
       -0.019199397 -0.011092207 0.015172878 -0.012127313
0000d0 7d 93 58 3d 4a 62 d6 3d e1 97 af 3b eb e0 ac 3c
       0.05287503 0.10467966 0.0053586815 0.021103343
0000e0 59 d2 a1 3c 78 76 92 3d e4 5f 04 3d eb ad 3d bd
       0.019753622 0.07151502 0.03231801 -0.04630844
0000f0 2c 8c fd bc fc b6 7e 3c c6 43 7f 3c 7d b6 2c 3d
       -0.030950628 0.015546557 0.015580123 0.042166222
000100 ad 99 ca 3d 1d 76 7f 3c 55 01 f5 39 2b e0 cd bc
       0.098925926 0.015592125 0.00046731034 -0.025131306
000110 46 4e ad bc d2 eb 94 3d f0 08 82 bc f6 cb 9d bc
       -0.021155488 0.07271542 -0.015873402 -0.019262295
000120 d1 c0 92 bd da 78 bd 3c 3c 74 87 3b cf c8 b3 3c
       -0.07165683 0.023128916 0.0041337293 0.021946339
000130 32 64 b8 bb 47 48 01 3c 18 bb 0f 3d 46 07 89 3c
       -0.0056271786 0.007890767 0.035090536 0.016727101
000140 8a 6f 92 3d 02 c9 55 3d a3 b7 c3 3c fb e9 2d 3d
       0.07150181 0.05219365 0.023891276 0.04245947
000150 d9 18 1e 3c 11 5b 04 bc eb 5c a9 3c 66 c9 18 bd
       0.009649479 -0.008078353 0.02067419 -0.037301444
000160 22 4a cf bc e5 77 8e 3c 6b b4 78 3d cc fe ae 3d
       -0.025303904 0.017391155 0.060718935 0.085446924
000170 8b 58 0b 3d 67 f4 d9 3b 30 d2 d5 3d 0b 29 86 3d
       0.034019988 0.0066514495 0.10440481 0.06550797
000180 ad ea 9f bc 00 b8 b7 3d a0 c4 02 bd 3c 92 0e 3c
       -0.019521082 0.08970642 -0.031925797 0.008701857
000190 75 59 83 bc 48 9d 9a bc 75 71 28 bd 3f de 97 3b
       -0.016033867 -0.018873826 -0.041123826 0.004634648
0001a0 b0 af 3e 3d 54 b6 00 bd 10 81 74 3c 90 86 37 bd
       0.046554267 -0.03142388 0.014923349 -0.044806063
0001b0 4e 74 9e 3c 63 7a 38 3d 55 42 cb bc 14 f1 98 bb
       0.019342568 0.045038592 -0.024811903 -0.0046674106
0001c0 8f 4b ef bc 53 1b ff 3b 6e fb 06 3d 29 29 2d 3d
       -0.029210834 0.0077852397 0.032954626 0.04227558
0001d0 80 9d 03 bd d9 37 a3 bd c7 17 5c bc 40 a8 37 3d
       -0.032132626 -0.079696365 -0.013433403 0.04483819
0001e0 a0 4e 1c 3d f9 70 cd bc 9b 65 93 ba 43 be 0e 3d
       0.03816092 -0.025078284 -0.0011245491 0.034849416
0001f0 fb 93 d6 3b 40 45 36 3c e5 15 89 3c ff ad ab 3c
       0.0065484024 0.011124909 0.016734073 0.020956991
000200 cf e1 8e bb fb 6d a2 bb 16 79 b3 3d 99 d5 d5 3b
       -0.0043604146 -0.0049569583 0.0876333 0.006525707
000210 e7 39 83 bc f0 7e b0 3d e4 91 9d 3d 40 9c 4e 3d
       -0.01601882 0.086179614 0.07693842 0.05044198
000220 38 be 72 3b 15 92 f4 3c 17 67 8a bd e8 c9 34 3d
       0.0037039649 0.029854814 -0.06757944 0.044137865
000230 1d e0 45 bb e6 49 df 3d 95 35 bd 3c 0e ea 29 3c
       -0.0030193396 0.10902767 0.023096839 0.010370744
000240 69 43 02 3d 1b cf 8d 3d f2 b5 88 3d 08 df 47 bd
       0.03180257 0.06924268 0.06675328 -0.048796684
000250 e8 43 de 3c 81 a5 82 3d f2 bf eb bc e9 65 13 3d
       0.02713199 0.063792236 -0.02877805 0.03598586
000260 55 53 cf bc 0f 63 c5 bc fa 22 16 3d 0d cc a8 bc
       -0.02530829 -0.024095086 0.03665445 -0.020605111
000270 c1 06 90 3d 82 28 b0 3d c2 f8 26 3d 57 5f 29 3d
       0.07032538 0.08601476 0.040764578 0.04135069
000280 e1 05 4e 3a 7d 0c f9 bc bb a8 c9 ba d9 c1 af bd
       0.00078591524 -0.030401463 -0.0015385369 -0.085818954
000290 91 9f 2f bc b6 53 16 3d b0 e6 dd 3c 1e f1 c3 bc
       -0.010719196 0.036700927 0.02708754 -0.023918685
0002a0 3b fc 54 3d cb 31 bb 3c d6 9d 18 3d ce f1 44 3c
       0.05199836 0.022850892 0.0372599 0.012020541
0002b0 e1 22 ff bc 70 76 63 3d 41 ca 6f 3c 6e b4 38 bc
       -0.031144561 0.055532873 0.014635623 -0.011273487
0002c0 13 83 f1 bc 54 8b 45 3d 7b 1f 69 3c 8b 93 81 3d
       -0.029481446 0.048228577 0.014228697 0.0632697
0002d0 47 c7 a9 bb 37 44 82 3c 8a 46 d8 bc 7b b8 57 bd
       -0.0051812264 0.015901668 -0.026400823 -0.05266617
0002e0 b2 6b 0e 3d 9e 49 21 bd 40 ae 91 3d 4a b6 d3 3c
       0.034770675 -0.039376847 0.07113314 0.025843758
0002f0 1e 99 08 bd ac 18 22 bd 4b 6d 2f 3d 8f 66 c1 3c
       -0.03334915 -0.03957431 0.04282884 0.023608474
000300 a6 cc 7e 3d 80 80 02 3c d5 66 9c bc 5b 24 27 bb
       0.062206887 0.007965207 -0.019092003 -0.0025503847
000310 99 b8 e0 3c ae 84 12 3d a0 30 21 bd 17 84 c3 bd
       0.027431773 0.035771064 -0.039353013 -0.095466785
000320 48 a9 5d 3d 8c 07 a2 3d 30 fd 9e 3c b6 b6 32 bc
       0.054116517 0.07911596 0.019407839 -0.0109078195
000330 df 00 e5 b9 8f 20 b2 bc b0 ed 3d 3c b7 ee 51 bd
       -0.00043678933 -0.02174404 0.011592314 -0.051253047
000340 f1 70 d8 3c 5e f9 7d 3d fb 15 51 3d 44 d1 b5 bc
       0.026421042 0.062005393 0.051046353 -0.022194512
000350 d5 00 83 3d 44 98 11 3d 7a d3 c4 3c 5d 07 1b 3c
       0.06396643 0.035545602 0.024026621 0.009462205
000360 fa d4 b3 3d bd cb 9a 3b e3 b1 e9 3c 17 09 82 bc
       0.087808564 0.0047239945 0.028527206 -0.015873475
000370 dc c6 22 3d 7a a2 2a 3d eb c7 96 3c 2c 76 47 bd
       0.03974043 0.041658856 0.018405875 -0.04869668
000380 80 f0 6a 3d 7a 64 bc 3c c8 05 c1 bc d4 ed aa 3c
       0.057358265 0.02299713 -0.023562327 0.020865358
000390 32 75 95 bc 63 3f 42 3c da db ff 3c d0 72 2c 3d
       -0.01824436 0.011855933 0.031232763 0.04210168
0003a0 05 db 90 bc d3 6c 81 3d 9a 29 47 3c c4 29 0f 3d
       -0.017682562 0.06319585 0.012155915 0.03495194
0003b0 d2 72 a2 3b fb 1d 87 3b 59 02 ae 3c 58 08 de 3c
       0.0049575353 0.004123447 0.021241354 0.027103588
0003c0 48 a1 c7 bb 89 1a 7e 3d 25 3e 6e 3d 85 dd 19 3d
       -0.0060922243 0.062037025 0.058164734 0.037564773
0003d0 ec e4 95 bc e4 42 17 3c b1 7f 8c 3d c4 9f 97 3c
       -0.018297635 0.009232257 0.06860293 0.0185088
0003e0 c1 26 5f 3b 47 4a 9d bb d9 1e 67 3d 9f b6 b9 3c
       0.0034050199 -0.0048001143 0.056425903 0.022670088
0003f0 54 74 56 3c c1 ed 87 bb fa 7a 50 3d 40 f2 c6 bb
       0.013089258 -0.0041482155 0.05089853 -0.006071359

network.4.bias f4 [64]
000000 a5 cb 7d 3c 76 59 5e 3e 7c d9 98 3e 00 2d d6 bd
       0.015490447 0.21713814 0.29853427 -0.10457802
000010 3f b4 13 be f7 1d 2d be 4f a1 7d be ac f4 e7 bd
       -0.14424227 -0.16905962 -0.24768566 -0.11325964
000020 3e e0 12 3e 96 d1 16 be ef ad 03 3e 85 3d 8c be
       0.14343354 -0.14728388 0.12859319 -0.27390686
000030 b3 ad fd bd be 5e e6 bc db f4 c3 3d 44 07 54 3d
       -0.12386646 -0.028121348 0.09568187 0.05176474
000040 c5 d3 89 3d fc e4 85 be f7 5a d9 bc 66 d8 48 3e
       0.06729845 -0.26151264 -0.026532633 0.196138
000050 d3 6e 76 3d a5 89 7a 3d a4 27 88 3d d4 5d 9c 3e
       0.060164284 0.061166424 0.06648186 0.30540335
000060 3e 5a c8 3c c6 a8 35 be b6 e8 2c be 0e 19 11 3e
       0.024457093 -0.17740163 -0.16885647 0.14169714
000070 36 1f d7 bc 60 f2 e4 bd 6a be 70 3e a1 97 8d bd
       -0.02626 -0.11179042 0.23510137 -0.069136865
000080 a2 34 3b 3e 06 6b 31 3d 50 d9 c5 3d 33 cd 45 bd
       0.18281797 0.043314956 0.0966059 -0.048291396
000090 a4 40 09 3e 2d 70 52 bd 2b 18 8d be e9 b2 63 be
       0.13403565 -0.05137651 -0.275575 -0.22236218
0000a0 86 5a 8c 3e 8f 50 6b 3e 2b ed d2 bd b9 93 39 be
       0.27412814 0.2297995 -0.102991425 -0.18122758
0000b0 cb 4c 66 bc 37 f2 5c 3e 49 24 c4 bd 04 3c 7f 3e
       -0.014056395 0.21576773 -0.09577233 0.24925238
0000c0 e8 3f 9a 3e 7d 76 f0 bd 4a af b5 3e 15 89 25 be
       0.30126882 -0.1174135 0.35485297 -0.16165574
0000d0 31 a1 d0 bd 2c f4 bd bd f4 2f 00 be a9 fa 20 be
       -0.10186995 -0.09275088 -0.12518293 -0.1572062
0000e0 9a 3a 4f 3e 10 4c 27 bd 9a d9 8d 3d ac 64 69 3e
       0.20237198 -0.040844023 0.0692627 0.2279231
0000f0 05 8c aa 3e 04 7d 3c be c1 b6 e7 bc a0 33 b8 bd
       0.3330995 -0.18407065 -0.028285386 -0.08994222
