NeRF_CLIP/saved_one_img_models/try_one_img_color_mapper_epoch_10000.pth (torch, 397783 bytes, 6 tensors)

network.0.weight f4 [64, 512]
0	0xbcbbc497	-0.02292089
1	0x3c6ff155	0.01464494
2	0xbcc24593	-0.023714816
3	0xbd23b957	-0.039971676
4	0xbd0d7bc0	-0.034541845
5	0xbac63708	-0.0015122602
6	0xbcb53572	-0.022120211
7	0x3ae4c7bc	0.0017454545
8	0x3d4b9996	0.049707018
9	0xbc0cf6fa	-0.008603806
10	0x3c57546d	0.013142687
11	0x3c6e35af	0.014539166
12	0xbcfbd17b	-0.030739537
13	0xbc39741e	-0.011319188
14	0x3d0e31b5	0.034715373
15	0xbcaa3850	-0.020778805
16	0x3ca6575d	0.02030533
17	0x3b886927	0.0041629258
18	0x3d0948d4	0.03351672
19	0xbc0958f3	-0.008383024
20	0x3c3b14a3	0.011418494
21	0xbd418ce7	-0.047253516
22	0xbc975ac0	-0.01847589
23	0xbb1803cf	-0.002319563
24	0xbca1f58c	-0.019770406
25	0xbcfbcafa	-0.030736435
26	0x3c1bfc38	0.009520583
27	0xbce4229c	-0.027848534
28	0xbd4a37b6	-0.049369536
29	0xbd2bdc2a	-0.04195801
30	0x3d18677c	0.037208065
31	0xbcc71de6	-0.024306249
32	0x3b8f2bac	0.0043692198
33	0xbd0b9737	-0.034079757
34	0xbbc2382d	-0.005927107
35	0x3d2c9d53	0.042142224
36	0xbc3e568d	-0.011617315
37	0x3c0844fd	0.008317229
38	0x3bab4969	0.005227257
39	0xbd1049bd	-0.035226572
40	0xbc880f8f	-0.016608981
41	0x3b2c8872	0.0026326445
42	0x3d10f051	0.035385434
43	0x3d01a7e7	0.031654265
44	0x3c188722	0.009309562
45	0xbcaa547e	-0.020792242
46	0x3b9bb338	0.004751589
47	0xbd3c291c	-0.045937642
48	0xbcbb8664	-0.02289123
49	0xbcb8dc02	-0.022565845
50	0xbc221260	-0.009892076
51	0x3c6915bb	0.014226372
52	0x3d2e1b92	0.04250676
53	0xbd4be00a	-0.049774207
54	0xbc0deb0b	-0.008661996
55	0xbd03ede6	-0.0322093
56	0x3cb6be85	0.022307644
57	0x3c80f445	0.015741477
58	0x3d101a1f	0.03518116
59	0xbd0c583c	-0.034263834
60	0x3c970153	0.018433249
61	0x3b6986e4	0.003563338
62	0x3d1780b9	0.036987994
63	0x3c354286	0.011063224
64	0xbcca0b75	-0.024663666
65	0x3cf20d8d	0.029547477
66	0x3cbc631e	0.022996482
67	0x3ceb3c30	0.028715223
68	0xbca78f22	-0.020453993
69	0x3c7412d7	0.01489707
70	0xbd28b103	-0.041184437
71	0x3cf8de80	0.030379534
72	0x3c6acb98	0.014330767
73	0xbd265303	-0.04060651
74	0xbc189033	-0.0093117235
75	0xbc8e170b	-0.017344972
76	0x3cf1da4b	0.029523036
77	0x3d20cb2b	0.039256256
78	0x3b3fd720	0.0029272512
79	0xbcb42d97	-0.021994395
80	0x3d16171a	0.036643125
81	0x3d167974	0.03673692
82	0xbbb62cd3	-0.0055595427
83	0xbd359468	-0.044330984
84	0xbd119b0e	-0.035548262
85	0xbd04d5db	-0.03243051
86	0x3c327f1e	0.010894565
87	0xbd1fd7c8	-0.039024144
88	0xbc9be973	-0.019032216
89	0x3cb7815d	0.022400552
90	0x3cc141ca	0.023590941
91	0x3d490087	0.04907277
92	0x3c867dfb	0.016417494
93	0xbd195480	-0.0374341
94	0xbc9634c7	-0.018335713
95	0xbd4522d3	-0.048128914
96	0x3bae0590	0.0053107217
97	0x3d1dec93	0.038555693
98	0x3d09dce4	0.033657923
99	0x3d3cd37e	0.046100132
100	0x3c6b0892	0.014345305
101	0xbb5a022a	-0.003326545
102	0x3bb5cd89	0.0055481833
103	0x3d3298c0	0.043602705
104	0xbd3b6419	-0.045749757
105	0xbd12dab3	-0.0358531
106	0xbca84d4e	-0.020544674
107	0xbc56fe33	-0.013122129
108	0xbd0f04dd	-0.034916747
109	0xba980800	-0.0011599064
110	0xbae2fd11	-0.0017317851
111	0x3b355344	0.0027668038
112	0x3d1c7ac3	0.038203012
113	0xbd1e5474	-0.03865476
114	0x3d21173b	0.039328795
115	0x3d22aa47	0.03971317
116	0xbbf136ce	-0.0073612696
117	0xbc12ea75	-0.008967032
118	0xbce49491	-0.027902873
119	0x3ce9fcad	0.028562868
120	0xbc17f6d1	-0.009275154
121	0x3cfe5a5a	0.031048942
122	0xbd043974	-0.032281354
123	0xbd0a1fad	-0.033721615
124	0x3cef5217	0.029213948
125	0xbd33f9b3	-0.043939304
126	0xbc60b809	-0.013715752
127	0x3d14bd2f	0.036313232
128	0xbd2cc59a	-0.042180635
129	0x3d1a49fb	0.03766821
130	0x3cf929a3	0.030415362
131	0x3c27f556	0.010251364
132	0x3c8d6a81	0.0172627
133	0x3b9612e2	0.0045798877
134	0x3d0b5657	0.034017887
135	0x3ce4a4b8	0.027910575
136	0x3d00468a	0.03131727
137	0xbd0cf241	-0.03441072
138	0x3c123957	0.008924804
139	0x3c74d20e	0.014942659
140	0x3cad143a	0.021127809
141	0x3d161499	0.036640737
142	0x3d2afa91	0.041742865
143	0x3c69f232	0.014278935
144	0x3d1f75ac	0.03893058
145	0x3ce5a3b9	0.02803217
146	0x3d2c80bb	0.042114954
147	0x3d175186	0.03694298
148	0x3d1b7ac4	0.037958875
149	0xbd36b19d	-0.04460298
150	0xbcf91fd2	-0.03041068
151	0xbc8eb350	-0.017419487
152	0x3d093a13	0.03350265
153	0x3be51c91	0.006991931
154	0x3c3f69fb	0.011682983
155	0x3c1dbafb	0.009627099
156	0xbc8ef618	-0.017451331
157	0xbbf27774	-0.007399494
158	0x3d0ac04b	0.03387479
159	0xbc57edee	-0.013179285
160	0x3bf2aeac	0.0074060764
161	0xbd3023b7	-0.04300281
162	0xbce29788	-0.027660146
163	0x3c99c157	0.01876895
164	0xbb56edc2	-0.0032795523
165	0xbccc2e36	-0.024924379
166	0xbd20b4b0	-0.039234817
167	0x3a717ca1	0.00092119916
168	0xbc9fe23f	-0.019517062
169	0x3c6df3c3	0.014523449
170	0xbd0302c7	-0.03198507
171	0xbcd7d0ae	-0.026344623
172	0x3cd7bb6e	0.02633449
173	0xbd14386f	-0.03618663
174	0x3d184bbb	0.037181597
175	0x3d1487e4	0.036262408
176	0xbc1f7f8f	-0.009735002
177	0xbcba66c0	-0.022754073
178	0xbbd44440	-0.0064778626
179	0x3d0d31cc	0.034471318
180	0xbc76316e	-0.015026433
181	0xbd124fa4	-0.035720482
182	0x3ca80ec9	0.020514863
183	0xbc47cd70	-0.012194976
184	0x3baf64d3	0.0053525954
185	0xbcd85493	-0.026407516
186	0x3c8a2ae4	0.016866155
187	0xbc52e3ab	-0.012871663
188	0x3a8c2744	0.0010692854
189	0xbc17fa5a	-0.009275997
190	0x3c9e9979	0.01936029
191	0x3c9f4394	0.019441403
192	0xbcb9b0bf	-0.022667287
193	0xbcd3c488	-0.02585055
194	0x3ced59d4	0.028973497
195	0x37dcc7bc	2.6319052e-05
196	0x3c731c70	0.014838323
197	0x3bf133a4	0.0073608924
198	0xbd1a6165	-0.03769054
199	0xbd07dbb4	-0.03316851
200	0xbcdcf4eb	-0.026972255
201	0xbd01ee9c	-0.031721696
202	0xbd20b830	-0.039238155
203	0x3ca89dbb	0.020583024
204	0x3c077d06	0.008269554
205	0xbd095e10	-0.03353697
206	0x3c92a0d5	0.017898956
207	0xbca1a14d	-0.019730235
208	0xbcc69f00	-0.024245739
209	0x3c58afb0	0.013225481
210	0xbb1d7717	-0.0024027282
211	0xbc7cbe22	-0.015426191
212	0x3cb19d69	0.021681504
213	0xbd0789cd	-0.0330904
214	0x3cca75b9	0.024714338
215	0x3d48e2ef	0.049044546
216	0xbc87cebf	-0.016578076
217	0x3b6619ee	0.003511067
218	0xbd188fe1	-0.03724659
219	0x3c988de7	0.018622352
220	0x3c74bbc1	0.014937342
221	0xbb2504aa	-0.0025179782
222	0xbcb315f9	-0.021861063
223	0x3d08b193	0.033372473
224	0x3c5f17b3	0.01361649
225	0xbcf2e80e	-0.029651668
226	0x3c9be632	0.019030664
227	0x3cdd4a61	0.027013006
228	0xbc97cb7f	-0.018529652
229	0xbcb04f06	-0.021522056
230	0x3bf30cf1	0.007417314
231	0x3b94f095	0.004545281
232	0xbd22a187	-0.039704826
233	0xbd1c32d1	-0.0381344
234	0x3ca0e878	0.0196421
235	0x3d190879	0.037361596
236	0x3cdf6d6c	0.027273856
237	0x3d17853e	0.036992304
238	0xbc26c2fe	-0.010178326
239	0x3c850540	0.016237855
240	0xbbc3bf95	-0.005973766
241	0x3c31c76f	0.010850771
242	0x3cfad06e	0.030616965
243	0x3b2cbe8b	0.002635869
244	0xbca5e120	-0.02024895
245	0xbb825edd	-0.0039785937
246	0xbd219052	-0.039444275
247	0x3ca614f4	0.020273663
248	0x3d402daf	0.046918567
249	0x3b849cfa	0.0040470334
250	0xbd02e9ea	-0.03196136
251	0x3d139406	0.036029838
252	0xbc902a60	-0.017598331
253	0xbb5b6b97	-0.0033480877
254	0x3d12515e	0.03572213
255	0x3ad620b3	0.001633665

network.0.bias f4 [64]
0	0xbc1ad455	-0.009450038
1	0xbbc34916	-0.0059596403
2	0x3d151acc	0.03640251
3	0x3d42b77b	0.04753826
4	0x3bda9b51	0.006671347
5	0xbd26017e	-0.040528767
6	0x3c5388a0	0.012910992
7	0x3b08c34c	0.002086836
8	0xbd305e2c	-0.04305856
9	0x3c591a43	0.01325089
10	0x3d2092a5	0.03920235
11	0x3cc6905d	0.02423876
12	0x3cbb0fb4	0.022834636
13	0x3d232908	0.039834052
14	0xbbadddf3	-0.0053059994
15	0x3c69e459	0.014275634
16	0xbd470854	-0.048591927
17	0xbd1f7fb6	-0.038940154
18	0x3ce3efbf	0.02782428
19	0xb9892216	-0.00026156072
20	0x3d0f0a4a	0.03492192
21	0x3d444de4	0.047925845
22	0x3cc222aa	0.02369817
23	0xbce02667	-0.027362062
24	0x3c4037ef	0.011732086
25	0x3d3cb3c6	0.046069883
26	0x3ceddc48	0.029035702
27	0x3bb8bc5a	0.0056376876
28	0x3a8692ec	0.0010267175
29	0x3d1dc5ad	0.038518596
30	0x3c07a4b9	0.008279019
31	0x3d0feb90	0.03513676
32	0x3cad7d61	0.02117795
33	0x3d1dd629	0.038534317
34	0xbd01c83f	-0.03168511
35	0x3d3fc436	0.04681798
36	0xbcd8d444	-0.026468404
37	0xbc8d583b	-0.017253986
38	0x3d15fd6b	0.03661863
39	0x3c107146	0.008816069
40	0x3cb9ab58	0.02266471
41	0xbcf6adda	-0.030112196
42	0xbbaea4e9	-0.0053297174
43	0xbd3a2175	-0.045442063
44	0xbd2290f0	-0.039689004
45	0x3c250517	0.010072014
46	0x3b20fefa	0.002456604
47	0x3c974e2e	0.018469896
48	0x3d0436f3	0.032278966
49	0x3a62e67b	0.000865556
50	0xbcc09497	-0.023508353
51	0x3ca4902b	0.020088276
52	0x3c05e006	0.008171087
53	0xbd36f529	-0.044667397
54	0xbc1dd592	-0.009633439
55	0x3bb7d820	0.005610481
56	0x3b08e221	0.0020886736
57	0x3ce59d47	0.028029097
58	0xbd14f3f2	-0.036365457
59	0x3d354028	0.044250637
60	0x3b8189e7	0.003953207
61	0x3ce68771	0.028140755
62	0xbd12be2b	-0.03582589
63	0x3ce3fe65	0.027831266

network.2.weight f4 [512, 64]
0	0x3d909557	0.07059734
1	0xbdda17f8	-0.10649103
2	0x3b23eaa6	0.0025011688
3	0x3d10c191	0.03534085
4	0xbdb55377	-0.0885381
5	0x3ca41a89	0.020032184
6	0x3d9a3052	0.075287476
7	0xbd52f16e	-0.051499777
8	0xbdd57b50	-0.104239106
9	0xbdf61cba	-0.12017198
10	0x3d41ae0c	0.047285125
11	0xb9ee04d5	-0.00045398498
12	0xbdf4914e	-0.11941777
13	0x3d6b0ef8	0.057387322
14	0x3d82a140	0.06378412
15	0xbdd96d9c	-0.106166095
16	0x3d6ff71d	0.058585275
17	0xbdf8cb02	-0.12148096
18	0x3de6e1bc	0.11273524
19	0x3d15b62d	0.03655069
20	0xba9217ce	-0.001114601
21	0x3b332bf7	0.0027339438
22	0xbde83ec0	-0.113400936
23	0xbdf8ef71	-0.12155045
24	0x3d5a2966	0.053262137
25	0xbddb710b	-0.107149206
26	0xbd67c88a	-0.056587733
27	0x3d8cdf33	0.06878509
28	0x3cb024f0	0.021501988
29	0x3a3f870b	0.0007306195
30	0xbdee31d4	-0.11630598
31	0xbd3f4df7	-0.046705212
32	0x3df4c8ec	0.11952385
33	0xbcc1beaa	-0.023650486
34	0xbdadd5fe	-0.084880814
35	0x3b535934	0.0032249214
36	0xbc8ffce7	-0.017576648
37	0xbd01d1e4	-0.031694308
38	0x3d8c900b	0.068634115
39	0x3da85562	0.082194105
40	0xbc81966d	-0.015818799
41	0xbdf2943c	-0.1184468
42	0xbddeb130	-0.108736396
43	0xbdd80991	-0.105487
44	0x3dbc52b6	0.09195463
45	0xbdadd5ec	-0.08488068
46	0xbde9643e	-0.11396073
47	0xbd85848c	-0.06519422
48	0xbc9a2a55	-0.018819014
49	0x3d95cbfa	0.07314296
50	0x3d895789	0.06706149
51	0x3b79691e	0.003805704
52	0xbcba0604	-0.022707947
53	0xbc632a3c	-0.01386505
54	0x3d6a5d45	0.057217855
55	0x3ccf7834	0.025325872
56	0xbd7f2886	-0.062294506
57	0xbdfd12d1	-0.123571046
58	0xbc9cb507	-0.01912929
59	0xbdff3e28	-0.12463027
60	0x3ded9526	0.116007134
61	0xbcb7f75e	-0.022456821
62	0x3d43a430	0.047764003
63	0x3c9848d3	0.018589413
64	0x3e002f5a	0.12518063
65	0x3da84f48	0.08218247
66	0xbd0e034a	-0.034671105
67	0xbd289113	-0.04115398
68	0xbd9f01de	-0.07764028
69	0xbd82b3b7	-0.06381934
70	0xbe01f4b1	-0.12690999
71	0xbd714a1c	-0.058908567
72	0xbd3ef1d7	-0.046617355
73	0xbdcdcdee	-0.100490436
74	0x3bb44608	0.0055015124
75	0xbc329d61	-0.01090178
76	0xbdbd5d77	-0.09246343
77	0xbc9c0a7b	-0.019047966
78	0x3de6fc17	0.11278551
79	0xbd98ed02	-0.07467081
80	0xbd130fa5	-0.03590359
81	0x3d00f49f	0.03148329
82	0x3dda3642	0.1065488
83	0xbd0790bc	-0.033097014
84	0xbdda5e01	-0.10662461
85	0xbcbfe429	-0.023424225
86	0x3d382337	0.04495546
87	0xbcf07451	-0.029352339
88	0x3d973d07	0.07384687
89	0xbd8a1b92	-0.0674354
90	0xbd9028e4	-0.07039049
91	0xbd46c769	-0.048530016
92	0x3d660cc2	0.05616451
93	0xbda5864f	-0.08082258
94	0x3c199a79	0.009375208
95	0xbda04b68	-0.078268826
96	0x3ca5aafa	0.02022313
97	0x3d4906a1	0.049078587
98	0x3dc3b446	0.09555869
99	0xbd39ad34	-0.045331195
100	0x3b3fed9e	0.0029285918
101	0xbd9d5aef	-0.0768336
102	0xbd48c73f	-0.04901814
103	0x3dcf35af	0.10117661
104	0xbd284aa3	-0.041086804
105	0x3b916cb6	0.004438008
106	0xbde9a5d0	-0.11408579
107	0x3da080dc	0.07837078
108	0x3cd79bfe	0.0263195
109	0xbde2e94a	-0.110796526
110	0xbdf18e68	-0.1179474
111	0xbd5134b4	-0.051075652
112	0x3d5007e2	0.050788768
113	0xbcb5a172	-0.02217171
114	0xbdefbbac	-0.117057174
115	0xbd785b0d	-0.060633708
116	0xbdaaba99	-0.08336372
117	0x3dd9e053	0.106384896
118	0x3d62426f	0.055239137
119	0xbccd911c	-0.025093608
120	0xbd979d34	-0.07403031
121	0xbbc264d4	-0.00593243
122	0xbd02e75d	-0.031958926
123	0x3dc4cbf2	0.09609212
124	0xbdc4954b	-0.09598788
125	0x3da63b48	0.08116776
126	0xbb91fb94	-0.0044550393
127	0xbd72d6b5	-0.05928679
128	0x3dd7a4e0	0.10529494
129	0xbd8e26be	-0.06940983
130	0xbdbcc08e	-0.092164144
131	0xbd98c39e	-0.07459186
132	0xbd8cf3f9	-0.068824716
133	0xbd0b0be2	-0.03394688
134	0x3d2a61a0	0.04159701
135	0xbc7525de	-0.0149626415
136	0xbd496cd4	-0.049176052
137	0x3bda9578	0.00667065
138	0xbd912fe4	-0.070892125
139	0x3d6da6cb	0.058020394
140	0x3dca9344	0.0989137
141	0x3d8d1ced	0.06890283
142	0x3d569433	0.052387428
143	0x3ddaa772	0.10676469
144	0x3c8063c7	0.015672578
145	0xbd70310d	-0.05864053
146	0x3d240882	0.040047176
147	0xbdc6cf33	-0.09707489
148	0x3daee0bb	0.08538958
149	0xbd134d44	-0.035962358
150	0x3d958933	0.07301559
151	0xbda3eb49	-0.080038615
152	0x3d244446	0.040104173
153	0x3d00bd63	0.031430613
154	0xbdc292b7	-0.0950064
155	0xbd08ce3d	-0.03339981
156	0x3de30eaf	0.11086785
157	0x3dcec39c	0.10095903
158	0x3dda113c	0.106478184
159	0xbc9ace5a	-0.018897224
160	0x3d80919a	0.06277771
161	0xbd3fa109	-0.046784434
162	0x3d9df929	0.07713539
163	0xbd83c856	-0.064346954
164	0x3c43c6e3	0.011949274
165	0x3db75b65	0.08952979
166	0x3d3f5f9c	0.04672204
167	0x3da2ed6f	0.07955443
168	0x3cfbd6e9	0.030742126
169	0x3deaa5d3	0.1145741
170	0xbc82a426	-0.015947413
171	0x3b03b4b7	0.0020096728
172	0x3da3538e	0.07974921
173	0xbdf5d7c5	-0.120040454
174	0x3dca5ced	0.098810054
175	0xbdae3bd2	-0.085075036
176	0x3d2b38d5	0.041802246
177	0x3da59912	0.080858365
178	0xbd0b7589	-0.034047637
179	0xbbcdf8e6	-0.0062857745
180	0xbd97a61e	-0.07404731
181	0x3b959749	0.0045651537
182	0xbdc2d644	-0.09513524
183	0xbd0f3efe	-0.034972183
184	0x3cb735b3	0.022364473
185	0x3bffbae3	0.007804261
186	0xbc86f507	-0.01647426
187	0xbe03e7d8	-0.1288141
188	0xbc97be6a	-0.018523414
189	0xbdd55510	-0.10416615
190	0xbdcc58a5	-0.09977845
191	0xbd512d37	-0.05106851
192	0x3dede9ee	0.11616884
193	0xbd8adf76	-0.06780903
194	0xbd1cd7b5	-0.03829165
195	0x3dbcaeec	0.09213051
196	0xbd87096a	-0.065935925
197	0xbd63ca3e	-0.055612795
198	0xbd3f3a2e	-0.046686344
199	0x3d6f152c	0.0583698
200	0x3d5e7125	0.05430712
201	0xbe00f151	-0.12592055
202	0x3dbeee0c	0.093227476
203	0x3d76fb4f	0.06029826
204	0xbc4d83e7	-0.012543655
205	0xbd47124a	-0.048601426
206	0xbd84b5ea	-0.0648001
207	0xbc8034bf	-0.015650151
208	0x3db87340	0.09006357
209	0xbdd97e54	-0.10619798
210	0xbdda6488	-0.10663706
211	0x3dad9257	0.08475178
212	0xbd8fe2de	-0.07025693
213	0x3d1bedb7	0.0380685
214	0x3d23d747	0.040000226
215	0x3d4a7b7d	0.049434174
216	0xbdd0c292	-0.10193361
217	0x3c8c1944	0.017101891
218	0x3c8053d9	0.015664982
219	0x3d5b2bd7	0.053508606
220	0xbd98050f	-0.0742284
221	0x3ca85902	0.020550255
222	0x3da8652c	0.08222422
223	0x3d63c599	0.055608366
224	0x3de591d6	0.112094566
225	0xbdb2795f	-0.08714556
226	0xbbf6eda3	-0.0075356527
227	0xbd8c07aa	-0.06837399
228	0xbd103bc1	-0.035213236
229	0xbd545b35	-0.051844794
230	0x3de0cf59	0.109770484
231	0x3d7257d9	0.05916581
232	0x3d02fefe	0.03198146
233	0x3d328df8	0.043592423
234	0x3cd6de0a	0.026228923
235	0xbdb0d647	-0.0863462
236	0xbb23617d	-0.0024929934
237	0x3dffed9c	0.12496492
238	0x3d2372fd	0.039904583
239	0xbd364c5d	-0.04450642
240	0x3dd7c24f	0.10535108
241	0xbdd78247	-0.10522895
242	0xbd279801	-0.040916447
243	0x3cdea471	0.027178021
244	0xbdc98e11	-0.0984155
245	0x3d8b3dee	0.067989215
246	0xbbcd96c4	-0.006274076
247	0x3d892713	0.06696906
248	0x3dd62388	0.10455996
249	0x3b31ccb7	0.0027130076
250	0xbd1b315a	-0.037888862
251	0x3d7e4990	0.062081873
252	0x3d90ca46	0.070698306
253	0xbda44997	-0.08021849
254	0x3def685b	0.11689826
255	0x3c076ecc	0.008266162

network.2.bias f4 [512]
0	0x3d9c23fa	0.076240495
1	0xbd1e4740	-0.038642168
2	0x3d841376	0.064490244
3	0xbd4b7a6f	-0.04967731
4	0x3cc78df4	0.02435968
5	0xbbb4de08	-0.0055196323
6	0x3df14301	0.11780358
7	0x3d802c3b	0.06258436
8	0x3dd3b9d8	0.10338181
9	0xbbc7914f	-0.00609032
10	0xbda0a059	-0.07843084
11	0xbd990d0b	-0.07473191
12	0xbd647638	-0.055776805
13	0xbdf7a07e	-0.12091158
14	0xbdd53473	-0.104103945
15	0xbab08e6d	-0.001347018
16	0xbca33ca6	-0.01992638
17	0x3d2d893d	0.04236721
18	0x3dec39bd	0.1153445
19	0x3ccf2d39	0.025290119
20	0xbda1065b	-0.0786254
21	0xbde3a3ab	-0.111152016
22	0xbb8ef008	-0.00436211
23	0xbc5dd7b5	-0.013540198
24	0xbd8ddaec	-0.06926522
25	0x3d7ed8dc	0.062218532
26	0xbdba3404	-0.090919524
27	0x3dab4675	0.08363048
28	0xbd9f45fd	-0.07777021
29	0xbd24e0ff	-0.040253635
30	0x3c644ec3	0.013934794
31	0xbc3e911b	-0.0116312755
32	0xbd21fe3e	-0.039549105
33	0xbd59fdc1	-0.053220514
34	0x3993aa59	0.00028164944
35	0xbd0fc3ed	-0.03509896
36	0xb984ce9f	-0.00025330947
37	0xbd4e1fa5	-0.050323147
38	0x3d13daa4	0.036097184
39	0xbc9f7e61	-0.019469442
40	0x3be884d2	0.0070959115
41	0xbdf541f0	-0.11975467
42	0xbd88d69b	-0.06681558
43	0xbd19f8c9	-0.037590776
44	0x3d1c06fe	0.038092606
45	0x3cb89fe8	0.022537187
46	0x3db6b195	0.0892059
47	0x3dd8cad4	0.105855614
48	0x3dd46bd7	0.10372131
49	0x3c9196bb	0.01777207
50	0xbd37f7ca	-0.044914044
51	0x3dfd231c	0.12360212
52	0xbca39762	-0.019969646
53	0x39c4cfdc	0.000375389
54	0x3db34970	0.087542415
55	0xbd632065	-0.055450816
56	0xbcd173bb	-0.02556788
57	0xbda8c107	-0.08239942
58	0x3d246972	0.040139623
59	0x3be61cb0	0.007022463
60	0xbdaee015	-0.08538834
61	0xbdda1fc0	-0.10650587
62	0x3d82ad11	0.06380666
63	0xbe038ee5	-0.12847479
64	0xbd2f7512	-0.042836256
65	0x3da0fc95	0.07860676
66	0xbcad9103	-0.021187311
67	0xbde31eae	-0.11089836
68	0xbd87d05f	-0.066315405
69	0x3da9068d	0.082532026
70	0x3d435312	0.047686644
71	0xbe01b39f	-0.12666176
72	0x3da0b76e	0.078474864
73	0xbd7a8d49	-0.061169896
74	0x3de56f1b	0.11202832
75	0xbdc66e55	-0.09689013
76	0x3ceef51c	0.029169612
77	0xbd5ae00f	-0.053436335
78	0x3d3f03a5	0.046634335
79	0xbd7ae68d	-0.061255027
80	0x3d76cfb7	0.060256686
81	0xbd948e4e	-0.07253705
82	0xbdb5db41	-0.0887971
83	0x3ddf0d92	0.1089126
84	0x3dcb5c6f	0.0992974
85	0xbb54b1ad	-0.0032454536
86	0xbcb7ac93	-0.022421157
87	0x3d562659	0.052282665
88	0x3dc7c19c	0.09753725
89	0x3df2c3e2	0.11853768
90	0xbdba7fbf	-0.09106397
91	0xbd8ebd12	-0.06969656
92	0x3d79587a	0.060875393
93	0xbdf14f2f	-0.11782681
94	0xbdaf8825	-0.085708894
95	0xbbf08499	-0.0073400256
96	0x3d6d8260	0.057985663
97	0x3d1d8606	0.038457893
98	0xbd9dceb4	-0.07705441
99	0xbd6271f3	-0.05528445
100	0x3d33178a	0.04372362
101	0xbd806798	-0.06269759
102	0xbddc876d	-0.10768018
103	0xbd86f734	-0.06590119
104	0xba1a3f18	-0.00058840355
105	0xbd7790c9	-0.060440812
106	0xbc5b457e	-0.013383267
107	0x3db7370d	0.08946047
108	0xbd47aa13	-0.04874618
109	0x3dc7b0a7	0.09750491
110	0x3cbe7109	0.023247259
111	0x3e00e45e	0.12587115
112	0x3e0208dc	0.12698692
113	0x3d964222	0.073368326
114	0xbd691719	-0.056906793
115	0x3c6f7793	0.014615911
116	0x3dc1b999	0.09459228
117	0x3da43718	0.08018321
118	0x3dfabf52	0.12243523
119	0xbdc422c4	-0.095769435
120	0xbd276013	-0.040863108
121	0xbd4c86c6	-0.049933217
122	0xbc54d6d9	-0.012990677
123	0xbcd4e052	-0.02598587
124	0x3dde383d	0.1085057
125	0x3de517a5	0.111861505
126	0xbd752fc7	-0.059860017
127	0xbd1dd8b7	-0.038536754
128	0x3d3296fc	0.04360102
129	0xbd9e3a31	-0.07725943
130	0xbcf357af	-0.029704897
131	0xbd94f100	-0.072725296
132	0x3da4f34c	0.08054218
133	0x3d0a469b	0.03375874
134	0x3d2b0b96	0.041759096
135	0xbdd338ce	-0.10313569
136	0xbcff9c82	-0.031202558
137	0x3d4ceb0a	0.05002884
138	0xbddd4171	-0.108034976
139	0x3db6e065	0.089295186
140	0xbdaa1549	-0.08304841
141	0xbc524528	-0.012833871
142	0x3e0115d7	0.12605987
143	0xbc883550	-0.016626984
144	0xbd043936	-0.032281123
145	0x3c6d0548	0.014466591
146	0x3d7ed363	0.062213313
147	0x3d3ebc36	0.04656621
148	0x3db21141	0.08694697
149	0xbd9d2e6c	-0.0767487
150	0x3d8a5f38	0.06756443
151	0x3d3085ce	0.043096356
152	0xbd8da748	-0.06916672
153	0x3da1a55b	0.07892867
154	0xbd99e0a3	-0.07513549
155	0xbb812ddd	-0.003942235
156	0xbd67562a	-0.056478657
157	0xbcdfd1af	-0.027321665
158	0x3d646b53	0.055766415
159	0x3ccb7a03	0.024838453
160	0x3b11e346	0.002226071
161	0xbd7067b1	-0.058692638
162	0xbdfd7b21	-0.123770006
163	0xbdecd83f	-0.11564683
164	0x3dbd9693	0.092572354
165	0xbdf29e59	-0.11846609
166	0x3d61bf19	0.055113886
167	0x3dafdee7	0.08587437
168	0x3de028a2	0.1094525
169	0x3d81a69c	0.06330606
170	0x3e0587ce	0.13040087
171	0xbd1d8f32	-0.03846664
172	0xbde25618	-0.11051577
173	0xbd9f8444	-0.077888995
174	0x3b945996	0.004527281
175	0xbb6803de	-0.0035402696
176	0xbddc8750	-0.10767996
177	0xbdb5069f	-0.088391535
178	0x3da405ba	0.08008905
179	0x3cd12967	0.025532437
180	0x3d722433	0.059116554
181	0x3d26d37b	0.040729027
182	0x3dc60501	0.09668923
183	0xbdeed7fb	-0.11662289
184	0x3d97ed61	0.07418323
185	0xbd97aed0	-0.0740639
186	0xbc8f7db8	-0.017516002
187	0x3c4eb52c	0.012616437
188	0x3d7d092a	0.061776318
189	0x3d48a8f2	0.048989244
190	0xbda35149	-0.07974488
191	0x3b7537da	0.0037417323
192	0x3ded4d2b	0.11586984
193	0xbd07d181	-0.033158783
194	0x3de14671	0.10999764
195	0xbdcdad96	-0.100428745
196	0x3d37efb7	0.044906344
197	0x3dc145f2	0.09437169
198	0xbd1d3807	-0.03838351
199	0xbd5e0875	-0.054207284
200	0x3d9da497	0.07697409
201	0x3d20f579	0.0392966
202	0x3c87d563	0.016581243
203	0x3dabba68	0.083851635
204	0x3d8cd8b0	0.06877267
205	0xbdca7fb4	-0.09887639
206	0xbdd565b4	-0.10419789
207	0x3e053763	0.1300941
208	0xbc9723d3	-0.0184497
209	0xbdecc7bf	-0.11561536
210	0xbc6c9c0b	-0.0144415
211	0xbdc5b18d	-0.09653006
212	0x3d8f9f39	0.07012791
213	0x3c6552cb	0.01399679
214	0xbda5969c	-0.08085367
215	0xbc9dffdc	-0.019287042
216	0xbdfeea67	-0.124470524
217	0x3d0a19f2	0.03371615
218	0x3d96852b	0.073496185
219	0xbcf71d64	-0.030165382
220	0x3d839317	0.064245395
221	0x3e08203e	0.1329355
222	0x3de360fb	0.11102482
223	0x3dcfbccc	0.10143432
224	0xbbbd87dc	-0.005784018
225	0x3d0610bc	0.032730803
226	0x3d83e88a	0.06440838
227	0xbd07a71e	-0.03311836
228	0x3db2f3a8	0.0873788
229	0x3dc1edaa	0.09469159
230	0x3deb4dac	0.11489424
231	0x3df04a4c	0.11732921
232	0x3d5dff7f	0.05419874
233	0x3c81f4ca	0.015863795
234	0xbda1114e	-0.07864629
235	0xbd2a720e	-0.041612677
236	0x3cb8fb5e	0.022580799
237	0x3cb762df	0.022386013
238	0xbbf2c690	-0.0074089244
239	0xbce1cfde	-0.02756494
240	0xbd081c33	-0.033230018
241	0xbc3b2e08	-0.011424549
242	0x3d06dc92	0.032925196
243	0xbbc87699	-0.0061176536
244	0xbd3c3d0c	-0.045956656
245	0x3e031e02	0.12804416
246	0x3d774645	0.06036975
247	0x3d85e6e9	0.06538183
248	0xbe0560fc	-0.13025278
249	0xbc24c22e	-0.010056062
250	0xbcd26eaf	-0.025687544
251	0xbd6792ba	-0.056536414
252	0x3d2c525f	0.042070743
253	0xb9a2b572	-0.00031034235
254	0xbdc89494	-0.09793964
255	0xbbe0ea2a	-0.006863852

network.4.weight f4 [64, 512]
0	0x3cbb049f	0.022829352
1	0xbd2c5bf5	-0.042079885
2	0x3ce11ff4	0.027481057
3	0xbc9685b7	-0.018374307
4	0xbd3ad3f0	-0.045612276
5	0xbc872d92	-0.016501222
6	0xbcdb4b84	-0.026769407
7	0x3c8969e2	0.016774122
8	0x3bfdb5d9	0.007742625
9	0x3c887395	0.016656676
10	0x3d3195e7	0.04335585
11	0x3bcbe8e7	0.0062228325
12	0xbd022efc	-0.03178309
13	0xbbff9d50	-0.0078007355
14	0xbc7f735d	-0.01559147
15	0xbc6a8f15	-0.01431634
16	0xbb7828fa	-0.003786622
17	0xbd04ec81	-0.03245211
18	0x3d3adab6	0.045618735
19	0xbd0ad343	-0.03389288
20	0x3c0c246a	0.008553604
21	0x3c7c05d6	0.015382251
22	0xbbfc2a74	-0.0076954905
23	0x3d0b6039	0.034027312
24	0x3cacffab	0.021118006
25	0xbcdc0601	-0.026858332
26	0x3b9abbee	0.00472211
27	0xbcf257b1	-0.02958283
28	0xbcd70b9e	-0.026250657
29	0x3cb4156e	0.021982875
30	0x3c69947b	0.014256592
31	0xbc373ce3	-0.01118395
32	0x3c3786db	0.011201586
33	0xba494e73	-0.00076792313
34	0xbb8fffad	-0.0043944926
35	0xbd021b60	-0.031764388
36	0xbc8b86ce	-0.017032053
37	0x3cd039d0	0.025418192
38	0xbc6508ad	-0.013979119
39	0xbaa4df6f	-0.0012578795
40	0x3c9694ac	0.01838144
41	0x3aa401dd	0.0012512762
42	0x3c01028f	0.007874145
43	0x3cf207ff	0.029544828
44	0xbc1a6d20	-0.0094254315
45	0x3cacfe2b	0.02111729
46	0x3cd96d50	0.026541382
47	0xbd090108	-0.03344825
48	0x3c8104e5	0.015749404
49	0xbcae9e09	-0.021315591
50	0x3ce5aa81	0.028035404
51	0x3d39e8da	0.04538808
52	0xbc8d4616	-0.017245334
53	0xbd0bbb8b	-0.0341144
54	0xbd2e1ae3	-0.04250611
55	0xbca9e6f3	-0.020740008
56	0x3a8b809c	0.0010643187
57	0xbd292d2c	-0.041302845
58	0xbb677c0a	-0.0035321736
59	0xbc8bd0a7	-0.017067267
60	0xbc3b68f2	-0.011438595
61	0x3d4dba09	0.050226245
62	0xbc8bb5ce	-0.017054465
63	0xbd111e5c	-0.035429344
64	0x3c0692c4	0.008213703
65	0xbc8a80b3	-0.016907072
66	0xbce0d050	-0.027443081
67	0xbcf93b7a	-0.030423868
68	0xbd23b0c0	-0.039963484
69	0x3d193f6e	0.037414007
70	0x3c79f8cb	0.015257071
71	0xbcb7ae2e	-0.022421923
72	0x3c9484e6	0.018129777
73	0xbcd818fa	-0.026379097
74	0xbce032cc	-0.027367972
75	0x3c441219	0.011967205
76	0xbc818074	-0.015808322
77	0x3c3941d1	0.011307196
78	0x3b92fd93	0.004485795
79	0xbc5455bd	-0.012959895
80	0xbc95f694	-0.018306054
81	0xbd2ea3d7	-0.04263672
82	0x3a857592	0.0010182133
83	0x3d3a5058	0.045486778
84	0x3c3de768	0.011590816
85	0x3d0d18dd	0.03444754
86	0x3d2c22eb	0.042025488
87	0x3cc54dd8	0.02408497
88	0xbba96932	-0.005170011
89	0xbb59c6fa	-0.0033230172
90	0xbd2af298	-0.04173526
91	0x3d0b1fb1	0.03396577
92	0x3bb357b3	0.005473101
93	0xbc0c7e82	-0.008575084
94	0xbca5f922	-0.020260397
95	0x3d10f48c	0.035389468
96	0x3ba8aa81	0.005147279
97	0x3c664ebe	0.01405686
98	0xbccfe45f	-0.02537745
99	0x3cebd35e	0.028787311
100	0x3c0e84fb	0.008698697
101	0xbcb34589	-0.021883743
102	0x3d0a5c2e	0.033779316
103	0x3cff9f40	0.031203866
104	0xbc8847dc	-0.016635828
105	0xbd2fbc3c	-0.042904124
106	0xbd1b6a0e	-0.03794294
107	0x3bdd4ba2	0.006753401
108	0xbcf0b090	-0.029381067
109	0x3cbef2b3	0.023309087
110	0xbbc1602a	-0.005901356
111	0xbbb4e180	-0.0055200458
112	0x3d411078	0.047134846
113	0x3d05b081	0.03263903
114	0xbc5e0607	-0.013551242
115	0xbc7c31a9	-0.015392699
116	0x3bea11c1	0.0071432297
117	0x3c1e15da	0.0096487645
118	0xbd096af2	-0.033549257
119	0xbc963d90	-0.018339902
120	0x3c69d960	0.014273018
121	0xbca904ff	-0.020632265
122	0x3ce54c3c	0.027990453
123	0x3c129989	0.008947738
124	0xbd388de7	-0.045057204
125	0xbc0a6c45	-0.008448665
126	0xbce785e0	-0.028262079
127	0xbd1c340c	-0.038135573
128	0x3cc6a4bc	0.024248473
129	0x3b8401cc	0.0040285345
130	0xbb828a27	-0.003983754
131	0x3c3b0f43	0.011417213
132	0xbcf424fc	-0.029802792
133	0xbd07cb53	-0.03315289
134	0xbcf0a951	-0.029377611
135	0x3ce760df	0.028244434
136	0x3c85d33d	0.016336078
137	0x3b873882	0.0041266093
138	0xbcb11733	-0.021617508
139	0xbc0d25a1	-0.008614928
140	0x3bbf1382	0.005831183
141	0xbcebc1c7	-0.028778924
142	0xbd11e2c1	-0.03561664
143	0xbceeae1e	-0.02913576
144	0xba5cccab	-0.0008422832
145	0x3c0f63c9	0.008751818
146	0xbcac536d	-0.021035874
147	0x3c0425d5	0.0080656605
148	0xbbeecc4d	-0.007287538
149	0x3d350f2f	0.044203933
150	0x38a9c2bc	8.09482e-05
151	0x3d254a39	0.040353987
152	0xbcccb0da	-0.024986673
153	0xbc24dd96	-0.010062596
154	0xbd46a8e3	-0.048500907
155	0xbc933247	-0.01796831
156	0x3cc36ce3	0.023855632
157	0xbc883072	-0.016624663
158	0xbb703381	-0.0036651792
159	0x3d3b2ba8	0.04569593
160	0xbb0c1a02	-0.0021377807
161	0x3d3bd588	0.045857936
162	0xbcadfd74	-0.02123902
163	0x3cbcfb51	0.023069056
164	0x3d132650	0.03592521
165	0xbb73d6af	-0.0037206819
166	0x3d211cfe	0.03933429
167	0x3d142b54	0.036174133
168	0x3cdacc9d	0.026708895
169	0x3c6d2919	0.0144751305
170	0x3ca735e3	0.020411437
171	0x3cd67fac	0.026183926
172	0xbcb696da	-0.022288729
173	0x3c804c61	0.01566142
174	0xbd3a2cc5	-0.04545285
175	0x3c2c690a	0.01052309
176	0x3cc4a82f	0.024005977
177	0xbbcefcee	-0.0063167727
178	0xbbf47780	-0.0074605346
179	0x3d149c83	0.036282074
180	0x3cb861fa	0.022507656
181	0xbbc432c6	-0.005987498
182	0x3bea1428	0.007143516
183	0x3d054e2c	0.032545254
184	0xbc64f331	-0.013973997
185	0x3d039f3e	0.032134287
186	0xbd1809ff	-0.037118908
187	0x3ce51c74	0.02796767
188	0x3d0198b1	0.03163976
189	0xbd2d5d82	-0.042325504
190	0x3cd2714a	0.025688786
191	0x3bc2457d	0.005928694
192	0x3d256a15	0.04038437
193	0x3ce658ae	0.028118458
194	0xbc60fcac	-0.013732117
195	0xbd0afa69	-0.033930216
196	0x3c5134c7	0.012768931
197	0x3c720fe9	0.014774301
198	0xbd19393c	-0.0374081
199	0x3ccd5fca	0.02507009
200	0x3ce05199	0.027382659
201	0xbd281759	-0.04103789
202	0xbc84bf95	-0.016204635
203	0x3cd232ec	0.025659047
204	0x3ccbb1db	0.024865082
205	0x3b10b0b2	0.0022077975
206	0xbd19e5c5	-0.03757264
207	0x3c1e294f	0.009653403
208	0x3bd2183a	0.0064115794
209	0xbd1fda67	-0.039026644
210	0x3cbb0198	0.022827908
211	0x3c19ea95	0.009394308
212	0xba8f6919	-0.0010941356
213	0xbca1bf3b	-0.019744506
214	0xbc038669	-0.008027651
215	0xbd178cf9	-0.036999676
216	0x3bba4285	0.0056841993
217	0xbc935b9f	-0.017988024
218	0xbcf3d92a	-0.029766638
219	0xbcfe7f9c	-0.031066708
220	0xbc493733	-0.012281227
221	0x3d49f89c	0.049309358
222	0xbc6ed6bd	-0.014577565
223	0x3d117ce9	0.035519514
224	0x3d148068	0.03625527
225	0x3cdcf757	0.02697341
226	0xbc0178af	-0.007902308
227	0xbc6850e2	-0.01417944
228	0xbc78e3e3	-0.015191051
229	0xbcf5bad2	-0.02999631
230	0xbbbfe357	-0.0058559584
231	0x3b87c7c9	0.0041436893
232	0x3bb98a7f	0.005662262
233	0x3c739527	0.014867104
234	0xbb5f242c	-0.003404866
235	0xbd010ebb	-0.03150819
236	0x3d2819d9	0.041040275
237	0xbd0e2993	-0.034707617
238	0xbc406de0	-0.011744946
239	0xbc11d5ae	-0.008901043
240	0xbbd94181	-0.006630123
241	0x3c677d23	0.014128956
242	0x3c0eac00	0.008708
243	0x3d11f484	0.03563358
244	0xbd19b88f	-0.037529524
245	0xbc3e9cce	-0.011634065
246	0xbc1cd970	-0.0095733255
247	0x3cb4720c	0.022027038
248	0xbc95535e	-0.01822823
249	0xbcebd891	-0.02878979
250	0xbcefc61a	-0.029269267
251	0xbb2b3f24	-0.0026130164
252	0x3d1d31de	0.038377635
253	0xbc36c968	-0.011156417
254	0xbcfa7f74	-0.030578353
255	0x3c6b88fa	0.0143759195

network.4.bias f4 [64]
0	0x3900190a	0.00012216359
1	0xbad7fdd7	-0.0016478848
2	0xbcc8fdfb	-0.02453517
3	0xbc1c7bc1	-0.00955099
4	0xbb9147cf	-0.004433609
5	0x39abbe55	0.0003275747
6	0xbcfb2812	-0.030658755
7	0xba672f4d	-0.0008818999
8	0xbcc6533e	-0.024209615
9	0x3a0c3e71	0.00053498807
10	0x3d063ebf	0.032774683
11	0xbd129906	-0.035790466
12	0xbb669730	-0.003518533
13	0xbb00ae97	-0.0019635314
14	0xbb7bb253	-0.003840585
15	0xbd2b7865	-0.041862864
16	0x3cc4e49c	0.02403479
17	0xbcf3784a	-0.029720444
18	0xbb82d27d	-0.0039923773
19	0xbcb69505	-0.022287855
20	0x3c48d6fb	0.012258287
21	0xbc84d33c	-0.016214006
22	0xbccb67aa	-0.024829704
23	0x3d174ee6	0.036940478
24	0xbb171517	-0.0023053342
25	0xbcbe80c7	-0.023254765
26	0xbcd1193e	-0.025524732
27	0x3ca4470a	0.020053405
28	0xbc6a3ecf	-0.014297201
29	0xbc6c2590	-0.0144132525
30	0xbc430e13	-0.011905211
31	0xbc18dffc	-0.009330746
32	0x3ca7b017	0.020469708
33	0x3ce96cdc	0.028494291
34	0x3be2694b	0.0069095246
35	0xbc5ce31c	-0.0134818815
36	0xbba8dd60	-0.005153343
37	0xbba8f370	-0.005155973
38	0xbd4a073f	-0.049323317
39	0x3c807b52	0.015683804
40	0xbcd01fde	-0.02540582
41	0x3c7b5b9b	0.015341665
42	0xbc4e0d2f	-0.012576385
43	0xbb5b2431	-0.003343832
44	0x3ce6df9e	0.0281828
45	0x3d3417e3	0.043968093
46	0xbccaf8fc	-0.024776928
47	0xbd47f3d5	-0.04881652
48	0xba8ea093	-0.0010881595
49	0x3d43d0d9	0.047806595
50	0x3c3162b0	0.010826752
51	0x3c3914f6	0.011296501
52	0xbce894b1	-0.028391214
53	0x3d0582c7	0.032595422
54	0x3d22d22c	0.039751217
55	0x3d3ec5ae	0.04657524
56	0xbce0db13	-0.027448213
57	0xbd1f6332	-0.03891296
58	0x3bc5345e	0.0060182055
59	0xbcdb7371	-0.026788445
60	0xbb1e00cd	-0.0024109364
61	0xbcf313a3	-0.02967245
62	0x39c03b82	0.0003666543
63	0x3d0459ff	0.03231239
