NeRF_CLIP/saved_models/color_mapper_epoch_35000.pth (torch, 397783 bytes, 6 tensors)

network.0.weight f4 [64, 512]
-0.053992793 0.004871412 -0.0403732 0.016460126 -0.05506447 -0.035879258 4.4698438e-05 -0.027637407
-0.053752743 -0.00034811808 -0.04808389 -0.04675247 -0.012154487 -0.00819501 0.037104413 0.034511007
0.041977283 0.0039970316 -0.015698325 0.013735739 -0.06222452 0.015992498 0.016766692 -0.038517937
0.022528015 0.036051635 0.040522598 0.0050182645 0.003169604 0.06776412 -0.02575437 -0.00016896115
-0.013754782 -0.0037279436 -0.04149282 -0.051893957 -0.0049036816 0.0077575864 -0.039778136 -0.04216716
0.030056152 -0.009631661 -0.009521981 -0.027356349 -0.022060396 0.017186925 0.017948857 0.038935658
0.00982421 0.00015357751 0.037214532 -0.024409803 0.035937767 -0.016042955 0.018248785 -0.021565136
0.021645688 0.01574576 -0.014701233 -0.0013714529 0.015445967 0.02957076 -4.858597e-05 -0.021860179
-0.0048670243 0.023172067 -0.027996602 -0.0070945453 0.014378297 0.014756185 -0.022615008 0.020346323
-0.013893404 -0.008939397 -0.004227933 0.0028461353 0.03231133 -0.00089203415 -0.030087022 -0.010050104
0.00829173 -0.05735688 -0.00037483298 0.025993884 0.03473047 -0.03417315 0.011083626 -0.04732048
-0.06054516 -0.03486084 -0.02968296 -0.017609797 0.03534173 -0.025092328 0.02376157 -0.039664008
-0.008088696 -0.036342245 0.012062063 -0.017844945 -0.008113665 0.015965624 0.008047583 0.040161546
0.017600305 0.027114732 -0.016113976 -0.022838004 -0.019042904 -0.00015105822 -0.012757167 -0.04869748
-0.02458964 -0.0074009392 0.011410548 0.0191284 -0.015385358 -0.045189857 0.009096655 0.03886566
-0.012240892 0.025054604 -0.00068633753 0.011807442 0.017640378 -0.020822944 0.018803544 0.007781045
0.04912728 -0.012820238 -0.0090825325 0.035935737 0.00072175637 -0.016867502 0.028338665 -0.010299743
-0.023852786 0.029496277 -0.018283835 0.038979765 0.039104298 0.01444726 0.018522514 -0.027646566
0.042403527 0.018596698 -0.002904511 -0.026341852 0.03616554 -0.0014205027 -0.058971114 0.033008225
-0.013040961 0.009335172 0.026967976 -0.029775498 0.000996457 0.02833725 0.002475645 -0.010195858
-0.029604074 -0.011331468 0.017030602 0.0006367958 0.03881598 0.02029779 -0.008154634 -0.03913249
0.010928311 -0.041976023 0.057363108 0.02435732 -0.03054098 0.061380055 0.031288255 0.02250874
0.0048121973 -0.0031223532 -0.0057847165 -0.022231206 -0.04894552 -0.019042322 0.02493924 -0.04620033
-0.011721419 0.02353464 0.0010479508 0.019290347 0.028944489 -0.037825547 -0.01144405 0.034557328
-0.027027985 0.025191616 -0.020494737 0.032946337 0.025216276 -0.024410635 0.018774537 -0.014255994
-0.034147304 0.046785206 -0.00599669 -0.03878398 0.005046547 0.027112015 0.017858181 0.028061915
0.002209929 -0.024457555 -0.008924715 -0.019905975 -0.030347914 -0.011728822 -0.025490241 -0.023406979
-0.06327213 0.027738387 -0.004643805 -0.028894722 0.031028308 -0.014097425 -0.04041397 0.039843876
0.041463487 -0.03611877 -0.05571887 -0.005102074 0.04290556 -0.0027375638 0.026725102 0.015098953
0.009679615 0.026450148 -0.0032778908 0.018982427 0.038422033 0.020745154 0.005014101 0.037868574
0.0009607987 0.023036737 0.012100402 0.0061036604 -0.01955001 -0.011605237 -0.0065566814 0.018884312
0.025592696 -0.0037130062 0.026694741 -0.0137856705 -0.028112266 -0.0013732564 0.03999296 0.06070899
00000000: 8c27 5dbd 5ea0 9f3b 5e5e 25bd 63d7 863c
00000010: 488b 61bd 21f6 12bd 957a 3b38 d867 e2bc
00000020: d62b 5cbd 9e83 b6b9 9df3 44bd 857f 3fbd
00000030: 9d23 47bc 5d44 06bc ccfa 173d 6a5b 0d3d
00000040: 5ff0 2b3d 88f9 823b c699 80bc dd0b 613c
00000050: 23df 7ebd b302 833c 4d5a 893c fcc4 1dbd
00000060: ac8c b83c e1aa 133d 06fb 253d 4170 a43b
00000070: 22b9 4f3b eac7 8a3d d4fa d2bc 2a2b 31b9
00000080: bd5b 61bc 8450 74bb 60f4 29bd c28e 54bd
00000090: 10af a0bb 5a33 fe3b 66ee 22bd 79b7 2cbd
000000a0: 5238 f63c 1dce 1dbc 1502 1cbc 6c1a e0bc
000000b0: 01b8 b4bc 98cb 8c3c 7b09 933c ff7a 1f3d
000000c0: b9f5 203c a609 2139 446e 183d 11f7 c7bc
000000d0: 7b33 133d 846c 83bc 7a7e 953c 5ea9 b0bc
000000e0: 4c52 b13c 41fd 803c 71dd 70bc 53c2 b3ba
000000f0: 1511 7d3c 613e f23c cac8 4bb8 1e14 b3bc
00000100: 8f7b 9fbb 59d3 bd3c 2159 e5bc 5c79 e8bb
00000110: f392 6b3c edc3 713c 1c43 b9bc 55ad a63c
00000120: 29a1 63bc 8c76 12bc 798a 8abb 3a86 3a3b
00000130: e358 043d 66d7 69ba 0f79 f6bc 31a9 24bc
00000140: 09da 073c 0cef 6abd 3b85 c4b9 20f1 d43c
00000150: 8a41 0e3d 25f9 0bbd 1998 353c 1fd3 41bd
00000160: 34fe 77bd 3dca 0ebd ae29 f3bc 6c42 90bc
00000170: 7dc2 103d 6d8e cdbc a0a7 c23c ba76 22bd
00000180: 7386 04bc 9bdb 14bd f69f 453c 902f 92bc
00000190: 2def 04bc 57ca 823c 02da 033c 6f80 243d
000001a0: 842e 903c b71f de3c 7501 84bc c416 bbbc
000001b0: ddff 9bbc 6265 1eb9 7003 51bc 0277 47bd
000001c0: 3670 c9bc 9483 f2bb 4ff3 3a3c 2ab3 9c3c
000001d0: de12 7cbc 0019 39bd 230a 153c 9931 1f3d
000001e0: 068e 48bc 503f cd3c 55eb 33ba 0074 413c
000001f0: 8e82 903c e194 aabc e409 9a3c 23f8 fe3b
00000200: b039 493d fa0b 52bc e7ce 14bc 5a31 133d
00000210: 4034 3d3a b72d 8abc 7d26 e83c 41c0 28bc
00000220: eb66 c3bc 2da2 f13c fbc7 95bc 3fa9 1f3d
00000230: d42b 203d 33b4 6c3c 87bc 973c 0d7b e2bc
00000240: 52af 2d3d 1a58 983c 9c59 3ebb deca d7bc
00000250: 5122 143d 2930 baba b28b 71bd a233 073d
00000260: c1a9 55bc 8df2 183c f2eb dc3c bfeb f3bc
00000270: 8c9b 823a 8523 e83c 6e3e 223b 870c 27bc
00000280: 3e84 f2bc 9fa7 39bc c383 8b3c a5ee 263a
00000290: 81fd 1e3d 8d47 a63c 049b 05bc 6449 20bd
000002a0: a90c 333c 0def 2bbd 94f5 6a3d 0189 c73c
000002b0: 1431 fabc a769 7b3d 1d28 003d 4064 b83c
000002c0: a3af 9d3b 65a0 4cbb b88d bdbb 381e b6bc
000002d0: 197b 48bd a5fe 9bbc 614d cc3c 8f3c 3dbd
000002e0: 320b 40bc b8cb c03c 655b 893a ca06 9e3c
000002f0: fe1c ed3c f6ee 1abd d37f 3bbc fc8b 0d3d
00000300: cb69 ddbc a65e ce3c 94e4 a7bc bdf2 063d
00000310: 5d92 ce3c d0f8 c7bc 0fcd 993c f991 69bc
00000320: 0bde 0bbd d8a1 3f3d e27f c4bb f3db 1ebd
00000330: 815d a53b 041a de3c 524b 923c 1ae2 e53c
00000340: 75d4 103b 365b c8bc f838 12bc db11 a3bc
00000350: 309c f8bc 3f2a 40bc e9d0 d0bc febf bfbc
00000360: d294 81bd 9d3b e33c 0f2b 98bb a0b4 ecbc
00000370: 142f fe3c e3f8 66bc 1e89 25bd 5533 233d
00000380: 9ed5 293d 46f1 13bd 7839 64bd 4c2f a7bb
00000390: bebd 2f3d b368 33bb 9aee da3c 9961 773c
000003a0: 3f97 1e3c fbad d83c e2d1 56bb 0981 9b3c
000003b0: 6c60 1d3d bef1 a93c 544d a43b 141c 1b3d
000003c0: 1cde 7b3a 8ab7 bc3c c440 463c 3701 c83b
000003d0: 5827 a0bc e423 3ebc 6ed9 d6bb 46b3 9a3c
000003e0: c6a7 d13c e855 73bb eeae da3c 4bdd 61bc
000003f0: b24b e6bc d7fe b3ba a8cf 233d fda9 783d

network.0.bias f4 [64]
-0.008234514 0.09005061 0.021958342 0.029405905 0.026062809 -0.031269353 -0.045347754 -0.053464897
-0.03879287 -0.03070168 0.061160404 -0.0155719025 -0.01061147 -0.00963081 -0.040049877 -0.019745708
-0.021294018 -0.028281821 -0.045529887 0.0009657579 0.018340303 -0.032384627 0.02519703 -0.03549715
0.015075949 0.035693824 -0.012603796 0.036615625 -0.01671672 0.11860073 -0.019895194 0.022705818
-0.0069934535 0.08645458 0.013040655 0.01794927 -0.0033950666 -0.0062281596 0.006855628 0.072458796
-0.008575769 0.0276877 0.09389426 0.038235165 -0.03861033 -0.030760502 0.13503915 0.025678616
-0.0379829 -0.003442174 -0.053475585 0.021496395 -0.019598993 -0.028408606 0.055194665 -0.0056206007
0.01815628 -0.035525497 -0.01934761 0.023806602 -0.013657568 0.03147968 0.0053992746 -0.047044605
00000000: 0eea 06bc 746c b83d fbe1 b33c a7e4 f03c
00000010: ac81 d53c 4b14 00bd 91be 39bd 02fe 5abd
00000020: 46e5 1ebd 1782 fbbc 5583 7a3d 4b21 7fbc
00000030: bbdb 2dbc 8bca 1dbc 570b 24bd c0c1 a1bc
00000040: cb70 aebc 47af e7bc 8c7d 3abd ea2a 7d3a
00000050: 673e 963c bea5 04bd 006a ce3c 7665 11bd
00000060: 1d01 773c b033 123d 2780 4ebc 44fa 153d
00000070: 81f1 88bc f1e4 f23d 3ffb a2bc 8d01 ba3c
00000080: 5729 e5bb 190f b13d 79a8 553c 590a 933c
00000090: c47f 5ebb 9715 ccbb 2da5 e03b 4765 943d
000000a0: 6281 0cbc 51d1 e23c a24b c03d 7a9c 1c3d
000000b0: de25 1ebd 73fd fbbc b447 0a3e f65b d23c
000000c0: f593 1bbd 1996 61bb 3709 5bbd 3519 b03c
000000d0: 118e a0bc 2ab9 e8bc cd13 623d 042d b8bb
000000e0: 7bbc 943c 2f83 11bd e17e 9ebc 1006 c33c
000000f0: fec3 5fbc d6f0 003d 66ec b03b d8b1 40bd

network.2.weight f4 [512, 64]
0.05003293 0.028196061 -0.048934873 -0.09264227 -0.015056706 -0.03436953 0.0142489495 0.059306994
0.061003402 0.0033320447 -0.029080719 -0.06297341 0.10319703 0.08730537 -0.006222728 -0.001710303
-0.02080077 -0.050865553 0.022222668 -0.019144623 0.08463743 -0.0932068 0.018983299 -0.04270312
0.030479688 0.07124858 -0.014011409 0.022224328 0.12786669 0.008811238 -0.016105415 0.052973166
-0.015747214 -0.030511644 -0.023241531 -0.03568151 0.030433185 0.00062011473 -0.027891459 -0.025328573
-0.017253948 -0.05642972 -0.04469517 -0.0334291 0.009320917 0.008897559 -0.022829453 -0.0007449285
0.06428608 0.08220377 0.038961284 -0.010604579 0.028730366 0.01948468 0.07173929 -0.025684498
-0.049386527 0.04653988 -0.07389632 0.11613963 -0.008470553 -0.10134776 0.042851135 0.026293268
0.046120174 -0.07222095 -0.09575051 0.10829598 -0.062160674 -0.01203656 -0.111957125 -0.042125616
0.11665437 -0.015276814 -0.07895472 0.019358069 -0.05830054 0.049064126 -0.07172487 0.04039949
0.072135806 0.05257107 -0.04898642 -0.048454426 0.03984462 -0.057287164 0.051125385 -0.08170132
-0.07398194 0.027314717 -0.042200536 -0.019777574 0.012482093 0.109407134 -0.009762985 -0.012802163
0.14853308 0.00036457938 -0.049824223 0.09915287 -0.084535375 0.03233686 -0.08634437 -0.06582305
0.12503874 0.11186332 0.063423954 -0.034730032 -0.0075327745 0.11376401 0.058350403 -0.07449782
-0.054543238 -0.07389711 -0.036670078 -0.0155883115 0.06371153 -0.034981955 -0.092747696 -0.04940824
-0.06465946 -0.020873992 0.021364413 0.02577271 -0.035811655 -0.0020598958 0.09641545 0.029130396
0.061077636 -0.08544885 -0.12170586 0.064474314 0.0067697987 0.010345969 0.05835777 0.08310227
-0.07694314 0.07734168 -0.051196814 0.08258432 0.00010004063 0.0074711284 0.05651656 -0.021816064
-0.03374491 -0.035330053 0.014286172 0.09370012 0.027930418 0.058876693 0.03416046 0.0472766
0.007936861 -0.073589996 0.009087874 -0.01737836 -0.07079578 0.13576454 -0.017454783 -0.11139097
-0.04574693 -0.030891702 -0.013352426 -0.03223679 0.036038868 0.0429883 0.043619618 0.11414951
0.0038728453 -0.03827395 0.008464704 0.04216391 0.022531418 0.032267503 -0.077452354 0.017034864
0.025568835 -0.00075132964 -0.07381196 -0.13392581 -0.07581802 -0.10036089 -0.08089417 -0.005961756
0.021147864 0.034133017 0.06711184 0.024141489 0.024717942 0.12830003 -0.051834684 -0.10660139
0.043165162 -0.019875154 -0.028835293 0.005638303 -0.007703243 0.030925475 -0.008877386 0.06495301
-0.023842435 -0.007267271 -0.0886387 0.042494252 0.019455912 -0.044390924 -0.027788106 0.028156163
0.10950098 -0.0010939752 -0.0679778 0.016153062 -0.04208013 0.0874353 0.08986475 -0.053774957
0.11081867 -0.10071996 0.08469919 -0.006457159 -0.01749614 0.12507913 0.13855283 -0.069394685
-0.08193135 -0.09888168 -0.008916163 0.0085452525 0.022400862 -0.015386336 0.03457363 -0.08729452
0.0015933784 0.016190527 -0.09309427 -0.016525023 0.016176695 0.07923573 0.103933305 -0.041482966
-0.065365605 -0.003473605 -0.009610228 -0.016306678 0.0028698312 -0.009065056 0.09069314 -0.0011398604
-0.038545217 0.035993993 -0.06749768 -0.02920749 -0.017361963 0.022204349 0.06733644 0.009266484
00000000: 54ef 4c3d 6dfb e63c ef6f 48bd 3bbb bdbd
00000010: 67b0 76bc 10c7 0cbd 6d74 693c e4eb 723d
00000020: b4de 793d 6f5e 5a3b b03a eebc 34f8 80bd
00000030: f758 d33d 28cd b23d 07e8 cbbb 3f2c e0ba
00000040: 6066 aabc 6658 50bd 500c b63c 2fd5 9cbc
00000050: 6456 ad3d 35e3 bebd dd82 9b3c 77e9 2ebd
00000060: 8ab0 f93c c7ea 913d 1c90 65bc cb0f b63c
00000070: 7cef 023e 035d 103c 81ef 83bc 64fa 583d
00000080: 4d00 81bc 8ef3 f9bc 0665 bebc c626 12bd
00000090: 044f f93c 328f 223a a17c e4bc de7d cfbc
000000a0: 2758 8dbc da22 67bd 4812 37bd f4ec 08bd
000000b0: c2b6 183c 11c7 113c d504 bbbc 4e47 43ba
000000c0: 6ca8 833d 735a a83d de95 1f3d d4be 2dbc
000000d0: f25b eb3c 569e 9f3c 0dec 923d 4c68 d2bc
000000e0: 8749 4abd 9aa0 3e3d f456 97bd 9dda ed3d
000000f0: 13c8 0abc 6a8f cfbd ac84 2f3d fb64 d73c
00000100: 82e8 3c3d 94e8 93bd d818 c4bd 48ca dd3d
00000110: 319c 7ebd fe34 45bc c749 e5bd e98b 2cbd
00000120: 7de8 ee3d 9a4b 7abc 03b3 a1bd d094 9e3c
00000130: 8ccc 6ebd 77f7 483d 7de4 92bd f079 253d
00000140: f0bb 933d c354 573d fca5 48bd 2678 46bd
00000150: 1d34 233d f2a5 6abd da68 513d 0653 a7bd
00000160: d883 97bd 1dc3 df3c 78da 2cbd 9404 a2bc
00000170: b181 4c3c d910 e03d edf4 1fbc 2ac0 51bc
00000180: 0e19 183e 0425 bf39 7c14 4cbd a910 cb3d
00000190: e220 adbd a873 043d 51d5 b0bd 3cce 86bd
000001a0: 280a 003e 9918 e53d 6be4 813d 1441 0ebd
000001b0: 7ed5 f6bb 1bfd e83d d500 6f3d 5092 98bd
000001c0: bb68 5fbd 5e57 97bd 5d33 16bd 1e66 7fbc
000001d0: 317b 823d 3d49 0fbd 81f2 bdbd 4b60 4abd
000001e0: 2e6c 84bd efff aabc 6c04 af3c 4a21 d33c
000001f0: 3eaf 12bd 51ff 06bb 7775 c53d dea2 ee3c
00000200: 8b2c 7a3d cfff aebd ec40 f9bd 1c0b 843d
00000210: 30d5 dd3b 2482 293c 8f08 6f3d 8631 aa3d
00000220: 5d94 9dbd 5165 9e3d c0b3 51bd f821 a93d
00000230: e7cc d138 5ed0 f43b e97d 673d 9ab7 b2bc
00000240: 1a38 0abd 3fb6 10bd 8c10 6a3c d9e5 bf3d
00000250: 55ce e43c b028 713d d7eb 0b3d 1ca5 413d
00000260: 9c09 023c 5ab6 96bd 4ee5 143c 105d 8ebc
00000270: 61fd 90bd dc05 0b3e 55fd 8ebc f320 e4bd
00000280: 2261 3bbd 9810 fdbc 22c4 5abc b90a 04bd
00000290: 7e9d 133d 8014 303d 7caa 323d 38c7 e93d
000002a0: 90cf 7d3b 25c5 1cbd 8baf 0a3c 10b4 2c3d
000002b0: cf93 b83c ee2a 043d 579f 9ebd b38c 8b3c
000002c0: bc75 d13c e1f4 44ba ba2a 97bd d923 09be
000002d0: 7a46 9bbd 038a cdbd d8ab a5bd d65a c3bb
000002e0: 493e ad3c 10cf 0b3d ef71 893d 5fc4 c53c
000002f0: 487d ca3c 1561 033e 9b50 54bd d451 dabd
00000300: f4cd 303d 38d1 a2bc fe37 ecbc 83c1 b83b
00000310: 7c6b fcbb 6c57 fd3c 7572 11bc 1506 853d
00000320: 3651 c3bc 4a22 eebb 3588 b5bd 740e 2e3d
00000330: 0162 9f3c 42d3 35bd e2a3 e3bc c1a7 e63c
00000340: 0d42 e03d b763 8fba f237 8bbd 6d53 843c
00000350: 375c 2cbd 4711 b33d 030b b83d 2143 5cbd
00000360: e6f4 e23d 4446 cebd c576 ad3d 9396 d3bb
00000370: 1154 8fbc be14 003e cbe0 0d3e cd1e 8ebd
00000380: a0cb a7bd 7a82 cabd 1915 12bc 6301 0c3c
00000390: 0382 b73c f816 7cbc 149d 0d3d 78c7 b2bd
000003a0: e8d8 d03a ffa1 843c 35a8 bebd 7c5f 87bc
000003b0: fd84 843c 5846 a23d fcda d43d 0bea 29bd
000003c0: 67de 85bd 6ca5 63bb 3874 1dbc 9595 85bc
000003d0: c713 3c3b 9a85 14bc 53bd b93d 5e67 95ba
000003e0: 97e1 1dbd 706e 133d 393c 8abd 8c44 efbc
000003f0: ad3a 8ebc e5e5 b53c b0e7 893d 73d2 173c

network.2.bias f4 [512]
-0.006299071 0.17292865 -0.040122334 0.097934805 0.090418085 0.11941394 -0.10816046 -0.030892842
-0.109930515 -0.12303495 0.03242622 -0.052806973 0.047175515 -0.04731069 0.03035615 -0.1287776
0.027300974 -0.25617442 0.031593792 -0.002854441 0.09451675 -0.016040487 0.00013621569 0.09834524
-0.24995518 -0.025136853 -0.0440419 0.08690881 -0.053033803 0.07685785 -0.15730517 -0.19401851
-0.23268448 -0.10730789 -0.14759682 0.018693684 -0.07582075 0.0036439053 0.077409275 -0.015845008
0.19383362 0.10098544 0.22618882 -0.018196037 -0.21339412 -0.04944726 0.16731428 0.079276994
0.20039664 -0.16118126 -0.056571245 -0.12165571 -0.039691266 -0.11923686 -0.10991583 0.13615277
0.009346075 0.02325082 -0.0429448 0.012254008 0.014229138 -0.16695322 -0.04820414 -0.25304613
0.24213621 0.018763594 -0.11399259 -0.022041745 -0.026422076 -0.0026483967 -0.032260865 0.30271718
-0.24177271 0.029299729 -0.18116975 -0.19147526 -0.14586577 -0.05767541 -0.042278387 0.033494532
0.111593656 0.14051741 0.24862598 -8.28171e-05 -0.16626735 -0.08188285 -0.118958026 -0.22451235
0.08162293 -0.10887167 -0.16894418 0.033261895 0.08872445 -0.18690082 0.10596368 0.034143474
-0.06892557 -0.047279686 -0.032254443 0.07385893 0.11256237 -0.055827238 -0.10995815 -0.22421658
0.018719148 -0.04901588 0.23264961 -0.0014706594 0.06382675 0.051438745 0.10616196 -0.060255677
0.007947073 0.07718861 -0.0030374127 0.01669647 -0.06871692 0.061494585 -0.16454524 -0.0072096847
0.023607496 0.07975646 -0.08628329 0.15713449 0.0270571 -0.20866188 -0.16195096 -0.11524123
0.028129112 -0.053254433 0.11948875 -0.1822402 -0.077789724 -0.15187 0.0076392004 -0.10411162
-0.010885748 -0.19739999 -0.022797953 0.16870214 -0.1226253 0.099969216 -0.09134149 -0.140358
-0.07352213 0.0732599 -0.07204348 0.01838824 -0.109909244 0.19920899 -0.08530488 0.060998928
-0.11843849 -0.22879992 0.09703524 0.02287502 -0.24512407 0.18702245 0.2037534 0.01534178
-0.077 0.11797654 -0.18417856 0.0770771 -0.10328134 -0.04678317 0.015482971 0.15007272
-0.022581372 0.10145186 -0.048796713 0.15664053 0.038926076 0.054923218 -0.15908588 0.09137006
-0.13148592 0.11893877 0.11431184 0.09385383 -0.052060973 -0.20520103 -0.12459144 -0.11346482
-0.07346799 0.047977477 0.22056867 0.031631574 -0.09743247 0.055200502 -0.023660077 -0.046339545
0.010832771 0.060579475 -0.1575183 0.008002365 -0.15640187 -0.091691494 0.10066478 -0.06560187
0.16434567 -0.10645481 -0.093967885 -0.12461174 0.21363835 0.027652161 0.07155157 0.10097258
-0.13340564 0.10637271 -0.027121546 -0.107935295 0.032393094 0.24682455 -0.042175025 0.04005233
0.16377132 -0.07356611 -0.034273505 0.09216582 -0.011855333 0.09040675 0.012978276 0.10545845
-0.038428012 0.24660636 0.09413625 -0.089766316 -0.018746618 -0.11460074 -0.027953077 0.10334471
-0.16910365 -0.06854711 0.11674729 0.07646961 0.0061102747 -0.06527266 -0.034023672 0.07130159
-0.16085829 -0.15228347 0.10648486 0.08815356 -0.06616258 -0.2316381 0.25627512 0.006258997
0.045889284 -0.00391979 -0.021191252 0.07480324 -0.13557911 0.16935965 -0.08234792 -0.1427873
00000000: 7068 cebb 3514 313e 5157 24bd 0b92 c83d
00000010: 1e2d b93d 4c8f f43d 3b83 ddbd fc12 fdbc
00000020: 4023 e1bd bff9 fbbd 5bd1 043d 204c 58bd
00000030: 1d3b 413d dbc8 41bd 76ad f83c 46de 03be
00000040: 4ba6 df3c 4b29 83be 7e68 013d 9311 3bbb
00000050: ff91 c13d 5767 83bc 1fd5 0e39 3b69 c93d
00000060: 40f4 7fbe cdeb cdbc 4865 34bd 3ffd b13d
00000070: f939 59bd a667 9d3d 9b14 21be caac 46be
00000080: d744 6ebe 3dc4 dbbd 9f23 17be 7f23 993c
00000090: e947 9bbd 96ce 6e3b c188 9e3d 64cd 81bc
000000a0: 527c 463e 74d1 ce3d 0b9e 673e db0f 95bc
000000b0: fd83 5abe 3689 4abd 6f54 2b3e fa5b a23d
000000c0: c734 4d3e b30c 25be 40b7 67bd a126 f9bd
000000d0: 4f93 22bd 7432 f4bd 8d1b e1bd a26b 0b3e
000000e0: 4820 193c 8178 be3c e3e6 2fbd 09c5 483c
000000f0: 5521 693c c9f5 2abe b471 45bd 438f 81be
00000100: 8ef2 773e 1cb6 993c f274 e9bd e490 b4bc
00000110: 1c73 d8bc b990 2dbb f823 04bd bffd 9a3e
00000120: 4493 77be fc05 f03c 9084 39be 1712 44be
00000130: d65d 15be 0d3d 6cbd 1a2c 2dbd 9031 093d
00000140: 378b e43d cce3 0f3e cf97 7e3e 18ae adb8
00000150: fd41 2abe 32b2 a7bd 44a0 f3bd 91e6 65be
00000160: ec29 a73d 1cf8 debd b4ff 2cbe a03d 083d
00000170: 2ab5 b53d ee62 3fbe 7c03 d93d 07da 0b3d
00000180: d928 8dbd 58a8 41bd 3c1d 04bd 5a43 973d
00000190: 1a87 e63d 1aab 64bd bd31 e1bd 0899 65be
000001a0: e658 993c e0c4 48bd b33b 6e3e 24c3 c0ba
000001b0: 99b7 823d 6fb1 523d 716b d93d a8ce 76bd
000001c0: 7134 023c 1015 9e3d 540f 47bb 09c7 883c
000001d0: 75bb 8cbd bfe1 7b3d 8c7e 28be 383f ecbb
000001e0: 8264 c13c 5b57 a33d 4bb5 b0bd dde7 203e
000001f0: daa6 dd3c 76ab 55be 79d6 25be 9803 ecbd
00000200: 066f e63c 5221 5abd 85b6 f43d 2d9d 3abe
00000210: 3850 9fbd cf83 1bbe 4252 fa3b 7938 d5bd
00000220: 235a 32bc 3923 4abe c6c2 babc 41c0 2c3e
00000230: f922 fbbd a9bc cc3d 3f11 bbbd 02ba 0fbe
00000240: c592 96bd 4909 963d 888b 93bd efa2 963c
00000250: 1918 e1bd 71fd 4b3e 53b4 aebd 03da 793d
00000260: e18f f2bd 874a 6abe 69ba c63d 6564 bb3c
00000270: ce01 7bbe d082 3f3e bba4 503e 175c 7b3c
00000280: 2db2 9dbd af9d f13d 4e99 3cbe 99da 9d3d
00000290: 2b85 d3bd b69f 3fbd 4aac 7d3c aaac 193e
000002a0: 92fc b8bc fec5 cf3d 10df 47bd 6066 203e
000002b0: f370 1f3d 2bf7 603d 69e7 22be 3a20 bb3d
000002c0: 3fa4 06be 2b96 f33d 531c ea3d 7036 c03d
000002d0: e33d 55bd 3820 52be cc29 ffbd 3e60 e8bd
000002e0: 6376 96bd 0884 443d c1dc 613e 1c90 013d
000002f0: ad8a c7bd ec19 623d c7d2 c1bc 89ce 3dbd
00000300: ef7b 313c 2f22 783d 7a4c 21be 5a1c 033c
00000310: d027 20be c0c8 bbbd 5629 ce3d 465a 86bd
00000320: 3b4a 283e fb04 dabd 3c72 c0bd 7134 ffbd
00000330: 03c4 5a3e c986 e23c a189 923d b6ca ce3d
00000340: 7d9b 08be efd9 d93d 012e debc 2e0d ddbd
00000350: 9fae 043d 93bf 7c3e b8bf 2cbd e90d 243d
00000360: abb3 273e d4a9 96bd 6062 0cbd 6fc1 bc3d
00000370: df3c 42bc 2d27 b93d d6a2 543c 9afa d73d
00000380: b166 1dbd 6186 7c3e 82ca c03d 67d7 b7bd
00000390: 8292 99bc cbb3 eabd dafd e4bc 64a6 d33d
000003a0: 8229 2dbe 6d62 8cbd 3419 ef3d 199c 9c3d
000003b0: b338 c83b acad 85bd 685c 0bbd 9106 923d
000003c0: 09b8 24be 33f0 1bbe bc14 da3d db89 b43d
000003d0: 3f80 87bd 8a32 6dbe 7e36 833e 4618 cd3b
000003e0: 67f6 3b3d 9571 80bb 4799 adbc 7132 993d
000003f0: 40d5 0abe 9e6c 2d3e 07a6 a8bd d536 12be

network.4.weight f4 [64, 512]
-0.045412097 0.037695613 0.009409633 0.033505447 0.012813921 -0.009023153 -0.041336507 0.022745864
-0.013583457 -0.0047593773 0.012929052 0.036299057 -0.026327183 0.0010054383 0.0066454215 -0.04444284
0.010462026 -0.0026074608 -0.018303176 0.013637828 0.009229535 0.04016654 -0.008698846 -0.011009634
0.0028763046 0.016819015 -0.008512428 -0.048174478 -0.019820722 0.013202849 -0.018472517 -0.014046296
0.029358264 0.027442375 -0.021142075 0.013377224 -0.026432771 0.02509683 -0.03706824 0.052955646
-0.0452297 0.010557769 0.008100336 -0.039411224 -0.04374447 -0.042076316 -0.034348577 -0.016409477
0.03426889 -0.088214286 0.002074717 -0.0069104526 0.004184484 0.017131472 -0.027139116 0.020790162
-0.0011089628 0.06854206 -0.0046059056 -0.016648045 0.020380752 0.006061349 -0.041661154 0.028585536
0.008846405 0.009698159 0.025543896 0.009604918 0.030594816 0.017091556 -0.029266281 0.016197639
0.019018 -0.06488416 -0.032494653 0.042145673 -0.051725514 -0.02005037 -0.0048853196 -0.014467875
0.011536843 0.017435268 0.0010586373 0.04098139 -0.025192032 0.006693752 -0.014256483 -0.025636757
0.014219858 -0.015178073 0.031705618 -0.0049386104 0.020959081 0.044450417 -0.016734634 -0.005857954
0.008040256 0.00659702 0.02921173 0.0026834009 0.033188183 -0.0351887 -0.04610327 0.023821706
0.02388468 0.043444477 -0.005903475 0.030384135 0.0011440892 -0.04649503 -0.05554328 0.0063564135
0.0027552333 -0.022264687 0.037899356 0.028726077 -0.027063487 -0.022036627 -0.0022172558 -0.020525424
-0.032703787 0.03502278 -0.0071880966 0.0018339988 -0.01353832 -0.035027098 -0.017476423 -0.019257525
-0.017061105 -0.040296905 0.01291045 0.025642572 0.014001008 -0.026460594 0.0023581097 0.00073955447
-0.0153410155 0.008317278 0.057163812 0.0021876502 -0.06893402 -0.021347048 -0.0014111369 0.031085439
-0.026504211 0.02447964 -0.01887751 0.018129094 0.003450414 -0.04075996 -0.041988876 -0.022291591
-0.039074615 -0.043231767 0.02285373 -0.025825342 0.010041631 -0.0012004423 -0.0010986505 0.023918517
0.0005281214 -0.026196139 0.0117818685 0.020081319 -0.020874655 0.029516384 -0.0025812665 0.022967152
0.013906788 -0.008641514 0.015212178 -0.012539042 0.02624336 -0.010188334 -0.0034659093 0.012548769
0.025410946 -0.024464948 -0.041064765 -0.0070926673 -0.051763915 -0.00082712766 -0.02529548 -0.03605168
0.044240586 0.020141792 0.017838778 0.02008698 -0.01979902 0.021529915 0.023174146 0.0146385
-0.0122933 -0.0070782644 -0.018166475 0.029432496 0.008942826 0.0073351264 -0.0697323 0.0292374
-0.033086814 -0.009286942 -0.04621797 -0.022240384 -0.014431887 0.021024607 -0.009332455 0.017593207
-0.025517678 0.019991007 -0.00853831 -0.032533452 0.01897627 -0.011423495 -0.022732357 -0.007016712
0.022748895 0.040665306 0.024135672 -0.047276016 0.06784227 -0.031246532 0.019845549 0.05212889
0.049017906 -0.007203935 0.0031825872 0.02797637 0.018079935 0.0154536795 -0.07290527 0.0064317426
-0.018604869 0.0035831977 0.015092367 -0.048604127 0.027846755 0.032301527 -0.009000041 -0.016585479
0.033530917 0.027443286 -0.012699086 0.060812328 0.025841707 -0.006396483 -0.027973691 0.028320735
0.028214116 -0.027964605 -0.009208943 -0.008741494 0.03507769 -0.015897226 0.006189288 0.030792734
00000000: 0902 3abd b766 1a3d dd2a 1a3c 023d 093d
00000010: 7bf1 513c d9d5 13bc 7850 29bd 8955 ba3c
00000020: 268d 5ebc 8df4 9bbb 60d4 533c 52ae 143d
00000030: 1bac d7bc e9c8 833a d6c1 d93b b209 36bd
00000040: eb68 2b3c efe1 2abb 8bf0 95bc 3271 5f3c
00000050: 7a37 173c ab85 243d 9b85 0ebc c061 34bc
00000060: 6280 3c3b 08c8 893c b677 0bbc 9a52 45bd
00000070: 115f a2bc c350 583c ad53 97bc 6f22 66bc
00000080: be80 f03c d5ce e03c 2532 adbc 252c 5b3c
00000090: 8a89 d8bc de97 cd3c ded4 17bd 05e8 583d
000000a0: c742 39bd 7efa 2c3c 46b7 043c aa6d 21bd
000000b0: 672d 33bd 3758 2cbd 18b1 0cbd 2b6d 86bc
000000c0: 895d 0c3d b1a9 b4bd faf7 073b 1471 e2bb
000000d0: ff1d 893b 4d57 8c3c da52 debc 2150 aa3c
000000e0: 9e5a 91ba c85f 8c3d 23ed 96bb 7b61 88bc
000000f0: 89f5 a63c 489e c63b e3a4 2abd 372c ea3c
00000100: 83f0 103c 07e5 1e3c 6f41 d13c f25d 1d3c
00000110: fba1 fa3c 9703 8c3c d7bf efbc e9b0 843c
00000120: a3cb 9b3c fde1 84bd 1d19 05bd f1a0 2c3d
00000130: 22de 53bd ac40 a4bc 0815 a0bb aa0a 6dbc
00000140: 0705 3d3c 68d4 8e3c f9c1 8a3a 1adc 273d
00000150: 855f cebc 4357 db3b 0694 69bc 2d04 d2bc
00000160: 68fa 683c 74ad 78bc c0dd 013d 11d4 a1bb
00000170: 61b2 ab3c a411 363d 1217 89bc 14f4 bfbb
00000180: 47bb 033c d12b d83b 704d ef3c ffdb 2f3b
00000190: 55f0 073d 0722 10bd c8d6 3cbd bd25 c33c
000001a0: cea9 c33c d6f2 313d f071 c1bb 26e8 f83c
000001b0: 43f5 953a 9371 3ebd 5a81 63bd 7649 d03b
000001c0: 2591 343b 6f64 b6bc 5b3c 1b3d f352 eb3c
000001d0: 3fb4 ddbc 2886 b4bc 614f 11bb ef24 a8bc
000001e0: 68f4 05bd 0c74 0f3d 208a ebbb ca62 f03a
000001f0: d4cf 5dbc 9378 0fbd b72a 8fbc f5c1 9dbc
00000200: bbc3 8bbc 5e0e 25bd 5a86 533c 5f10 d23c
00000210: 7c64 653c e3c3 d8bc 848a 1a3b a9de 413a
00000220: e258 7bbc 3145 083c 9a24 6a3d ae5e 0f3b
00000230: 482d 8dbd 01e0 aebc e6f5 b8ba e4a6 fe3c
00000240: 5c1f d9bc 8789 c83c 02a5 9abc 7783 943c
00000250: 5720 623b eaf3 26bd 87fc 2bbd db9c b6bc
00000260: b40c 20bd cb13 31bd bf37 bb3c ab8f d3bc
00000270: a785 243c 2958 9dba 9800 90ba c4f0 c33c
00000280: a171 0a3a 4999 d6bc bd08 413c 9481 a43c
00000290: 5301 abbc 58cc f13c 772a 29bb 9c25 bc3c
000002a0: 4cd9 633c 2395 0dbc 803c 793c 8e70 4dbc
000002b0: 51fc d63c f8ec 26bc 4f24 63bb 5a99 4d3c
000002c0: 9e2a d03c b76a c8bc 8733 28bd 9b69 e8bb
000002d0: 6606 54bd 99d3 58ba 7738 cfbc edaa 13bd
000002e0: 9e35 353d 6600 a53c a122 923c 738d a43c
000002f0: 8e31 a2bc 815f b03c b5d7 bd3c 52d6 6f3c
00000300: d669 49bc c9f0 e7bb dcd1 94bc 6b1c f13c
00000310: ee84 123c 805b f03b cfcf 8ebd 4683 ef3c
00000320: 0a86 07bd 4228 18bc 0e4f 3dbd 7731 b6bc
00000330: b973 6cbc cc3b ac3c 27e7 18bc a11f 903c
00000340: 730a d1bc 2ec4 a33c 45e4 0bbc cc41 05bd
00000350: 1f74 9b3c 9c29 3bbc 3539 babc 72ec e5bb
00000360: e45b ba3c aa90 263d 2cb8 c53c 7fa4 41bd
00000370: e3f0 8a3d baf8 ffbc 2293 a23c 1a85 553d
00000380: 00c7 483d fd0e ecbb f492 503b b32e e53c
00000390: 5f1c 943c 6e31 7d3c 5c4f 95bd 5ec1 d23b
000003a0: 3d69 98bc 15d4 6a3b fa45 773c 1f15 47bd
000003b0: e11e e43c 9b4e 043d e874 13bc 45de 87bc
000003c0: b757 093d bed0 e03c d40f 50bc 5916 793d
000003d0: fdb1 d33c 9799 d1bb 1529 e5bc e300 e83c
000003e0: 4a21 e73c 0716 e5bc 1be1 16bc 7c38 0fbc
000003f0: a0ad 0f3d e63a 82bc 83cf ca3b 0b41 fc3c

network.4.bias f4 [64]
0.13893715 0.10221495 -0.016214762 -0.0836554 -0.16403896 -0.24670647 0.042011105 -0.018403608
0.0068867994 0.09101493 -0.044016633 -0.029543651 -0.0008517684 0.088503696 -0.054395735 0.036257457
-0.09078683 0.29335836 -0.015419969 0.24546815 -0.03411253 -0.19776036 -0.0025639266 -0.21770003
-0.23660402 -0.07462517 -0.21330877 0.17532526 -0.037331715 -0.048109222 -0.04298273 0.052288648
-0.044971976 -0.121050574 -0.0010461246 0.0032047462 0.23465277 0.23921728 -0.04920476 -0.25111178
0.029049745 0.21958727 -0.049004715 0.04642301 -0.07582749 0.016762132 -0.022587419 0.027569141
0.0030558177 -0.25290796 -0.1694073 -0.0045538293 -0.024963582 0.010970272 -0.04474685 -0.19992521
-0.27233657 -0.03290966 0.2429527 -0.1993542 -0.037647635 -0.037733044 0.25287655 -0.04652908
00000000: 8a45 0e3e 1256 d13d d2d4 84bc 8653 abbd
00000010: d4f9 27be 9fa0 7cbe d613 2c3d 2ac3 96bc
00000020: a9aa e13b 0966 ba3d c94a 34bd 8705 f2bc
00000030: 3649 5fba 6d41 b53d 10ce 5ebd b382 143d
00000040: 72ee b9bd 1133 963e 0aa4 7cbc 015c 7b3e
00000050: 95b9 0bbd b181 4abe 8d07 28bb c2ec 5ebe
00000060: 5348 72be 15d5 98bd 9d6d 5abe 7788 333e
00000070: 24e9 18bd 2d0e 45bd a90e 30bd 9f2c 563d
00000080: 8934 38bd 5de9 f7bd 1e1e 89ba b806 523b
00000090: d148 703e 60f5 743e ee8a 49bd b991 80be
000000a0: bbf9 ed3c 7cdb 603e 2bb9 48bd 0e26 3e3d
000000b0: 714b 9bbd bd50 893c 4009 b9bc aed8 e13c
000000c0: 1d44 483b 277d 81be 1b79 2dbe 4a38 95bb
000000d0: 6d80 ccbc a8bc 333c 7948 37bd 32b9 4cbe
000000e0: b36f 8bbe 48cc 06bd 98c8 783e 8223 4cbe
000000f0: 6834 1abd f78d 1abd 0979 813e 4795 3ebd
